Save Model/KD2/student_kd_best.pth (torch, 628953 bytes, 61 tensors)

stem.0.weight f4 [48, 3, 3, 3]
0	0x3daf629d	0.08563731
1	0x3d915501	0.07096291
2	0xbe27523e	-0.16339967
3	0xbdded3cc	-0.10880241
4	0xbebc883e	-0.36822695
5	0xbeacef6d	-0.33776417
6	0xbd549231	-0.05189723
7	0xbe5d5406	-0.21614084
8	0xbdc109c9	-0.094256945
9	0x3ec9d075	0.39416853
10	0xbd82c4c6	-0.06385188
11	0xbd4e70ff	-0.05040073
12	0x3e1aef3f	0.15130328
13	0xbdcc123a	-0.09964414
14	0xbd28fcb0	-0.041256607
15	0x3cc7ff6c	0.024413787
16	0x3d716f38	0.058943957
17	0x3e5be8b7	0.21475492
18	0xbda96d1e	-0.082727656
19	0xbe1b5c66	-0.15171966
20	0x3e27ab04	0.16373831
21	0x3e643334	0.22285157
22	0xbdf624fc	-0.12018773
23	0xbe59a862	-0.21255639
24	0x3e026a14	0.12735778
25	0xbe4656e8	-0.1936909
26	0xbd5dbf03	-0.05413724
27	0x3d45452f	0.04816168
28	0xbe35c413	-0.17750578
29	0xbe393d5c	-0.18089813
30	0xbb928e8e	-0.0044725602
31	0xbe3960d9	-0.1810335
32	0xbe3a46a4	-0.1819101
33	0xbdb2caf7	-0.08730119
34	0xbd956c37	-0.07296031
35	0xbe7285ad	-0.23683806
36	0xbe549019	-0.20758094
37	0xbe5a9b93	-0.2134841
38	0xbc314307	-0.010819203
39	0xbe71aff8	-0.23602283
40	0x3d76accf	0.060223397
41	0xbe613225	-0.21991785
42	0xbc53c7af	-0.012926026
43	0xbe69c8e6	-0.22830543
44	0xbbc7b3db	-0.0060944385
45	0x3e046bd3	0.12931757
46	0x3e59ffa3	0.21288924
47	0x3dabb749	0.08384568
48	0x3e85586a	0.26044017
49	0xbcb3df80	-0.021957159
50	0x3d90181c	0.070358485
51	0x3d8c93ff	0.068641655
52	0x3e959d5b	0.29221615
53	0x3d968aa2	0.07350661
54	0x3dd8836f	0.10571944
55	0x3e27030d	0.16309758
56	0x3e2f4c89	0.1711904
57	0x3e115350	0.14191937
58	0x3e6bef7b	0.23040573
59	0xbe00bb9e	-0.1257157
60	0x3d8f44c8	0.06995541
61	0x3de7ac7c	0.11312196
62	0xbd8f2bb3	-0.06990757
63	0xbd5740e3	-0.052552115
64	0xbdf95816	-0.12175004
65	0xbc0bb161	-0.008526177
66	0xbdfb243f	-0.12262773
67	0x3e1663ad	0.14686461
68	0x3e390531	0.18068387
69	0xbdbaab1b	-0.09114667
70	0x3dd6c01c	0.10485861
71	0xbd96e571	-0.07367981
72	0xbed714ae	-0.42007965
73	0xbe34d89e	-0.17660758
74	0xbe1d73ab	-0.15376155
75	0xbeb8e021	-0.36108497
76	0xbe01fb58	-0.12693536
77	0xbe99b2e7	-0.30019304
78	0xbed1b8a7	-0.4096119
79	0xbe9b22cd	-0.30299988
80	0xbe43e7e9	-0.19131435
81	0xbe51f5ca	-0.20503917
82	0xbd0d21fd	-0.034456242
83	0xbcbfa100	-0.0233922
84	0xbdf9f01e	-0.12204002
85	0x3d77e48d	0.060520697
86	0xbceefce4	-0.029173322
87	0x3d9c53d7	0.07633179
88	0x3e80c19c	0.25147712
89	0x3e764cc4	0.24052721
90	0x3cb10ec4	0.021613486
91	0xbdc96a64	-0.098347455
92	0xbe88d561	-0.26725295
93	0xbd5b6faf	-0.053573307
94	0xbe1819de	-0.14853618
95	0xbe4a445b	-0.19752638
96	0xbd54507c	-0.05183457
97	0xbe77f69e	-0.2421517
98	0xbe8411fe	-0.25794977
99	0xbd63eb9a	-0.05564461
100	0x3e29ad27	0.16569959
101	0x3dffcb47	0.12489944
102	0x3e47537d	0.19465442
103	0x3e821116	0.2540366
104	0xbc1746ee	-0.00923322
105	0x3d5d4b1d	0.05402671
106	0x3e8376aa	0.2567647
107	0x3e9791fe	0.2960357
108	0x3e75c128	0.23999465
109	0x3e17701f	0.14788865
110	0x3e08996a	0.13339773
111	0xbd9d79b7	-0.07689231
112	0x3de04edd	0.10952542
113	0x3e01e1e4	0.12683827
114	0x3e3e13db	0.18562262
115	0xbc05c11d	-0.008163718
116	0xbd622f50	-0.055220902
117	0xbe40340d	-0.18769856
118	0xbe3284fc	-0.17433542
119	0xbdf99e57	-0.12188404
120	0xbebc7099	-0.36804655
121	0xbec0b8b6	-0.37640923
122	0xbe4dfcd4	-0.20115978
123	0xbddab919	-0.10679836
124	0xbedb5563	-0.42838582
125	0xbef45bf1	-0.47726396
126	0xbdb6065d	-0.088879324
127	0x3dad8107	0.08471876
128	0x3d293803	0.041313183
129	0x3d3873c2	0.04503227
130	0xbe2d32db	-0.16913931
131	0x3e266da2	0.16252759
132	0x3dbc0d99	0.09182281
133	0xbc43c3bc	-0.011948522
134	0x3ddfe379	0.10932059
135	0xbdfcad3c	-0.12337729
136	0xbdbf3e45	-0.09338049
137	0xbdeafe74	-0.11474314
138	0x3991a6d9	0.00027780866
139	0xbde826db	-0.11335536
140	0x3da96690	0.08271515
141	0x3d029134	0.031876758
142	0xbe362e67	-0.17791139
143	0xbc885ca8	-0.016645744
144	0x3e1018a1	0.14071895
145	0xbcb9bb25	-0.022672245
146	0xbe2292fd	-0.15876384
147	0xbd613a67	-0.054987337
148	0xbe72e9cd	-0.23722
149	0x3e278ebc	0.16363043
150	0xbd4a9b63	-0.049464595
151	0x3af45393	0.001864063
152	0xbc1563e2	-0.009118052
153	0x3ed84824	0.4224254
154	0x3ed6d582	0.4195977
155	0x3ef88769	0.4854081
156	0x3eb813f0	0.3595271
157	0x3e9cf846	0.30658168
158	0x3edd8f32	0.43273312
159	0x3deeafd3	0.116546296
160	0x3e27506f	0.16339277
161	0x3ec79dab	0.3898748
162	0xbe079cf0	-0.1324346
163	0xbdea8253	-0.114506386
164	0x3d8f30c2	0.06991722
165	0x3d8ddb1a	0.06926556
166	0x3e200d32	0.15630034
167	0x3d500e89	0.05079511
168	0x3d922380	0.07135677
169	0x3cbfc78c	0.023410581
170	0xbc324be1	-0.010882349
171	0xbe1bcffe	-0.15216061
172	0x3d231de3	0.039823424
173	0xbe70623e	-0.23474976
174	0xbd03ab39	-0.032145713
175	0xbe87820a	-0.264664
176	0x3ba91f98	0.005161237
177	0xbe7ef133	-0.24896698
178	0xbe235806	-0.15951547
179	0xbea3f76a	-0.320247
180	0xbe850dba	-0.25987035
181	0xbe66df48	-0.22546113
182	0xbe2159d2	-0.1575692
183	0xbe883dae	-0.26609558
184	0xbdab185e	-0.08354257
185	0xbe71fbf2	-0.23631266
186	0xbdc4c2b3	-0.096074484
187	0x3d879fc8	0.06622273
188	0xbccc01d5	-0.024903217
189	0x3eb060a6	0.34448737
190	0x3e9ed468	0.31021428
191	0x3e66001d	0.2246098
192	0x3e9212d0	0.28529978
193	0x3f03cb03	0.51481646
194	0x3c0bf938	0.008543305
195	0x3d3bba94	0.04583223
196	0x3f10a2a3	0.56498164
197	0x3cb2437b	0.021760693
198	0xbe201837	-0.15634237
199	0x3e396661	0.1810546
200	0x3c98ac42	0.018636826
201	0xbc579410	-0.013157859
202	0xbe00dc65	-0.12584074
203	0x3cb51fe6	0.022109937
204	0x3e4775f2	0.19478586
205	0x3d7985a9	0.060918484
206	0xbd212091	-0.0393377
207	0x3dc0586a	0.09391864
208	0xbe4d8751	-0.2007115
209	0xbca26e26	-0.019827913
210	0xbd31e2c3	-0.043429147
211	0xbe290c0b	-0.165085
212	0x3d5c7a0a	0.053827323
213	0xbdd9d006	-0.106353804
214	0x3e263862	0.16232446
215	0xbe47b9c7	-0.19504462
216	0x3d7c9e2f	0.061674293
217	0x3e303d86	0.1721097
218	0xbd9aa06b	-0.075501285
219	0xbd30b15f	-0.043137904
220	0x3dd03a99	0.101674266
221	0x3da8f139	0.082491346
222	0xbd46abe3	-0.048503768
223	0x3e23707b	0.15960877
224	0xbd3c10a1	-0.045914296
225	0xbdcbbb64	-0.09947851
226	0x3c579c92	0.013159888
227	0x3df9f1da	0.12204333
228	0x3d337fb6	0.043822967
229	0xbd159cf1	-0.036526624
230	0xbd9b6f25	-0.075895585
231	0xbd0bac87	-0.03410008
232	0x3d5b29d6	0.053506695
233	0xbc3d0df5	-0.011538972
234	0xbe44cff6	-0.19219956
235	0xbe9e9046	-0.30969447
236	0xbd48c460	-0.049015403
237	0xbf1658a6	-0.58729017
238	0xbede9ced	-0.434791
239	0xbe553a24	-0.2082296
240	0xbef592a1	-0.4796343
241	0xbe39407c	-0.18091005
242	0xbe0cf7d3	-0.13766412
243	0x3ddbab9b	0.107260905
244	0xbe78c0d8	-0.24292314
245	0xbe755535	-0.23958285
246	0x3e81cf92	0.25353676
247	0xbd7461c6	-0.059663557
248	0x3cc33116	0.023827117
249	0x3d4ce6b5	0.050024707
250	0x3e1917d0	0.1495049
251	0x3c594fe1	0.0132636735
252	0xbc203971	-0.00977932
253	0xbdce9fa5	-0.100890435
254	0xbda883a6	-0.08228235
255	0x3e9ae48b	0.3025249

stem.1.weight f4 [48]
0	0x3f6c7bb9	0.92376286
1	0x3f76d31e	0.9641589
2	0x3f7971ed	0.9743946
3	0x3f8ad626	1.0846603
4	0x3f6d7c2f	0.92767614
5	0x3f6709a9	0.90249115
6	0x3f7af9c3	0.98037356
7	0x3f832436	1.0245426
8	0x3f746977	0.95473427
9	0x3f6140e8	0.87989664
10	0x3f728bd4	0.9474461
11	0x3f83cd9a	1.029712
12	0x3f50e7b1	0.81603533
13	0x3f8820f5	1.0635058
14	0x3f79b58c	0.97542644
15	0x3f7bed27	0.9840874
16	0x3f84a509	1.0362865
17	0x3f9078b1	1.1286832
18	0x3f77677c	0.9664228
19	0x3f88cdd9	1.068782
20	0x3f866471	1.0499402
21	0x3f6a0bd1	0.9142428
22	0x3f902d01	1.1263734
23	0x3f79ea87	0.97623485
24	0x3f81ea62	1.0149653
25	0x3f81d3ea	1.0142796
26	0x3f8811a0	1.0630379
27	0x3f625eef	0.8842611
28	0x3f730fbd	0.9494589
29	0x3f7754d3	0.96613806
30	0x3f8fea43	1.1243366
31	0x3f8afcb1	1.0858365
32	0x3f68cc42	0.9093667
33	0x3f581133	0.84401244
34	0x3f7103f5	0.9414666
35	0x3f8c34a5	1.0953566
36	0x3f85ed55	1.0463053
37	0x3f74d0c9	0.9563108
38	0x3f9cf585	1.2262427
39	0x3f5a972f	0.8538694
40	0x3f851f63	1.0400203
41	0x3f8a9cc1	1.0829087
42	0x3f8b5b02	1.0887148
43	0x3f8dce30	1.1078548
44	0x3f656e2c	0.89621234
45	0x3f835f93	1.0263542
46	0x3f6fff77	0.93749183
47	0x3f46261b	0.77401894

stem.1.bias f4 [48]
0	0xbd83b3ae	-0.064307556
1	0x3d1e398b	0.038629096
2	0x3d290a82	0.041269787
3	0x3f1556a5	0.58335334
4	0x3e1d5f51	0.15368392
5	0x3d6d3e00	0.057920456
6	0xbe970052	-0.29492432
7	0x3e6a6b07	0.2289239
8	0xbdd4ead2	-0.10396351
9	0xbd38e6fc	-0.04514216
10	0x3d5184e0	0.05115211
11	0x3e4331ad	0.19061919
12	0x3d47fe9a	0.04882679
13	0x3e1bdc67	0.15220796
14	0xbe5cb719	-0.21554221
15	0x3c9268b3	0.01787219
16	0x3c6a1965	0.014288281
17	0x3e4b1ee4	0.19836003
18	0x3e474016	0.1945804
19	0xbc8afa3e	-0.016965028
20	0x3eac1ad7	0.33614227
21	0x3e32cb52	0.17460373
22	0x3ef7494a	0.48298103
23	0x3e14ea0a	0.14542404
24	0xbd60cd0d	-0.05488305
25	0xbd20565f	-0.03914487
26	0x3e3cca80	0.18436623
27	0x3e1324af	0.14369462
28	0xbe09ee3c	-0.13469785
29	0xbe7dbecc	-0.24779814
30	0x3e1977f3	0.14987163
31	0x3e044829	0.12918152
32	0x3d54db2a	0.051966824
33	0xbe035211	-0.12824275
34	0x3eb7416f	0.3579211
35	0xbb8f7a89	-0.004378621
36	0x3e0e6178	0.13904369
37	0xbe7697ac	-0.24081296
38	0x3e01e89d	0.12686391
39	0xbed7ab5a	-0.42122918
40	0x3db26663	0.08710935
41	0x3eb19167	0.34681246
42	0xbe31f22d	-0.17377539
43	0x3d37aa19	0.044839952
44	0xbdfbaa00	-0.12288284
45	0x3d89a5de	0.0672109
46	0x3e0e488b	0.1389486
47	0xbd0fd792	-0.035117693

stem.1.running_mean f4 [48]
0	0xbf90842f	-1.1290339
1	0xbf1971fe	-0.59939563
2	0xbefa2a3d	-0.4886035
3	0x3f1c12e8	0.6096635
4	0x3ee4c6b0	0.44682837
5	0x3f817d83	1.0116428
6	0xbf35e6a2	-0.7105504
7	0x3ffae0b6	1.9599826
8	0xbf73161f	-0.9495563
9	0x3df381e2	0.118900076
10	0xbf7589bf	-0.9591331
11	0x3f8e0e88	1.1098185
12	0xbea5920c	-0.32337987
13	0xbf336257	-0.7007193
14	0xbed0f92a	-0.40815097
15	0xbf9b8fd5	-1.2153269
16	0x3f493d81	0.7860947
17	0xbe88212f	-0.26587817
18	0x3fb900a6	1.4453323
19	0xbebf3c53	-0.3735071
20	0x400c79f9	2.1949446
21	0x3ffc5026	1.9711959
22	0x3f2d0179	0.6758037
23	0xbea47f67	-0.3212845
24	0xbf6bd4d6	-0.92121637
25	0xbce9e5fe	-0.028552052
26	0x3fc0114e	1.5005281
27	0xbebbb67f	-0.3666267
28	0xbf897599	-1.0739013
29	0xbf5e92c8	-0.8694272
30	0xbf71fd16	-0.94526803
31	0xbefd7893	-0.49506053
32	0x3f020612	0.5079051
33	0x3d806e37	0.06271022
34	0x3ee58f40	0.44835854
35	0xbfb6c351	-1.4278356
36	0x3dfd7442	0.1237569
37	0xc01f96bb	-2.4935749
38	0xbfcadb50	-1.5848179
39	0xbe9a85ad	-0.30180112
40	0xbed3c919	-0.41364363
41	0x3ffb3dab	1.9628195
42	0xbf9f54fe	-1.2447813
43	0xbea05c59	-0.31320456
44	0x3f8410a9	1.0317584
45	0xbf7872ff	-0.9705047
46	0x3fb7205d	1.4306751
47	0xbf318b2f	-0.69353

stem.1.running_var f4 [48]
0	0x3fa22fcb	1.2670835
1	0x3f9b6030	1.2138729
2	0x405218a1	3.2827532
3	0x3e69cb09	0.22831358
4	0x3ff8c524	1.9435163
5	0x40bb33df	5.850082
6	0x40afc7ed	5.493155
7	0x40a3ccee	5.118766
8	0x40a463c0	5.1371765
9	0x3f8b3768	1.0876284
10	0x3ed7c9d7	0.4214618
11	0x3f5c1c7d	0.8598097
12	0x3f1b664c	0.6070297
13	0x3f8af76e	1.085676
14	0x4051f8bd	3.2808068
15	0x405d17f6	3.4545875
16	0x4016dcea	2.3572335
17	0x3f9c5eb0	1.2216396
18	0x4057baf2	3.3707852
19	0x4075d2e9	3.840998
20	0x4065931c	3.5871038
21	0x405b8fb3	3.4306457
22	0x3f5efae0	0.87101555
23	0x3fcbd11d	1.5923191
24	0x3f1427e6	0.5787338
25	0x3f41b96e	0.7567357
26	0x4027b942	2.6206822
27	0x3f4ca756	0.79942834
28	0x40b6c5b0	5.711632
29	0x3f1b9b31	0.6078368
30	0x3f8cf45c	1.1012073
31	0x4093942b	4.611837
32	0x40351d6a	2.8299203
33	0x40093167	2.1436403
34	0x3e64961a	0.22322884
35	0x3f88add2	1.0678046
36	0x3f4e8d2b	0.80684155
37	0x40db488c	6.852606
38	0x3fc5d986	1.5457008
39	0x3f9bd3a1	1.2173959
40	0x4028c250	2.63686
41	0x407f687d	3.9907525
42	0x3ff7722b	1.9331716
43	0x3fdbd55d	1.7174488
44	0x40cf1107	6.4708285
45	0x3eef210d	0.46704903
46	0x3fcfecfc	1.6244197
47	0x3fc7cf24	1.5610089

stage.0.dw.weight f4 [48, 1, 3, 3]
0	0xbef6fdba	-0.48240453
1	0xbdcd187e	-0.10014437
2	0x3df0fc40	0.11766863
3	0x3d94c5f2	0.072643176
4	0x3d9863b7	0.07440894
5	0x3e854091	0.26025823
6	0x3e890873	0.2676426
7	0x3e6e083f	0.23245333
8	0xbea2469d	-0.316945
9	0xba4d0eaf	-0.00078223174
10	0x3e0ecde7	0.13945733
11	0xbe81a552	-0.25321442
12	0x3e9e874a	0.30962592
13	0xbed4679e	-0.41485304
14	0x3dbc108d	0.09182844
15	0xbe215cd9	-0.15758075
16	0xbedae55d	-0.42753115
17	0xbe857129	-0.26062897
18	0xbd56abf6	-0.05241009
19	0xbc913ff2	-0.017730687
20	0xbe742df0	-0.23845649
21	0xbd81764e	-0.06321393
22	0x3e524317	0.20533405
23	0xbdc4d69b	-0.09611245
24	0xbe1d065d	-0.15334459
25	0xbe14442a	-0.14479128
26	0x3eb94c7b	0.36191162
27	0xbda26c05	-0.07930759
28	0x3e6cbf67	0.23119889
29	0xbebcf231	-0.36903527
30	0x3e754d58	0.23955286
31	0x3e19be35	0.15013964
32	0xbea7087f	-0.3262367
33	0x3ea73064	0.32654107
34	0x3d93bdac	0.072139114
35	0x3d9c68da	0.07637186
36	0x3cdb99b4	0.02680669
37	0xbea05aba	-0.3131922
38	0x3ed44f8a	0.41466933
39	0xbe56721b	-0.20941965
40	0xbe0310fe	-0.12799451
41	0x3e0d183d	0.13778777
42	0xbe30618f	-0.17224716
43	0x3e016730	0.12637019
44	0x3e46bb78	0.19407451
45	0x3da14a9e	0.0787556
46	0xbe5de561	-0.21669532
47	0x39911496	0.00027671893
48	0x3d996db0	0.07491624
49	0x3deb0ea0	0.11477399
50	0x3d02520d	0.03181653
51	0x3ba326e2	0.0049790004
52	0xbe0dce04	-0.1384812
53	0x3d65b53e	0.05608105
54	0xbe9b786b	-0.3036531
55	0xbe9a01d9	-0.30079535
56	0xbee4084a	-0.44537574
57	0xbe9fd0ef	-0.3121409
58	0x3d6633d2	0.056201763
59	0x3d290bf2	0.041271158
60	0x3e7f4972	0.24930361
61	0xbe3d0b5c	-0.18461365
62	0xbe8db63f	-0.27678105
63	0x3e9b05fa	0.30277997
64	0x3e11c854	0.14236575
65	0x3dfab476	0.122414514
66	0x3e44e12f	0.19226526
67	0x3e2576d8	0.16158617
68	0x3e51c84e	0.20486566
69	0x3e9284de	0.28616995
70	0xbd9afec2	-0.075681224
71	0xbd8ca52a	-0.0686744
72	0xbe7dd4c0	-0.24788189
73	0xbe882c34	-0.26596224
74	0x3efd7277	0.49501392
75	0xbd77c853	-0.06049378
76	0xbe91ffcc	-0.2851547
77	0x3c194131	0.009353922
78	0xbde557e7	-0.11198407
79	0x3ed97f23	0.4247981
80	0x3d967f3b	0.07348486
81	0x3de38cc4	0.11110833
82	0x3e0bd44f	0.13655208
83	0xbd010e80	-0.03150797
84	0xbc4256f9	-0.011861556
85	0xbe87d179	-0.26527002
86	0xbe62c9d5	-0.22147305
87	0x3eca10fa	0.39466077
88	0xbea1e343	-0.316187
89	0xbe887e83	-0.2665902
90	0xbe928818	-0.28619456
91	0xb97bc6ba	-0.00024011257
92	0xbea4daef	-0.32198283
93	0xbed70dfd	-0.4200286
94	0xbd020d2c	-0.031750843
95	0xbded19bf	-0.11577176
96	0xbe56c033	-0.20971756
97	0xbeca0336	-0.39455575
98	0x3e5975fb	0.21236412
99	0x3d8b3843	0.067978404
100	0xbd82e138	-0.06390613
101	0x3ed152c3	0.40883455
102	0xbd9ef92e	-0.07762371
103	0xbda8a59d	-0.08234713
104	0x3eaaf497	0.33389732
105	0xbeaefc23	-0.3417674
106	0xbe9e5833	-0.30926666
107	0x3e7d816e	0.24756405
108	0xbdd77758	-0.1052081
109	0x3d9629f2	0.07332219
110	0x3ebff98a	0.3749507
111	0xbe973013	-0.29528865
112	0xbeaeef5f	-0.34167
113	0x3d9d8f4f	0.076933496
114	0x3e4fc5c9	0.20290293
115	0xbc3b7dd1	-0.011443571
116	0x3e3ffb4c	0.18748206
117	0x3ec88286	0.3916208
118	0xbe6e170d	-0.2325098
119	0x3e82b403	0.25527963
120	0x3e67597c	0.2259273
121	0xbd1b14e9	-0.03786174
122	0xbdb26a4c	-0.08711681
123	0x3dcf75a7	0.10129862
124	0xbe38df46	-0.18053922
125	0xbe034f79	-0.12823285
126	0x3ee412c2	0.4454556
127	0xbda570f2	-0.08078183
128	0xbe0e0061	-0.13867332
129	0x3d969c14	0.07353988
130	0x3e2d588e	0.16928312
131	0xbec3f709	-0.3827441
132	0x3eae14df	0.34000298
133	0xbcae54ce	-0.021280672
134	0xbd31ed7b	-0.04343937
135	0xbe642af1	-0.22282006
136	0x3e9be85f	0.30450723
137	0xbe146d46	-0.1449481
138	0xbee11ed9	-0.43968847
139	0xbde2d335	-0.11075441
140	0x3e8c7093	0.27429637
141	0x3cb7e869	0.022449689
142	0xbdee22fa	-0.11627765
143	0x3eb5a0a3	0.3547412
144	0xbd150afc	-0.03638743
145	0x3e4ce086	0.20007524
146	0xbe68e781	-0.22744562
147	0x3e6e00c6	0.23242483
148	0x3e99eab8	0.3006189
149	0xbe6f71d1	-0.23383261
150	0x3b6e3b07	0.00363511
151	0xbcc14c6c	-0.023596011
152	0xbeb58202	-0.3545075
153	0x3e9b18af	0.3029227
154	0xbbd0f816	-0.0063772304
155	0xbe59f808	-0.21286023
156	0x3d94b754	0.072615296
157	0xbe99a7ba	-0.30010778
158	0xbec6662a	-0.3874982
159	0x3e070217	0.13184391
160	0xbec5a735	-0.3860413
161	0xbe37f7ea	-0.17965665
162	0x3ed9cefe	0.42540735
163	0xbdc6ce3b	-0.09707304
164	0x3e3615ae	0.17781708
165	0x3e027035	0.12738116
166	0xbd3108e8	-0.043221384
167	0x3d62afb5	0.05534335
168	0xbe7daded	-0.24773379
169	0xbea62ed1	-0.32457593
170	0x3e34444e	0.17604181
171	0xbe3d9982	-0.1851559
172	0xbd5dfbc2	-0.054195173
173	0xbe05d5f9	-0.13069905
174	0xbe05c713	-0.13064222
175	0xbd1ab6b9	-0.037771914
176	0x3d9b0a0d	0.075702764
177	0xbe7436d4	-0.2384904
178	0x3c0e3f7d	0.008682129
179	0x3e2c7ec5	0.16845234
180	0xbe3cbf81	-0.18432428
181	0x3e55918d	0.20856304
182	0xbe46b46d	-0.19404764
183	0x3e9ed4a2	0.310216
184	0x3e5886dd	0.21145196
185	0xbe0b3906	-0.13595971
186	0x3e8a0bbc	0.26962078
187	0x3e667ba5	0.22508104
188	0x3e6e76bb	0.2328748
189	0x3e806b57	0.25081894
190	0x3d8239aa	0.06358655
191	0x3d593140	0.053025484
192	0x3c0f9e68	0.008765794
193	0x3ec43460	0.3832121
194	0xbe62bda4	-0.22142655
195	0x3e6cc724	0.23122841
196	0x3e25a715	0.16177018
197	0x3e8a0bec	0.2696222
198	0x3e9a1264	0.30092156
199	0x3eccc2ef	0.39992473
200	0x3cf58560	0.029970825
201	0xbec70b88	-0.38875985
202	0x3d132ea7	0.035933163
203	0x3eaeba3e	0.34126467
204	0xbebaf7fe	-0.36517328
205	0xbd69b092	-0.057053156
206	0xbe10a652	-0.14125946
207	0xbdf4413a	-0.119265035
208	0xbd132698	-0.035925478
209	0x3e75303f	0.23944186
210	0xbd137ecf	-0.036009606
211	0x3ea81741	0.3283024
212	0xbd71a8a8	-0.058998734
213	0xbe050b1c	-0.12992519
214	0xbd338f90	-0.043838084
215	0xbe30b942	-0.1725817
216	0xbe6da6bd	-0.23208137
217	0x3e688aa6	0.2270914
218	0xbe3ce058	-0.18444955
219	0xbcf56975	-0.029957512
220	0x3dd7de48	0.10540444
221	0x3dec68cf	0.11543428
222	0xbe885fd8	-0.26635623
223	0xbea1b2cf	-0.31581733
224	0xbe9649ad	-0.29353085
225	0xbe1fabc2	-0.15592864
226	0xbda50f5f	-0.080595724
227	0xbe4af726	-0.19820842
228	0xbd784794	-0.060615137
229	0x3e0e10fc	0.13873667
230	0x3c619886	0.013769275
231	0x3e0948b4	0.1340664
232	0x3a0bf8e5	0.00053395174
233	0xbe55262f	-0.20815347
234	0x3e6d9905	0.23202904
235	0x3ea2d051	0.31799558
236	0xbe9303df	-0.2871389
237	0x3e99d99f	0.30048844
238	0xbdc4bce1	-0.09606338
239	0xbe40914b	-0.18805425
240	0x3df2420e	0.11829005
241	0xbdbc8019	-0.0920412
242	0xbe01fb24	-0.12693459
243	0xbe6cba77	-0.23118006
244	0x3e9c586e	0.30536216
245	0x3e99a438	0.300081
246	0xbca5745e	-0.02019709
247	0x3d98d4d1	0.074624665
248	0xbe1ecd5c	-0.15508026
249	0xbca7e40c	-0.020494483
250	0xbe39fba4	-0.181624
251	0xbe7608da	-0.24026814
252	0xbe197489	-0.14985861
253	0xbddbb22d	-0.10727344
254	0xbcb00f54	-0.021491684
255	0x3dc984b0	0.09839761

stage.0.pw.weight f4 [48, 48, 1, 1]
0	0xbc22d1dc	-0.00993773
1	0xbd54e2ce	-0.05197411
2	0x3d1d61bb	0.03842328
3	0xbd9b052b	-0.07569345
4	0xbd50f3cd	-0.051013757
5	0xbc4a5fcd	-0.012351942
6	0x3dbf9868	0.09355241
7	0xbe798aa7	-0.24369298
8	0x3d9ee2b3	0.07758083
9	0xbe3917d6	-0.18075499
10	0xbdaf2df0	-0.08553684
11	0xbe01d0d8	-0.12677324
12	0x3e196b46	0.14982328
13	0xbe0dbde7	-0.13841973
14	0x3dc5ae37	0.096523695
15	0xbe18cb65	-0.14921339
16	0xbe0e087a	-0.13870421
17	0x3df233a9	0.1182626
18	0x3e02ce93	0.12774114
19	0x3c003673	0.007825482
20	0xbeabbe17	-0.33543465
21	0xbedd1104	-0.43177044
22	0x3e007e37	0.12548147
23	0xbceeb3ed	-0.02913853
24	0xbd1f88c2	-0.03894878
25	0xbdb26230	-0.08710134
26	0x3e1a1bcb	0.15049665
27	0xbd8ebb76	-0.06969349
28	0xbe212aea	-0.15739027
29	0x3dc7d028	0.097564995
30	0xbe2957af	-0.16537355
31	0xbc855591	-0.016276153
32	0xbe69c97d	-0.22830768
33	0x3da6a2f4	0.081365496
34	0x3e9982fc	0.29982746
35	0xbd9b46c1	-0.075818546
36	0xbddcd9be	-0.107837185
37	0x3b28efec	0.002577777
38	0xbc0693b2	-0.008213924
39	0x3d90b41d	0.07065604
40	0x3c21b332	0.009869384
41	0x3da7feb5	0.082028784
42	0xbde916b7	-0.11381286
43	0xbd8b72a1	-0.06808973
44	0xbe31d6ad	-0.17367049
45	0x3d8b8a4c	0.068134874
46	0xbe31b0b4	-0.17352563
47	0x3ca063a5	0.019578764
48	0x3d238096	0.03991755
49	0xbe08f1ea	-0.13373533
50	0x3e2950ed	0.16534777
51	0xbbe2b5b6	-0.0069186343
52	0xbc4e1ff4	-0.01258086
53	0xbe039c70	-0.12852645
54	0x3e69bc81	0.22825815
55	0x3d7782d9	0.06042752
56	0x3da0ac49	0.07845361
57	0x3e533c1e	0.20628402
58	0x3de9f731	0.11424101
59	0x3dddf744	0.10838178
60	0xbe41f3ed	-0.18940707
61	0x3c888d1a	0.016668845
62	0xbeb158dc	-0.34638107
63	0x3e2b9da2	0.16759351
64	0x3e921003	0.2852784
65	0xbe0c26e2	-0.13686708
66	0x3ca9e3ab	0.020738443
67	0x3e45d983	0.19321255
68	0xbda1ed08	-0.07906538
69	0xbe23bdfe	-0.15990445
70	0x3c8b50f6	0.017006379
71	0xbd7db2ff	-0.061938282
72	0xbcb81cb8	-0.022474632
73	0x3db89508	0.090128005
74	0x3e508a2d	0.2036521
75	0x3e279b0c	0.1636774
76	0x3d56d8b7	0.05245277
77	0xbd6fb259	-0.058519695
78	0x3d8cce61	0.06875301
79	0x3c8512b5	0.016244272
80	0x3e54e3a1	0.20789959
81	0xbdadbfb8	-0.08483833
82	0xbe0375e8	-0.12837946
83	0xbe268810	-0.16262841
84	0xbe2cf345	-0.16889675
85	0xbd7cb5af	-0.061696704
86	0x3e6a02ec	0.22852677
87	0xbd706049	-0.058685575
88	0x3e94b815	0.29046693
89	0xbe699e43	-0.22814278
90	0x3e9b548f	0.3033795
91	0xbc972f96	-0.018455308
92	0x3deeed82	0.11666395
93	0x3c976311	0.018479856
94	0x3e820930	0.25397635
95	0xbd9debe7	-0.077110104
96	0x3cc059ce	0.023480322
97	0xbd9574e5	-0.072976865
98	0x3d665127	0.056229737
99	0xbe356bc0	-0.17716885
100	0xbdd112e9	-0.10208685
101	0x3df4fa04	0.11961749
102	0xbd8eca5d	-0.069721915
103	0x3dc7c1fe	0.09753798
104	0xbd2d76d8	-0.042349666
105	0xbe4ce933	-0.20010833
106	0xbe6ccc81	-0.23124887
107	0x3dc7b262	0.09750821
108	0xbd0d8e37	-0.034559455
109	0xbc8fc5b8	-0.017550334
110	0xbcc75201	-0.024331095
111	0xbde53016	-0.11190812
112	0xbd8270f0	-0.06369197
113	0x3d933147	0.07187133
114	0xbc399524	-0.011327062
115	0xbe4d125d	-0.20026536
116	0xbda62b95	-0.08113781
117	0x3d68398c	0.056695506
118	0x3cd08c02	0.025457386
119	0x3d18249c	0.03714429
120	0xbde1c0ea	-0.110231236
121	0xbe6fd7e2	-0.23422197
122	0xbe348519	-0.17628898
123	0xbe2c443e	-0.16822907
124	0xbd10e277	-0.035372224
125	0x3dd2ad14	0.10286918
126	0x3d6c3386	0.057666324
127	0x3daaa93b	0.083330594
128	0xbc27e0af	-0.01024644
129	0x3bd1d279	0.006403264
130	0xbddfb351	-0.10922874
131	0xbdabc8b8	-0.083878934
132	0xbdce7eb9	-0.10082764
133	0xbe255d0e	-0.16148779
134	0x3d55bc0b	0.052181285
135	0xbe4193e4	-0.18904072
136	0xbcf77bd0	-0.030210406
137	0xbd83219a	-0.06402893
138	0xbea79c13	-0.32736263
139	0xbe801da2	-0.25022608
140	0xbd7fdf37	-0.062468734
141	0x3ea659a0	0.32490253
142	0xbdf30e69	-0.11867983
143	0xbe0947ad	-0.13406248
144	0xbdddf271	-0.10837258
145	0xbdf5e034	-0.12005654
146	0xbd040564	-0.032231703
147	0xbe49a999	-0.19693603
148	0x3da231d1	0.07919658
149	0xbd9c4bf0	-0.076316714
150	0xbbe1b484	-0.006887974
151	0xbe5c1164	-0.21491009
152	0x3e03be79	0.12865628
153	0xb9d3aabc	-0.00040372263
154	0x3e55bc48	0.20872605
155	0x3d1a179d	0.037620176
156	0xbd8291ba	-0.063754514
157	0xbe22bc5d	-0.15892167
158	0x3d5b2939	0.05350611
159	0xbdb7730f	-0.089574926
160	0xbcc46ef6	-0.023978692
161	0xbd5a8de0	-0.05335796
162	0xbd634d18	-0.055493444
163	0xbd7c9d6b	-0.061673563
164	0xbe392296	-0.180796
165	0x3d45a11c	0.04824935
166	0x3cd002da	0.025391985
167	0x3cec93a1	0.028878989
168	0x3b43efee	0.0029897648
169	0xbd806948	-0.06270081
170	0x3d322220	0.043489575
171	0xbe1dc092	-0.15405491
172	0xbdf578b4	-0.11985913
173	0x3e1e9aca	0.15488735
174	0xbc20a0b1	-0.009803937
175	0x3d1d6522	0.038426526
176	0x3c0dc2c5	0.008652394
177	0xbd080b78	-0.033214062
178	0x3db7a482	0.08966924
179	0x3edcddbd	0.43137923
180	0x3cf38538	0.02972661
181	0x3e9ec84f	0.31012198
182	0xbee87821	-0.4540415
183	0x3dd8b963	0.10582235
184	0xbe3cdea6	-0.18444309
185	0xbd5f8e46	-0.054579042
186	0x3e63dc1b	0.22251932
187	0x3dc34fb5	0.09536687
188	0xbdfd132d	-0.12357173
189	0xbe79b989	-0.24387182
190	0xbd0d20a6	-0.034454964
191	0x3c1fb404	0.009747509
192	0x3d16341f	0.0366708
193	0xbe2d31ff	-0.16913603
194	0x3d8555fd	0.065105416
195	0x3db7959c	0.089640826
196	0x3c9d1af0	0.019177884
197	0x3aa4e0c5	0.0012579194
198	0xbbf35419	-0.0074257967
199	0xbdc1899e	-0.094500765
200	0xbd75f18d	-0.060044814
201	0x3ad26cde	0.0016054173
202	0x3e51975c	0.20467895
203	0xbe954c6d	-0.2915987
204	0x3e7c5b80	0.2464428
205	0xbd7e3286	-0.0620599
206	0x3bf851fe	0.0075781336
207	0x3d5e54b1	0.054279987
208	0x3d8ba621	0.06818796
209	0xbe3ea161	-0.18616249
210	0x3a2c5ad3	0.0006574813
211	0xbcc8375d	-0.024440462
212	0x3d48541d	0.04890834
213	0x3d986ede	0.07443021
214	0xbe9590f7	-0.29212162
215	0x3d499826	0.049217366
216	0xbdcf3ac9	-0.10118634
217	0xbcfdf2ee	-0.030999627
218	0x3e6bb272	0.2301729
219	0x3d644c4b	0.05573682
220	0x3cbc95b6	0.023020606
221	0x3d61b221	0.055101518
222	0xbb875aff	-0.0041307206
223	0x3d5598ea	0.052147783
224	0x3dff037a	0.12451835
225	0x3c9de522	0.019274298
226	0x3dea014f	0.11426031
227	0xbe09a4d1	-0.13441779
228	0x3edeed30	0.43540335
229	0xbd0a3886	-0.03374531
230	0x3e027f81	0.12743951
231	0xbdfb6e74	-0.12276927
232	0x3b16df96	0.0023021451
233	0xbdeaf27e	-0.11472033
234	0x3e57bd1d	0.21068235
235	0x3dda4221	0.10657144
236	0x3ca7f72d	0.020503605
237	0xbea50a1e	-0.3223428
238	0xbccc4637	-0.024935825
239	0xbdb71a6d	-0.08940587
240	0xbc5fd8c7	-0.013662524
241	0xbdb27ae4	-0.08714846
242	0x3e40ab1e	0.18815276
243	0xbe6d0da2	-0.23149732
244	0x3da1b7d7	0.07896393
245	0x3c9fa3a4	0.01948721
246	0x3e18802b	0.14892642
247	0xbe5ca265	-0.21546324
248	0x3e08b39d	0.13349767
249	0x3e3b0c19	0.18266334
250	0x3d07913b	0.033097487
251	0x3e84ec0c	0.2596134
252	0x3c1ecbac	0.009692114
253	0x3e21d017	0.15802036
254	0xbe8c9911	-0.2746053
255	0xbe6479f1	-0.22312142

stage.0.bn.weight f4 [48]
0	0x3f7703fe	0.96490467
1	0x3f6a55de	0.9153727
2	0x3f316135	0.6928895
3	0x3ed0cd75	0.4078175
4	0x3f8f3b83	1.1190037
5	0x3f4c84e1	0.7989026
6	0x3f9a1bcf	1.2039737
7	0x3f44304f	0.76636213
8	0x3f4e1ade	0.80509746
9	0x3f7021db	0.9380166
10	0x3f6be0e7	0.9214005
11	0x3f5beb89	0.85906273
12	0x3f5cbebb	0.8622853
13	0x3f210252	0.62894166
14	0x3f3ff9b3	0.74990386
15	0x3f580277	0.8437876
16	0x3f8ae11d	1.0849949
17	0x3f31de86	0.6948017
18	0x3f3fcb2f	0.7491941
19	0x3f691ee3	0.91062754
20	0x3f360258	0.71097326
21	0x3f2b111b	0.66822976
22	0x3f1ed29b	0.6204011
23	0x3f9661d4	1.1748605
24	0x3f731189	0.9494863
25	0x3f282608	0.6568303
26	0x3f5bc1df	0.858427
27	0x3f623bc7	0.88372463
28	0x3f61df60	0.8823147
29	0x3f80d0d5	1.006373
30	0x3f15ef7d	0.58568555
31	0x3f25cb04	0.647629
32	0x3f90d5d3	1.1315254
33	0x3f8f1fd7	1.1181592
34	0x3f63667f	0.8882827
35	0x3f6a7121	0.9157887
36	0x3f4144d0	0.75495625
37	0x3f575512	0.8411418
38	0x3f328460	0.6973324
39	0x3f6fedb6	0.93722093
40	0x3f9a5ee2	1.2060206
41	0x3f295d49	0.66157967
42	0x3f930f7b	1.1489099
43	0x3f2ea616	0.6822218
44	0x3f7b995e	0.98280895
45	0x3f4ec340	0.8076668
46	0x3f8766b8	1.0578222
47	0x3f3bd949	0.73378426

stage.0.bn.bias f4 [48]
0	0x3d02e9f9	0.031961415
1	0xbde56e75	-0.11202709
2	0xbeb6fd0d	-0.35739937
3	0xbe5f2d92	-0.21794727
4	0xbc261bb6	-0.010138443
5	0xbd57137b	-0.052508812
6	0xbeae16ff	-0.3400192
7	0xbe061336	-0.13093266
8	0xbe693e4e	-0.22777674
9	0xbdf3e643	-0.11909153
10	0xbe651649	-0.22371782
11	0xbe2c9e58	-0.16857278
12	0x3deca92f	0.11555707
13	0xbe33dcf0	-0.1756475
14	0xbef74899	-0.48297575
15	0xbe870274	-0.2636906
16	0x3e086c43	0.13322549
17	0xbecae110	-0.39624834
18	0xbeb60b13	-0.35555324
19	0xbedcaf7e	-0.4310264
20	0xbe2bec17	-0.1678928
21	0xbe634586	-0.2219449
22	0xbedef1cd	-0.43543854
23	0x3e2ab16f	0.16669248
24	0xbe74e0b2	-0.2391384
25	0xbe9e51ab	-0.30921683
26	0xbec19465	-0.3780853
27	0xbe3e9064	-0.18609768
28	0xbefa7b82	-0.48922354
29	0xbecaa2bb	-0.39577278
30	0xbe352cb3	-0.17692833
31	0xbef23822	-0.4730845
32	0xbe94ea44	-0.2908498
33	0x3e4dcee1	0.2009845
34	0xbebea03f	-0.37231633
35	0xbe2bb438	-0.16767967
36	0xbe813d70	-0.25242186
37	0xbd6cc71b	-0.05780707
38	0xbed06f25	-0.40709797
39	0xbe978778	-0.29595542
40	0x3e5cab25	0.21549661
41	0xbe4e7f27	-0.20165692
42	0x3d9cfbeb	0.07665237
43	0xbecaf69d	-0.39641276
44	0xbe3d0ac7	-0.18461142
45	0xbe82047e	-0.25394052
46	0xbebd79b1	-0.37006906
47	0xbeb054c9	-0.34439686

stage.0.bn.running_mean f4 [48]
0	0xbe41b656	-0.18917212
1	0x3c152369	0.009102681
2	0x3ef2a848	0.47394013
3	0xbf3881bb	-0.72072953
4	0xbe46a13a	-0.1939744
5	0xbeba7bd7	-0.36422607
6	0x3e883fb1	0.26611093
7	0xbed3b9e9	-0.41352776
8	0x3ed07ef8	0.4072187
9	0xbf012574	-0.50447774
10	0xbca9ccb3	-0.020727491
11	0xbb5213b1	-0.0032055194
12	0xbd4f7e9a	-0.050657846
13	0xbf032ed1	-0.5124331
14	0x3ec99e10	0.39378405
15	0x3d33b1cc	0.043870732
16	0xbec1b86a	-0.3783601
17	0x3e00dec1	0.12584974
18	0x3eae486f	0.34039637
19	0xbdc4aa95	-0.096028484
20	0xbe2f3ee9	-0.17113842
21	0xbeaa3f90	-0.3325162
22	0x3e976b3d	0.29574004
23	0x3f095027	0.5363793
24	0x3e37ade1	0.17937423
25	0xbed70b9d	-0.42001048
26	0x3ed0bfc9	0.4077132
27	0xbe5989d6	-0.21243986
28	0x3efeba22	0.49751383
29	0x3e67c1c4	0.2263251
30	0xbf2819d2	-0.656644
31	0x3e8262c5	0.2546598
32	0x3ec0bcf8	0.37644172
33	0xbe5d9d43	-0.21642022
34	0xbd8297e0	-0.06376624
35	0xbe3e2bac	-0.18571347
36	0x3ed50e90	0.41612673
37	0xbe33ee2e	-0.17571327
38	0x3bf61640	0.0075099766
39	0x3dfd2cd1	0.12362064
40	0x3ea02bfa	0.3128355
41	0xbf1e11f6	-0.61746156
42	0x3cb1dd59	0.021711992
43	0xbf1b692b	-0.6070735
44	0xbd06ce7a	-0.032911755
45	0xbb21c691	-0.0024685005
46	0x3e15ebf6	0.14640793
47	0x3e93589c	0.2877854

stage.0.bn.running_var f4 [48]
0	0x3eb8109b	0.3595017
1	0x3e780a32	0.24222639
2	0x3fe1a432	1.7628233
3	0x401a5619	2.411505
4	0x3eaa5395	0.33266893
5	0x3ef00209	0.46876553
6	0x3e68d972	0.22739199
7	0x401b4f4b	2.4267147
8	0x3f2f6335	0.6851075
9	0x3f4722a2	0.7778722
10	0x3e910040	0.28320503
11	0x3f8ae14a	1.0850003
12	0x3d7cd279	0.06172416
13	0x401f7134	2.4912844
14	0x3f2b455a	0.669027
15	0x3f8bc22f	1.0918635
16	0x3f245fb5	0.6420854
17	0x3f95989f	1.1687201
18	0x3efe154d	0.49625626
19	0x3eb2caad	0.34920254
20	0x3fc980f4	1.5742478
21	0x403b4b49	2.92647
22	0x3ec15a2d	0.3776411
23	0x3f264f31	0.64964586
24	0x3fab7aad	1.3396813
25	0x4021aa1b	2.5260074
26	0x3f149a3e	0.58047855
27	0x3e8e8bde	0.27841085
28	0x3f147deb	0.58004636
29	0x3e82b606	0.25529498
30	0x400f766c	2.241603
31	0x3f93ccae	1.1546838
32	0x3e95c278	0.2924993
33	0x3e39c65a	0.18142071
34	0x3e6468a5	0.22305544
35	0x3f0b4948	0.54408693
36	0x3e9bc79c	0.30425727
37	0x3f5f2db8	0.87179136
38	0x3f156fc4	0.58373666
39	0x3e8d5c83	0.27609643
40	0x3e369d9f	0.17833565
41	0x40013b77	2.0192544
42	0x3efdd568	0.4957688
43	0x40002b74	2.0026522
44	0x3ea32c3a	0.3186968
45	0x3f3595df	0.7093181
46	0x3ecf5c7c	0.40500247
47	0x3e97e63b	0.2966784

stage.1.dw.weight f4 [48, 1, 3, 3]
0	0xbea94a1f	-0.33064362
1	0x3e32da13	0.17466001
2	0x3e6990c3	0.22809128
3	0xbe655476	-0.223955
4	0x3bee9f6a	0.007282187
5	0xbe476af8	-0.19474399
6	0xbe1eae1b	-0.15496103
7	0x3e486cb8	0.19572723
8	0x3d0c3e4f	0.03423911
9	0x3e561830	0.20907664
10	0x3e331e40	0.17492008
11	0xbeaa3da3	-0.3325015
12	0x3db4f0bb	0.08834978
13	0xbdd3d6e2	-0.1034372
14	0x3de14a1d	0.11000464
15	0x3e9cf3a1	0.30654624
16	0x3e1074f1	0.1410711
17	0xbe50fa6c	-0.20408028
18	0xbdfa57a6	-0.12223749
19	0x3d2853d3	0.041095566
20	0xbe468a78	-0.19388759
21	0xbe8392f1	-0.25698045
22	0xbe8ac162	-0.27100664
23	0x3e57ffb6	0.2109364
24	0x3d565188	0.052323848
25	0xbe98cdc6	-0.29844493
26	0x3e0ae278	0.13562953
27	0xbe00eea8	-0.1259104
28	0xbe7d0250	-0.24707913
29	0xbe83a342	-0.25710493
30	0xbec6cd8c	-0.38828695
31	0xbf160c76	-0.58612764
32	0xbf0a82c4	-0.5410578
33	0xbe9485b2	-0.2900825
34	0xbea75b4c	-0.3268684
35	0xbe66605e	-0.22497699
36	0x3e6c8a82	0.23099712
37	0xbebd3eba	-0.3696192
38	0xbebbd270	-0.3668399
39	0x3e957afe	0.29195398
40	0xbebb639f	-0.36599442
41	0xbe8f66d6	-0.28008145
42	0x3db50785	0.08839325
43	0x3e2fa788	0.17153752
44	0xbdf0f221	-0.117649324
45	0xbd195a78	-0.037439793
46	0x3e240702	0.16018298
47	0xbe6b66e9	-0.22988476
48	0x3e4b1c55	0.19835027
49	0xbdb76153	-0.0895411
50	0x3e571982	0.21005824
51	0xbe22449a	-0.15846482
52	0xbe827dde	-0.25486654
53	0xbea9ea11	-0.3318639
54	0x3e612e14	0.21990234
55	0x3c42291f	0.011850624
56	0xbd4288da	-0.047493793
57	0x3e69c305	0.228283
58	0x3dd1e0e7	0.10247975
59	0xbe51afb1	-0.20477177
60	0x3e9232ff	0.28554532
61	0x3eaf4f75	0.34240308
62	0xbe5942a2	-0.21216825
63	0xbece6ef6	-0.4031903
64	0xbee28e61	-0.4424925
65	0xbe3ef558	-0.18648279
66	0xbe197e08	-0.14989483
67	0xbf029c95	-0.51020175
68	0x3e0f8220	0.14014482
69	0xbe1e9cc2	-0.15489486
70	0x3dce7e90	0.10082734
71	0x3d388269	0.045046244
72	0x3ea95481	0.33072284
73	0xbe8e1575	-0.27750745
74	0x3dbc9d92	0.09209742
75	0x3e8febc3	0.2810956
76	0x3dc18d6c	0.09450802
77	0x3d435e6b	0.047697466
78	0x3e8e70c7	0.27820417
79	0x3dfeb2da	0.12436457
80	0xbec4790a	-0.38373595
81	0x3e1e4c48	0.15458786
82	0x3eb5fe98	0.35545802
83	0x3e1f1556	0.15535483
84	0xbd386824	-0.04502119
85	0xbde2fd3b	-0.11083456
86	0x3e724e54	0.23662692
87	0xbe535e2b	-0.20641391
88	0xbe64828e	-0.22315428
89	0xbdd4b70f	-0.10386478
90	0x3d8b701d	0.06808493
91	0xbda944f3	-0.08265104
92	0xbe4f7e2c	-0.20262975
93	0x3e964b87	0.29354498
94	0xbdbdfed8	-0.09277123
95	0xbe85ba23	-0.26118574
96	0xbeb31ba0	-0.34982014
97	0x3e795d94	0.24352103
98	0xbe2a4f3f	-0.16631792
99	0xbe133696	-0.14376292
100	0xbe0c8c1b	-0.13725321
101	0x3db8f578	0.090311944
102	0x3ecce7d3	0.40020618
103	0x3e8f37c8	0.27972245
104	0x3e7998c0	0.24374676
105	0x3d11d671	0.035604898
106	0xbc0da5d7	-0.008645496
107	0xbe1a70b3	-0.15082054
108	0xbe0a4719	-0.13503684
109	0xbeb86f25	-0.36022297
110	0xbd2a82d9	-0.041628692
111	0x3e357b63	0.1772285
112	0xbe041165	-0.1289726
113	0x3e8f2269	0.2795594
114	0x3e1afc14	0.15135223
115	0xbe4e7e40	-0.20165348
116	0x3ebd095f	0.36921212
117	0x3ed13342	0.4085942
118	0x3e381f69	0.17980732
119	0xbe30cc0b	-0.17265336
120	0x3ee49662	0.44645983
121	0x3e543c3a	0.207261
122	0xbd9919c4	-0.074756175
123	0x3e1367f4	0.14395124
124	0xbdc80929	-0.09767372
125	0x3ec4f974	0.38471568
126	0x3e99dea6	0.3005268
127	0x3e63c6af	0.2224376
128	0x3e993a56	0.2992732
129	0x3b9880c6	0.004654023
130	0xbda1f9b5	-0.07908956
131	0xbcbdf7d9	-0.023189472
132	0x3d1f3e70	0.038877904
133	0xbe956d96	-0.2918517
134	0x3e7681f6	0.24073014
135	0x3dca912e	0.09890972
136	0xbe931fdf	-0.28735253
137	0xbe8d9505	-0.27652755
138	0x3e87f5be	0.26554674
139	0xbe2c6909	-0.16836943
140	0xbe0f6240	-0.14002323
141	0xbdd31125	-0.103060044
142	0x3e1b1a2b	0.15146701
143	0x3e4f83c4	0.20265108
144	0xbe9d3cbe	-0.30710405
145	0xbea0427e	-0.3130073
146	0xbec3bcf8	-0.3823011
147	0x3eb72a6d	0.35774556
148	0x3dc546d6	0.096326515
149	0xbe86ff90	-0.26366854
150	0x3e23f465	0.16011198
151	0xbdefe410	-0.11713421
152	0x3e45378a	0.19259468
153	0xbed00375	-0.40627638
154	0xbed8d542	-0.42350203
155	0xbd6233ca	-0.05522517
156	0xbe6ff9e1	-0.23435165
157	0xbed13937	-0.40863964
158	0x3d5a4a02	0.053293236
159	0x3e8cbc4d	0.27487412
160	0xbdb27ea9	-0.08715565
161	0x3daf3214	0.085544735
162	0xbc57f15b	-0.013180102
163	0xbe48cd00	-0.19609451
164	0x3e6a29ae	0.22867462
165	0x3e9633c6	0.29336375
166	0x3e887227	0.2664959
167	0x3dd1a11c	0.10235807
168	0xbd150eb5	-0.03639098
169	0x3e88b5e8	0.26701283
170	0xbe022a36	-0.12711415
171	0x3df2385a	0.118271545
172	0xbda5d7c0	-0.08097792
173	0xbecbb4bd	-0.3978633
174	0xbeda0909	-0.42585018
175	0xbddb3bd3	-0.1070477
176	0xbd1221fc	-0.03567694
177	0x3e643000	0.22283936
178	0xbd81dbd6	-0.063407585
179	0xbe990b4a	-0.29891425
180	0x3e41254a	0.18861881
181	0xbe9e43b2	-0.30911022
182	0xbe9a220c	-0.301041
183	0xbe6b3933	-0.22971039
184	0xbed3e0da	-0.41382486
185	0xbdf3e11c	-0.119081706
186	0xbdf4b17c	-0.11947915
187	0x3d1968f0	0.03745359
188	0xbe5a2644	-0.2130366
189	0x3e617f83	0.22021298
190	0x3e8b50f4	0.272102
191	0xbe92ba38	-0.286577
192	0x3c4729b4	0.012155939
193	0x3e844b66	0.25838774
194	0x3d23c425	0.03998198
195	0x3e8d34ce	0.2757935
196	0x3d6a12c5	0.057146806
197	0x3de88317	0.113531284
198	0x3ea20e76	0.31651658
199	0x3e088f77	0.13335977
200	0xbe75e34a	-0.24012485
201	0xbd19e194	-0.037568644
202	0xbec1e40d	-0.378693
203	0x3d393d19	0.045224283
204	0xbeac2ead	-0.3362936
205	0xbec9ddef	-0.39427134
206	0xbebc7316	-0.36806554
207	0xbeafd47a	-0.34341794
208	0xbec534d3	-0.38516864
209	0xbeadf5ab	-0.33976492
210	0xbbb4c6d2	-0.0055168653
211	0x3e1857cc	0.14877242
212	0x3e89bad0	0.2690034
213	0x3e0a3b20	0.13499117
214	0x3e551efc	0.20812601
215	0x3edf5f67	0.43627474
216	0x3e2fb446	0.17158613
217	0xbe804e8c	-0.25059927
218	0x3e7e7490	0.24849153
219	0xbdc02fcb	-0.09384116
220	0x3eaec95b	0.34137997
221	0xbdefe3f2	-0.11713399
222	0xbe1e9b60	-0.15488958
223	0x3ec9365d	0.39299288
224	0x3ea98b0f	0.33113906
225	0xbeb1c6a3	-0.3472186
226	0xbe9dffb0	-0.30859137
227	0x3e75a106	0.23987207
228	0x3e6291eb	0.22125976
229	0xbe857e6f	-0.26073024
230	0xbe96c2fe	-0.29445642
231	0xbdaab773	-0.083357714
232	0xbe7a716f	-0.24457334
233	0xbdbec42b	-0.0931476
234	0xb9c4a46f	-0.00037506546
235	0x3e2606f6	0.16213593
236	0xbe118d5a	-0.14214078
237	0x3e98dfa7	0.29858133
238	0x3e824e56	0.2545039
239	0x3e556b21	0.20841648
240	0x3ed3963a	0.4132555
241	0xbe825708	-0.25457025
242	0xbd1abfa0	-0.037780404
243	0x3e3ed63e	0.18636414
244	0xbdc25c1e	-0.09490226
245	0xbe430136	-0.1904343
246	0x3e3ee63a	0.18642512
247	0x3e521e05	0.20519264
248	0x3d112a30	0.035440624
249	0xbc3b9077	-0.011448017
250	0x3e902cd1	0.28159192
251	0x3dc6edd0	0.09713328
252	0xbe9dec0b	-0.3084415
253	0x3d85fa35	0.06541864
254	0xbeb7bda8	-0.35886884
255	0x3e63b1b1	0.22235753

stage.1.pw.weight f4 [72, 48, 1, 1]
0	0x3e11b4dc	0.14229149
1	0x3d7c518e	0.061601214
2	0xbdc875a1	-0.09788061
3	0x3d8d1b23	0.068899415
4	0xbe9434bf	-0.28946492
5	0xbdcb6e24	-0.09933117
6	0x3d756cdf	0.05991828
7	0xbe25555d	-0.16145845
8	0xbdef9a8d	-0.116994
9	0x3de691d5	0.11258284
10	0xbe244902	-0.16043475
11	0x3e1cc120	0.15308046
12	0xbda7968b	-0.08183011
13	0xbd0b3918	-0.033989996
14	0x3b90e123	0.0044213696
15	0xbd056d35	-0.03257485
16	0xbe8c777b	-0.27434906
17	0x3e0ca4e4	0.13734776
18	0x3e35b3d0	0.17744374
19	0x3c475690	0.012166634
20	0xbd645daf	-0.055753406
21	0x3d815515	0.06315056
22	0x3dfd278e	0.1236106
23	0xbc3a88c1	-0.011385144
24	0x3eec5722	0.46160227
25	0xbed8c41d	-0.42337123
26	0x3d95a151	0.07306159
27	0xbe63ea81	-0.22257425
28	0xbe5354e8	-0.20637858
29	0x3e87b85c	0.26507843
30	0x3d48cfe2	0.049026377
31	0x3e446d6d	0.19182368
32	0x3e2369c3	0.15958314
33	0x3d16312a	0.03666798
34	0xbcb204d7	-0.021730823
35	0xbe92a956	-0.28644818
36	0xbe76dfd6	-0.24108824
37	0x3dd23ea4	0.10265854
38	0xbdae81a3	-0.0852082
39	0x3da3ba9a	0.07994576
40	0xbec0c3c9	-0.37649372
41	0xbd76846c	-0.06018488
42	0xbe9a8535	-0.30179754
43	0xbebd5f1f	-0.36986634
44	0xbd48305e	-0.04887425
45	0x3e198218	0.14991033
46	0xbd484def	-0.04890245
47	0x3db29fdc	0.08721897
48	0x3d2df66c	0.042471334
49	0xbe4bc064	-0.1989761
50	0x3da75e65	0.08172301
51	0x3af461bb	0.0018644849
52	0x3e4f44e0	0.20241117
53	0xbdfdd0ab	-0.12393316
54	0xbe8d6783	-0.27618036
55	0xbdc6717e	-0.09689616
56	0xbe09fdcd	-0.13475724
57	0x3ea1d51c	0.31607902
58	0x3e836d48	0.25669312
59	0x3e2e5d52	0.17027786
60	0x3d48c837	0.049019065
61	0x3dcd665c	0.10029289
62	0x3c9bcabe	0.019017573
63	0x3dcc5110	0.09976399
64	0xbdd52687	-0.10407739
65	0x3ea99bb4	0.33126605
66	0xb84116f9	-4.603618e-05
67	0x3e73e0ca	0.23816219
68	0xbdb1af9f	-0.08676075
69	0xbe0776bf	-0.13228892
70	0x3cad739b	0.021173289
71	0xbdeb405f	-0.11486887
72	0xbe1774e8	-0.1479069
73	0xbe353964	-0.17697674
74	0x3e0718c0	0.13193035
75	0xbdf7de59	-0.12102956
76	0x3d2d4bfc	0.042308792
77	0xbd6ed26f	-0.058306154
78	0xbdc1ceaa	-0.09463246
79	0x3e711323	0.23542456
80	0x3e181219	0.14850654
81	0xbd91811e	-0.07104705
82	0x3d8bef64	0.068327695
83	0x3dd7242d	0.10504947
84	0xbd46c503	-0.04852773
85	0x3dc9a804	0.098464996
86	0x3dd9ccf7	0.10634797
87	0x3d3df5cc	0.04637699
88	0xbda4abe7	-0.080406
89	0xbe1e5cca	-0.15465084
90	0x3cf94cb8	0.03043209
91	0xbd96192c	-0.0732902
92	0x3da67186	0.081271216
93	0x3df60909	0.12013442
94	0x3e25f832	0.1620796
95	0x3d505418	0.050861448
96	0xbd580319	-0.05273733
97	0x3e32ece7	0.17473184
98	0xbced8425	-0.028993675
99	0xbcf92659	-0.030413793
100	0x3dcba37d	0.09943292
101	0x3bc43a38	0.0059883855
102	0x3e86c48b	0.26321825
103	0xbe0e4368	-0.13892901
104	0x3e13b50f	0.14424537
105	0x3d843a99	0.06456489
106	0xbdf3afbf	-0.11898755
107	0xbd6e796e	-0.058221273
108	0x3ea0d4bc	0.31412303
109	0x3e4df41a	0.20112649
110	0xbd2862c9	-0.041109834
111	0xbbf43815	-0.0074529746
112	0xbe55be3d	-0.20873351
113	0xbd510fbb	-0.051040392
114	0x3e84771e	0.2587213
115	0x3ca783d1	0.020448597
116	0xbc911271	-0.017708989
117	0xbcf68006	-0.030090343
118	0x3daf5c69	0.08562548
119	0xbc563125	-0.01307324
120	0x3e82a8bb	0.25519356
121	0xbe4a046b	-0.19728248
122	0x3da16a0e	0.078815565
123	0x3de3324c	0.11093578
124	0x3c49f6ad	0.0123268785
125	0x3e83f4b0	0.2577262
126	0x3e46c694	0.19411689
127	0x3d809c8c	0.06279859
128	0x3eb1386f	0.34613368
129	0xbe77ca76	-0.24198326
130	0x3dcdc83f	0.100479595
131	0xbe860c40	-0.2618122
132	0xbc6e95c1	-0.014562071
133	0x3dfbbaf7	0.1229152
134	0xbec91242	-0.39271742
135	0x3e3a033f	0.18165301
136	0xbc009ddd	-0.007850138
137	0xbe1618a2	-0.14657834
138	0xbd58d907	-0.05294135
139	0xbe542b2c	-0.20719594
140	0xbeb0024b	-0.3437675
141	0x3df0f0d5	0.11764685
142	0x3e87ac83	0.26498803
143	0xbde5cd5f	-0.11220812
144	0x3d9ad7b1	0.07560671
145	0x3e256634	0.16152269
146	0x3dc5b289	0.096531935
147	0x3e913572	0.28361088
148	0x3e683162	0.22675088
149	0xbdda84c6	-0.10669856
150	0x3e2f1040	0.17096043
151	0x3e27ca72	0.1638582
152	0xbc2ac596	-0.010423085
153	0xbd6171fd	-0.05504035
154	0xbe737c79	-0.23777951
155	0xbe3d43e2	-0.18482926
156	0xbd89bd63	-0.06725576
157	0x3d78a71a	0.060706235
158	0xbe4bd947	-0.19907103
159	0x3d8f9e98	0.07012671
160	0xba2925d1	-0.00064524735
161	0xbe05237c	-0.13001817
162	0x3c96ae84	0.018393762
163	0x3e38dc07	0.18052684
164	0x3d4eeaca	0.05051688
165	0xbc264eb8	-0.010150604
166	0x3c1143ef	0.008866294
167	0x3e48ee9e	0.19622275
168	0x3dcfeda7	0.101527505
169	0x3e53c260	0.20679617
170	0xbe65c674	-0.22438985
171	0x3dc6f451	0.097145684
172	0x3c22e130	0.009941384
173	0xbd61dde5	-0.055143256
174	0x3e5e6304	0.21717459
175	0xbb8e196a	-0.0043365257
176	0xbde919df	-0.11381888
177	0xbe36c284	-0.1784764
178	0x3e460bd6	0.19340453
179	0xbeb8d1a8	-0.36097455
180	0x3e1338c4	0.14377123
181	0x3d8a5194	0.06753841
182	0xbd7e4353	-0.062075924
183	0x3d92ad57	0.07161968
184	0x3c853e15	0.016264955
185	0x3e5ae823	0.21377616
186	0xbd767435	-0.060169417
187	0x3db71a1c	0.08940527
188	0xbcbb80e5	-0.02288861
189	0xbc7f186c	-0.0155697875
190	0x3dda3385	0.10654358
191	0x3da84731	0.08216704
192	0xbe1c55ed	-0.15267153
193	0xbaae5d55	-0.0013302962
194	0xbe414157	-0.18872581
195	0xbe0c7cbe	-0.1371946
196	0x3dd17926	0.10228185
197	0xbdc7b7eb	-0.097518764
198	0x3dd7062e	0.104992256
199	0xbc7e9410	-0.015538231
200	0x3ce7ad5b	0.028280905
201	0xbbe8e693	-0.0071075647
202	0xbe8869d3	-0.26643237
203	0x3da5f8e2	0.08104111
204	0xbe2775a8	-0.16353476
205	0x3db86ea0	0.09005475
206	0x3de7ec08	0.11324316
207	0xbdce2b31	-0.10066832
208	0xbdd82b8f	-0.10555183
209	0xbdf3bf24	-0.119016916
210	0x3ebc8093	0.36816844
211	0x3d96a031	0.07354773
212	0xbe28dcc7	-0.1649047
213	0x3dd9dbe0	0.10637641
214	0x3e66f046	0.22552595
215	0xbdf31024	-0.11868313
216	0x3e00dd50	0.12584424
217	0xbd810576	-0.0629987
218	0x3e200c5c	0.15629715
219	0x3b1ee6e9	0.002424652
220	0xbe1bfb30	-0.15232539
221	0x3e1314ae	0.14363357
222	0x3e238542	0.15968803
223	0x3dc97e79	0.09838576
224	0x3d3bf2a0	0.045885682
225	0xbd2a0aed	-0.041514326
226	0x3e93f049	0.2889426
227	0xbddf83c2	-0.10913803
228	0xbeacdaeb	-0.3376077
229	0x3e10863b	0.14113705
230	0xbea0a8b5	-0.31378713
231	0xbc3d443c	-0.011551913
232	0xbe7aa3e5	-0.24476583
233	0xbc67a01b	-0.014137293
234	0xbe01ef2c	-0.12688893
235	0xbe8f1267	-0.27943727
236	0xbdbbc64c	-0.091686815
237	0x3e0ab305	0.13544853
238	0x3e9b89da	0.3037861
239	0x3bafc445	0.0053639733
240	0xbe2b27b2	-0.16714361
241	0xbdafd4de	-0.08585523
242	0xbdcdab09	-0.10042388
243	0x3cd267ca	0.025684256
244	0xbe67dec5	-0.22643574
245	0x3ee2290c	0.4417194
246	0xbdc09c41	-0.09404803
247	0xbdb20bdc	-0.08693668
248	0xbda5cbf5	-0.08095542
249	0xbd678691	-0.056524817
250	0x3cbd1900	0.02308321
251	0xbda849f7	-0.08217233
252	0xbe78ad0e	-0.24284765
253	0xbd8a2e6f	-0.06747138
254	0xbdef2d16	-0.11678521
255	0x3e36b66c	0.17843026

stage.1.bn.weight f4 [72]
0	0x3f7c7a5f	0.98624223
1	0x3f6310ac	0.88697314
2	0x3f89ffae	1.0781152
3	0x3f8a0b50	1.0784702
4	0x3f7bca56	0.98355615
5	0x3f8c69da	1.0969803
6	0x3f8a76ef	1.0817546
7	0x3f864ac8	1.0491571
8	0x3fb642ef	1.4239177
9	0x3f84d585	1.0377661
10	0x3f814c3f	1.0101393
11	0x3f80f5c2	1.0074999
12	0x3f9239c5	1.142388
13	0x3f90e635	1.1320254
14	0x3f86804c	1.0507903
15	0x3f86c4e0	1.0528831
16	0x3f8fdfed	1.1240212
17	0x3f969cc3	1.176659
18	0x3f844647	1.0333947
19	0x3f9d0870	1.22682
20	0x3f8238bb	1.0173563
21	0x3f8609fb	1.0471796
22	0x3f633084	0.88745904
23	0x3f8109b4	1.0081086
24	0x3f84877a	1.0353844
25	0x3f6ee11c	0.9331224
26	0x3f712c81	0.9420853
27	0x3f9248be	1.1428449
28	0x3f6efaeb	0.9335162
29	0x3f7c6cf8	0.98603773
30	0x3f641046	0.8908733
31	0x3f9874a4	1.1910596
32	0x3f8ae130	1.0849972
33	0x3f7e553b	0.993488
34	0x3f813f7f	1.0097502
35	0x3f9aafc9	1.2084895
36	0x3f8a12a5	1.078694
37	0x3f6d67b9	0.92736393
38	0x3fa38960	1.2776299
39	0x3f8799e6	1.0593841
40	0x3f9281dc	1.144588
41	0x3f79add7	0.97530884
42	0x3f839f29	1.0282947
43	0x3f810bbd	1.0081707
44	0x3f8f76c3	1.1208118
45	0x3f872fd4	1.0561471
46	0x3f844c9d	1.033588
47	0x3f8002e7	1.0000886
48	0x3f71d04a	0.9445845
49	0x3f8b922e	1.0903986
50	0x3f88be10	1.0683002
51	0x3f7d112f	0.98854345
52	0x3f7864db	0.97028893
53	0x3f7dfd2f	0.9921445
54	0x3f80a5ad	1.005056
55	0x3f8865f3	1.0656112
56	0x3f859cca	1.0438473
57	0x3f6c7bed	0.92376596
58	0x3f769c57	0.96332306
59	0x3f8e6893	1.1125664
60	0x3f87eece	1.0619752
61	0x3f848db8	1.0355749
62	0x3f7be527	0.98396534
63	0x3f820b83	1.0159763
64	0x3f743cc7	0.9540524
65	0x3f618d25	0.88105994
66	0x3f67f3b6	0.9060625
67	0x3f842352	1.0323279
68	0x3f888efe	1.0668638
69	0x3f9758ba	1.1823952
70	0x3f90aacb	1.1302122
71	0x3f7e3801	0.99304205

stage.1.bn.bias f4 [72]
0	0x3c9096c2	0.017650012
1	0x3dd51e78	0.10406202
2	0xbe2dfa89	-0.16990103
3	0xbc93bd00	-0.018034458
4	0xbe57a0c0	-0.21057415
5	0x3eecbb86	0.4623682
6	0x3e4a1aca	0.19736782
7	0x3e8724f1	0.26395372
8	0x3ea6246e	0.3244967
9	0x3e1ef00a	0.15521255
10	0x3e9efdc0	0.3105297
11	0x3e5dd697	0.21663891
12	0x3e9c45fc	0.30522144
13	0xbddb5817	-0.10710161
14	0xbde2a718	-0.11067027
15	0x3e23a678	0.15981472
16	0xbd271382	-0.04079009
17	0x39aebf21	0.00033330268
18	0xbebdc5c0	-0.37064934
19	0xbd605fff	-0.05477905
20	0x3e6f1f57	0.23351799
21	0x3f01faa6	0.50773084
22	0x3e381f7c	0.1798076
23	0x3b31a5b1	0.0027106816
24	0xbe9326b5	-0.2874047
25	0xbd0e5736	-0.03475114
26	0x3e4201d4	0.1894601
27	0x3e9da9f5	0.3079373
28	0xbc8a935e	-0.016915973
29	0xbd7549ee	-0.059884958
30	0x3e0fcb13	0.1404231
31	0x3d59f55a	0.0532125
32	0x3edfb932	0.4369598
33	0xbe14e635	-0.14540942
34	0x3e7a54e5	0.24446447
35	0xbe0257ac	-0.12728757
36	0x3eb3b143	0.35096177
37	0x3d0244c2	0.031803854
38	0xbd02594a	-0.031823434
39	0x3e096855	0.13418706
40	0x3e1eecf2	0.15520075
41	0xbe0bee30	-0.1366508
42	0xbe5d38ff	-0.21603774
43	0x3d870a32	0.065937415
44	0x3dc6bdd3	0.09704175
45	0xbe83f1fa	-0.2577055
46	0x3dcfe678	0.1015138
47	0xbe3d8dbc	-0.18511099
48	0x3e774c0a	0.241501
49	0x3e8fd2b9	0.28090456
50	0x3e1017fe	0.14071652
51	0x3e8c6bd0	0.27426004
52	0x3dd9e417	0.10639208
53	0xbd207583	-0.039174568
54	0x3e536080	0.2064228
55	0xbc8c650c	-0.017138027
56	0x3cfc1e8e	0.030776288
57	0xbd45337c	-0.048144802
58	0x3dd1c74f	0.10243093
59	0x3e42dfa7	0.19030629
60	0xbe0516fc	-0.12997049
61	0x3e980ffd	0.29699698
62	0x3da0f0f6	0.0785846
63	0x3e6c0985	0.23050506
64	0xbe9454d4	-0.2897097
65	0x3e25a581	0.16176416
66	0x3e855309	0.26039913
67	0x3e84dc9a	0.25949556
68	0x3db47999	0.088122554
69	0xbf03fbfd	-0.5155638
70	0x3db9d136	0.09073107
71	0x3c3a4d7d	0.011371014

stage.1.bn.running_mean f4 [72]
0	0x3f60f077	0.8786692
1	0xbd198da4	-0.037488595
2	0x3f988a12	1.1917136
3	0xbf30bb7c	-0.6903608
4	0x3f911a41	1.1336137
5	0xbed6bebd	-0.41942397
6	0xbe219ada	-0.15781727
7	0xbe4160c7	-0.18884574
8	0xbfcb8fc5	-1.590325
9	0xbe7be01e	-0.24597213
10	0x3e3a20bb	0.18176548
11	0x3f0c29b2	0.5475112
12	0xbf88d2c9	-1.0689327
13	0xbdc32aab	-0.09529623
14	0xbeb27602	-0.34855658
15	0xbf6c8583	-0.9239122
16	0xbec1ad18	-0.37827373
17	0x3f2a481c	0.6651628
18	0x3f568e35	0.8381074
19	0xbe44d676	-0.19222435
20	0x3dae0d42	0.084986225
21	0xbf4c9dbd	-0.7992819
22	0x3f5df61a	0.86703646
23	0x3f7f53a8	0.99737024
24	0xbed75f68	-0.42064977
25	0x3f1c20b1	0.60987383
26	0x3e44cdf8	0.19219196
27	0x3edc6302	0.43044287
28	0xbea4c8cc	-0.32184446
29	0x3dccbde0	0.09997153
30	0xbea78d39	-0.32724932
31	0xbe8b505d	-0.2720975
32	0x3f8eec27	1.1165818
33	0x3ed1ea52	0.40999085
34	0xbf5933c0	-0.8484459
35	0xbf18b063	-0.59644145
36	0xbd000c51	-0.031261746
37	0x3f5dec2a	0.8668848
38	0xbea0057c	-0.31254184
39	0x3de86cfc	0.11348912
40	0xbf54d881	-0.8314286
41	0x3ef92c69	0.48666695
42	0x3f783ccc	0.9696777
43	0xbf10ebf2	-0.56610024
44	0xbf9cc98a	-1.2249005
45	0x3f28ae5c	0.6589105
46	0xbefa9821	-0.4894419
47	0x3e827fc7	0.2548811
48	0xbf4757fa	-0.77868617
49	0x3f8b2367	1.0870179
50	0x3e36ba73	0.17844562
51	0x3e6e94bf	0.2329893
52	0xbf29ba38	-0.6629977
53	0xbe6fb6e4	-0.23409611
54	0x3ead7320	0.33876896
55	0xbe24dc72	-0.16099718
56	0x3ed2c466	0.41165465
57	0xbea6fa18	-0.3261268
58	0x3f8ab798	1.0837278
59	0x3f13eea5	0.5778602
60	0xbec49831	-0.38397363
61	0xbde8c368	-0.11365396
62	0x3f580bcf	0.8439302
63	0x3f2a814b	0.66603535
64	0x3f9ad8e0	1.2097435
65	0xbd2968d2	-0.04135973
66	0x3f837729	1.027074
67	0x3f98b2bf	1.1929549
68	0x3ea4b161	0.3216658
69	0x3fa81a7f	1.3133086
70	0xbfbef447	-1.4918298
71	0xbf0b04e9	-0.5430437
