Save Model/KD3/student_kd_full.pth (torch, 642457 bytes, 61 tensors)

weight f4 [48, 3, 3, 3]
000000 dd 64 64 be 81 cd 77 bd 2b fb b7 bd f1 72 9b bd
       -0.22304101 -0.06049872 -0.08983453 -0.07590283
000010 24 a8 ee bd fa f7 85 be c0 f4 11 be 76 16 2f be
       -0.11653164 -0.26165754 -0.14253521 -0.17098412
000020 57 d9 01 be fb 2c 7d bd 85 2a a1 3c b0 04 45 3e
       -0.12680565 -0.061810475 0.019673595 0.1924007
000030 d0 ed 28 bc aa cc 99 3e f5 2a 81 3d 3f 79 0e bb
       -0.010310605 0.3003896 0.063070215 -0.0021739749
000040 00 52 b5 3e 8a 74 a8 3e fc e0 4c be af 09 93 be
       0.35414124 0.32901412 -0.200077 -0.28718325
000050 08 fe 49 bd 89 a6 1e be c0 e7 3e 3d 6d 7f e3 3d
       -0.04931453 -0.15493216 0.046607733 0.11108289
000060 81 43 0d 3e 35 cc 48 bc 82 31 f2 3c 00 a1 e5 3d
       0.13795282 -0.012255718 0.029564623 0.11212349
000070 c8 ac 3c 3d 75 40 ad 3e 90 3e fa 3b 22 25 4d 3e
       0.046063215 0.3383824 0.0076368526 0.20033696
000080 94 d5 17 3e 91 85 c2 bd 95 15 95 3e ec 6d ef 3d
       0.14827567 -0.09498132 0.29118028 0.11690888
000090 57 18 c6 bd da 18 ff 3b 74 a2 57 3e 6c 74 f0 3d
       -0.09672611 0.007784945 0.21058065 0.11740956
0000a0 0c 8b 93 3c 3e cf 5b bc 0c 9a 74 3d cd 3d 1e 3e
       0.018010639 -0.01341611 0.059717223 0.15453263
0000b0 7f ad 33 be 13 8a 15 3e b5 b7 3a 3e ab 75 eb 3c
       -0.17546652 0.14603452 0.18234141 0.028742632
0000c0 f6 ad 7c 3d d3 1c a6 bd 4e e9 06 be f9 58 28 be
       0.06168934 -0.081109665 -0.13174936 -0.1644019
0000d0 fd 78 4a 3d 98 ca 71 be 23 43 b5 be 92 8e b3 be
       0.04943179 -0.2361244 -0.35402784 -0.3506971
0000e0 96 48 95 ba ec f0 dc bd 67 83 fa bd d9 d3 89 be
       -0.001138943 -0.1078814 -0.12232094 -0.2691944
0000f0 a1 20 b0 bd ff 89 e2 bd 6b bb 65 be 5b e2 d9 3c
       -0.085999735 -0.11061477 -0.22434776 0.026597193
000100 13 59 c0 bd b5 15 2f 3e 15 b0 d7 bd 88 04 33 3e
       -0.093919896 0.17098124 -0.10531632 0.17482197
000110 52 26 1e 3e ef 1d 56 3e aa dd 86 3e d1 29 8d 3e
       0.15444306 0.20909856 0.2634099 0.27570966
000120 fa 27 9e 3d 8a 94 25 be 86 03 ec 3d 17 e1 f4 bd
       0.07722469 -0.16169944 0.115241095 -0.11956995
000130 b4 64 76 bb 61 cf 15 bd 18 8f 26 be 73 e5 33 3e
       -0.0037596645 -0.036574725 -0.16265523 0.17567997
000140 5f 2d 70 3e 95 5a 64 be 1c 49 b5 bd a4 5d b2 be
       0.23454808 -0.2230018 -0.08851835 -0.34837067
000150 38 b5 b2 3c 14 8b 84 bc 3a 92 00 3e 70 80 31 3d
       0.021814927 -0.016179599 0.12555781 0.04333538
000160 b0 8e 1a 3e 21 2e 3e 3d 8f af 49 bd 5f d5 93 3d
       0.15093493 0.04643071 -0.04923969 0.07218432
000170 be 21 a3 3d 8b 3b 42 3e c4 08 90 3e 19 4a 8a 3e
       0.0796542 0.18968026 0.28131688 0.27009657
000180 ea 2a 1d 3e 5c e7 be 3c 23 4f 38 3e 62 59 4a be
       0.15348402 0.02330368 0.17998938 -0.1976066
000190 82 8a 7e be fb 62 28 be e0 23 f3 3d 20 f8 d9 ba
       -0.24857524 -0.16444008 0.11872077 -0.0016629733
0001a0 1c 1c 07 3e da df 76 bd e5 5f 20 3e 96 24 d2 3d
       0.13194317 -0.060272075 0.15661581 0.102608845
0001b0 9d 4f 94 3d 74 31 01 be d8 9a 66 3d f6 8d af bd
       0.072417475 -0.12616521 0.056300014 -0.08571999
0001c0 1c 98 40 bd 14 fa 53 be ac 84 6d be 00 b1 2e bd
       -0.047020063 -0.20700866 -0.23195142 -0.04264927
0001d0 9a 64 22 bd df 6c ae bd 8f 53 10 be 37 f6 35 be
       -0.039646722 -0.08516859 -0.14094375 -0.17769705
0001e0 4d 07 e8 3d 00 ce 09 3e 9b 0b 6d 3e e3 18 cd 3d
       0.113295175 0.13457489 0.23148958 0.100145124
0001f0 92 fe b7 3e 2a e2 7d 3e 6e 42 0e 3e 4a 0d 96 3d
       0.3593641 0.24793306 0.13892528 0.073267534
000200 f3 f3 f7 bd ad 72 55 be 5f 4b 6b be 75 92 e9 bc
       -0.121070765 -0.20844527 -0.2297797 -0.028512219
000210 ee 1f 4b 3e c6 b6 a4 3e 17 26 8a 3e e2 8e 21 3d
       0.19836399 0.32170695 0.26982185 0.039442904
000220 d1 66 4f 3d 09 79 83 3e 58 f4 dc 3d 56 5e 58 3e
       0.050635163 0.2567828 0.10788792 0.21129736
000230 66 6e c9 3e 00 24 db bc af 36 ab 3e f8 17 de 3e
       0.3934204 -0.026750565 0.33440158 0.43377662
000240 dd 8f 2b be b9 db dc bc db 76 73 bd d0 e0 de 3c
       -0.16754098 -0.02696024 -0.05943952 0.027206808
000250 df ce 04 3d 19 9b b6 bd bc 00 3a bd d1 3d 80 be
       0.03242385 -0.08916301 -0.045410857 -0.25047162
000260 62 92 80 be 4b 4e 05 bd 4c 0d 35 be 60 f9 d7 bc
       -0.2511168 -0.03254537 -0.17680854 -0.026364028
000270 ee 3b cc bd 7c d0 6b be ce b9 ad 3d 2f af 7d be
       -0.09972368 -0.23028749 0.08482705 -0.24773858
000280 b3 46 f1 3d 6b ae d6 3d 86 cb 1e 3e 1e f4 44 3d
       0.11781063 0.10482486 0.15507326 0.04808437
000290 9c 21 0c 3e 4d 32 0e 3e 3a 7a 56 3e 47 05 45 3d
       0.13684696 0.13886376 0.20945063 0.048100736
0002a0 f3 c4 eb 3d 55 ce 76 3e 62 a5 73 3e 54 75 92 be
       0.115121745 0.24102147 0.23793557 -0.2860514
0002b0 c7 81 cc bd 1a 90 ad 3c 15 0d 7e be 7d 49 f0 bd
       -0.099856906 0.021186877 -0.24809678 -0.11732767
0002c0 64 2e 33 be e2 57 21 be 02 db 20 be e3 40 72 be
       -0.17498165 -0.15756181 -0.15708545 -0.23657565
0002d0 2e 29 7c 3d fa 61 67 3c 76 ef 8c 3b a5 36 49 3d
       0.06156271 0.0141224805 0.004301007 0.04912438
0002e0 42 e0 2f 3e b6 5b 5c 3e e0 55 0d 3e 43 3f 68 3e
       0.17175391 0.2151936 0.1380229 0.22680382
0002f0 04 3a e8 3d f5 f6 0a be 85 e2 dd bd ee ab 3f 3e
       0.113391906 -0.13570769 -0.10834221 0.1871793
000300 2a 65 ba bd 56 60 2e be 03 00 71 3e 26 93 10 be
       -0.09101327 -0.17028937 0.2353516 -0.14118633
000310 fe d1 a0 3d 49 86 d4 3c 35 b3 dd bd 87 94 32 3e
       0.07852553 0.025942938 -0.10825197 0.17439471
000320 15 22 af bc 72 c1 5b be 75 29 5b 3e 40 5c 91 3e
       -0.021378556 -0.21460512 0.21402533 0.28390694
000330 2e 4b 5d be 58 51 f4 bd a4 f1 d8 3d a8 ea c0 bd
       -0.2161071 -0.119295776 0.10592964 -0.09419757
000340 5a 0e 26 bd c6 65 9e 3e f4 d8 a6 be 27 73 ec 3c
       -0.04054103 0.30937022 -0.32587397 0.028863503
000350 c1 0b 8c 3e f7 a1 95 3d 9c b1 fb bd 44 57 91 3e
       0.27352718 0.07306283 -0.12289736 0.2838689
000360 5c 3f 98 bd fc 86 79 3d e9 0d 62 be 95 20 0f 3d
       -0.0743396 0.060919747 -0.22075619 0.034943182
000370 e3 54 c4 bd 8c c5 82 bd 86 8e 76 bc ac c7 4d bd
       -0.09586503 -0.06385335 -0.015048629 -0.05023925
000380 f4 40 97 bb a4 ee d3 bd 3c fe 83 be 3b de 05 be
       -0.0046158973 -0.103482515 -0.25779903 -0.13073055
000390 33 b9 62 3d 19 ee d2 be 10 6a ad be b1 9d 37 3d
       0.0553524 -0.4119728 -0.33869982 0.04482812
0003a0 ad ce ec bc 53 fc a2 be 37 8a df bd 88 b8 ca 3b
       -0.028907144 -0.31833133 -0.10915034 0.0061865486
0003b0 47 b5 98 bd ef 78 81 bc 85 97 22 3c 5a 51 96 3d
       -0.07456451 -0.015804736 0.00992382 0.07339735
0003c0 8a ea 4a 3d 27 f1 0e be 23 03 13 3e 91 bb 93 be
       0.04954008 -0.1395918 0.14356665 -0.2885404
0003d0 1c e7 03 3e 6a 57 e1 bd 80 54 32 3d 3a c7 2b be
       0.1288113 -0.11003001 0.043537617 -0.16775218
0003e0 e3 aa ab bd c8 92 e2 bd 19 7d 26 3e b6 5a 9c bd
       -0.083822034 -0.110631526 0.16258658 -0.07634489
0003f0 84 60 5f bd 4a 83 c4 3e 02 83 a7 3e 78 f3 82 3e
       -0.054535404 0.38381416 0.3271714 0.25576377

weight f4 [48]
000000 84 b0 81 3f 40 d1 6b 3f 2d 69 93 3f 43 20 5f 3f
       1.0131993 0.92116165 1.1516472 0.871586
000010 0b 67 85 3f 2d 5b 95 3f 87 8b 8d 3f 2e e2 7d 3f
       1.0422071 1.166845 1.1058205 0.9917325
000020 a4 04 84 3f 0a 55 57 3f 19 91 80 3f ff d9 63 3f
       1.0313916 0.84114134 1.004428 0.8900451
000030 12 b4 92 3f 2f 6f 99 3f 8e ed 86 3f 7c e0 91 3f
       1.1461203 1.1987056 1.0541246 1.1396632
000040 5f 69 82 3f cc d2 6f 3f 8c c8 41 3f c1 45 89 3f
       1.0188407 0.93681026 0.75696635 1.0724412
000050 ee be 76 3f e1 87 58 3f 95 31 77 3f d0 61 8b 3f
       0.96385086 0.84582335 0.9656003 1.0889225
000060 3e 13 8a 3f 74 52 81 3f 69 8a 81 3f db fe 83 3f
       1.0787122 1.0103288 1.0120364 1.0312151
000070 7d 4b a0 3f fc 30 72 3f c6 a1 44 3f dd b0 7c 3f
       1.2523037 0.94605994 0.76809347 0.9870737
000080 34 8d 6b 3f 90 67 83 3f 6d 9a 40 3f 50 e6 63 3f
       0.92012334 1.026598 0.75235635 0.89023304
000090 4f 7e 97 3f 01 99 2b 3f 21 e5 46 3f e3 d4 78 3f
       1.1835421 0.6703034 0.7769337 0.9719984
0000a0 ff 72 61 3f 17 58 90 3f 18 f9 76 3f 94 7e 52 3f
       0.88066095 1.1276883 0.96473837 0.8222439
0000b0 a8 c0 89 3f e5 fb 94 3f 79 ee 85 3f fa 92 49 3f
       1.0761919 1.1639372 1.0463401 0.78739893

bias f4 [48]
000000 db 50 40 be f1 75 6e bd 10 dc 9c be 82 8f ed bd
       -0.18780844 -0.058217946 -0.30636644 -0.115996376
000010 42 f8 f8 3b 69 6a 51 3e 44 29 1b 3f 7e 50 98 bb
       0.007597954 0.20450749 0.6060984 -0.0046482673
000020 03 43 b2 3d a0 05 f5 bd 54 bf e2 3e f0 3e b9 3d
       0.08704188 -0.119639635 0.44286597 0.090452075
000030 36 61 f1 3d c5 5a ed 3d ef 78 e5 3e 0a be bd 3d
       0.1178612 0.115895785 0.44818828 0.09264763
000040 79 66 1d be 87 35 0c 3e ea 34 2c bc ca 86 66 be
       -0.15371121 0.13692294 -0.010510663 -0.22512355
000050 c5 cb 0a 3e 98 0d 3c 3d a9 f5 92 3e 03 26 f9 3e
       0.13554294 0.0459114 0.2870305 0.48661813
000060 f3 11 ef 3e 7d e8 12 be 7c 8e 37 be 3f 0c ae bd
       0.46693382 -0.143465 -0.17925447 -0.084984295
000070 d6 33 42 be 6a 20 5b 3d c8 dc 85 be 72 a7 88 be
       -0.18965086 0.05349771 -0.26145005 -0.2669025
000080 f5 45 d1 3e 63 12 8a 3e 02 d3 37 3e 7b 65 07 bc
       0.40873685 0.26967153 0.17951587 -0.008263941
000090 89 f0 32 3e a3 ae 7b be b9 5d c4 bd c1 f9 3a be
       0.1747457 -0.24578337 -0.09588189 -0.18259336
0000a0 8e 9f bd 3e 61 18 20 3f 03 08 87 3c 1a d6 83 3e
       0.37035793 0.625372 0.016483312 0.25749284
0000b0 73 fd 0e bc 65 70 0d 3f dc 7a 00 3d 00 39 81 3c
       -0.008727419 0.55249625 0.031367168 0.01577425

running_mean f4 [48]
000000 dd 04 90 bf e4 fd 82 3f 6a 47 9b bf d6 09 0b be
       -1.1251484 1.0233731 -1.2131169 -0.13577971
000010 6e d7 78 be 83 26 9d 3f 3c 2b b6 3f b4 1a b9 3d
       -0.2430093 1.2277378 1.4231944 0.09038296
000020 6c c5 28 bf 36 48 0f bf 02 24 c1 3f e9 23 8b 3f
       -0.6592624 -0.5596956 1.5089114 1.0870334
000030 ad 3e 8a bf 3c b9 27 be 13 ed 02 40 21 05 4b bf
       -1.0800377 -0.16379255 2.0457199 -0.793047
000040 d4 db 6b 3f 55 e9 53 3f 4e 10 d4 3d fe 1f 19 bf
       0.92132306 0.8277791 0.10354672 -0.5981444
000050 e6 87 2a bf f7 7a c0 3f 49 ed 8f 3e 2b 21 62 3e
       -0.66613615 1.5037526 0.28110722 0.22082965
000060 a8 70 f4 3e 8a 97 82 bf 1b 75 44 bf ef 0c 9f be
       0.477422 -1.0202496 -0.7674119 -0.31064555
000070 83 89 3f bf e1 89 51 bf f6 5b 8f 3f fa 1b b2 bf
       -0.748192 -0.8185101 1.1199939 -1.3914788
000080 2f 01 96 3d 43 d4 3d 3e 63 5c 5c 3f bc aa 11 bf
       0.073244445 0.18538003 0.8607847 -0.56901145
000090 b1 c3 b7 bf 4c 1e 2e bf 2c 36 5a bf 43 03 6d bf
       -1.4356595 -0.6801498 -0.8523891 -0.925831
0000a0 2e 6e 3d 3e 92 e8 a0 3f 9f f7 3d 3f 8f 57 a5 be
       0.18499061 1.2570975 0.74205965 -0.32293364
0000b0 47 a4 91 3f af f6 db 3f 61 79 73 3e a8 70 21 3f
       1.1378258 1.7184657 0.23776771 0.63062525

running_var f4 [48]
000000 04 2e 32 3f 2a 71 f0 3f 54 bf 73 3f 57 79 2b 3f
       0.69601464 1.8784535 0.9521382 0.66982025
000010 c0 ac ee 3e 20 03 9f 3f ec 6f ab 3f a4 32 a8 3e
       0.46616173 1.2422829 1.3393531 0.32851136
000020 eb 7b 5a 40 a9 2d 0d 3f 00 6b 64 40 d2 fe 81 40
       3.4138134 0.55147797 3.5690308 4.062356
000030 d1 47 ef 3e cb 1a 8e 40 57 85 9e 40 2a 57 8f 3f
       0.4673448 4.4407706 4.953777 1.1198475
000040 b0 48 98 40 d5 f3 a4 3f 0f e5 d0 3e 55 a7 7f 3e
       4.758873 1.2886912 0.40799758 0.24966176
000050 f8 00 9f 3f 8f 57 56 40 bd 6b 92 3f 3e 80 c0 3f
       1.2422171 3.3490942 1.1439129 1.5039136
000060 9d ff 19 3e 7d e7 8a 40 43 af 38 3f 9a d6 56 3f
       0.15038915 4.340758 0.7214243 0.83921206
000070 a7 d7 28 3f 72 61 6b 3f 77 a8 04 40 6a 69 06 41
       0.6595406 0.91945565 2.0727823 8.400736
000080 be 51 b1 3e 35 94 0d 40 30 a4 1f 3f cb 31 44 3e
       0.34632677 2.2121708 0.62359905 0.1915962
000090 53 3a a3 3f 82 65 62 3f 55 6d bd 3e 52 86 ee 3f
       1.2752174 0.8843614 0.36997476 1.8634741
0000a0 f2 9c fb 3f f3 bc 44 3f fc 5a ae 3f 82 c1 6f 3e
       1.9657271 0.76850814 1.3621516 0.23413661
0000b0 58 30 74 40 8e 84 2a 40 a1 d6 44 40 06 4f 1c 40
       3.8154507 2.6643405 3.0756 2.4423232

weight f4 [48, 1, 3, 3]
000000 b8 5d c3 3b 9d c0 f9 bd 40 da 24 be 5b 7b 89 3e
       0.0059621 -0.12194941 -0.16098881 0.26851925
000010 cf cc ee 3b cf ff 94 3e 4e ff 22 3e 9e 43 bc 3d
       0.0072875987 0.29101416 0.15917704 0.091925845
000020 cb fa 96 be 0f ca 53 3e 21 ff 05 3e 6c 1f 93 be
       -0.29488215 0.20682548 0.13085605 -0.2873491
000030 02 ee 99 3e cf f3 8e be 80 f9 28 3e cc 58 06 be
       0.30064398 -0.27920386 0.16501427 -0.13119811
000040 b2 5b c6 be 4a b2 bc 3c 6d 9b e9 bd 23 45 84 3e
       -0.38741833 0.023034234 -0.11406598 0.25833997
000050 8b 92 61 3e f8 20 43 be 5d dc 0e bd 84 82 db be
       0.22028558 -0.19055545 -0.034878124 -0.42873013
000060 62 d2 d4 be d2 28 30 be dc 69 aa be 21 cc 9b be
       -0.4156676 -0.17203072 -0.3328389 -0.30429175
000070 30 a9 6e 3e 8c 85 c6 be 70 df 18 3e 1e 60 82 3e
       0.23306727 -0.38773763 0.14928985 0.25463957
000080 28 db a7 3e 30 f4 04 3e c8 da af be a2 91 1f bd
       0.3278439 0.12983775 -0.34346604 -0.038957246
000090 07 b6 6c be 3a 3e 6c be 0a 03 83 be b6 91 ba 3e
       -0.23116313 -0.23070613 -0.25588256 0.36439294
0000a0 5c 05 60 be 47 16 83 be a2 eb 41 3e 83 2a d0 3e
       -0.21877044 -0.25602934 0.18937543 0.40657434
0000b0 92 dd a2 3e ca a5 eb 3d 6f 04 af 3e 74 50 a7 3e
       0.3180967 0.11506231 0.3418307 0.32678568
0000c0 67 07 95 be 41 9b 57 3d 26 66 4e 3e 6e 5d e9 be
       -0.2910721 0.052638296 0.20156154 -0.45579094
0000d0 22 95 76 be 7b f5 71 3d 65 cc 6b 3e b5 7e b0 3d
       -0.24080327 0.059072 0.23027189 0.086179174
0000e0 cb ea fa 3e bc ba 8b bd 66 1a 80 be ad 07 95 3e
       0.49007258 -0.06822726 -0.2502014 0.2910742
0000f0 43 85 89 bd 1b 32 d3 be 5c c0 b7 be 10 10 52 bc
       -0.06714871 -0.41249165 -0.35888946 -0.012821212
000100 9a d0 6d 3e 0a 20 6a 3e d1 02 35 3e 46 23 6b be
       0.23224106 0.22863784 0.17676856 -0.22962674
000110 9f 8e b8 3d 4d f4 8a bd 52 30 9a be 78 18 c8 3e
       0.09011578 -0.06784878 -0.3011499 0.39081168
000120 58 46 8c 3e 9a a4 a3 be 59 49 bc be 32 c6 b5 3e
       0.27397418 -0.3196152 -0.3677471 0.35502774
000130 3d 94 73 3e 4a 08 c9 be 51 c4 b8 3e c6 74 36 3e
       0.23787017 -0.39264137 0.36087278 0.17817983
000140 ac 39 55 3d d2 e8 df bc 41 db 8f bd ab 16 32 be
       0.052056953 -0.027332697 -0.07024241 -0.1739146
000150 34 2a 13 bc aa df 0f be 3f d7 cc bd 68 d6 9c be
       -0.00898223 -0.14050165 -0.100019924 -0.3063233
000160 bd 5e 55 be 8c eb 95 3e d4 48 be be 37 91 6a 3e
       -0.20836921 0.2928127 -0.37164938 0.22906958
000170 d9 e7 48 3e 29 7c 43 bd 1d 2e d8 3b 0f a1 f4 3c
       0.19619693 -0.04772583 0.006597294 0.029861955
000180 8a 61 f2 3b 31 a2 85 be a0 a3 b1 3e d5 6e b7 bc
       0.0073968815 -0.26100305 0.34695148 -0.022391716
000190 4b 18 b2 be 6d 2a 39 3e dc 1f 57 3b 7a ae 0c 3e
       -0.3478416 0.1808259 0.0032825386 0.13738433
0001a0 24 75 7e 3d 9f 54 15 3e fd 09 53 3e 02 f8 58 be
       0.062123433 0.14583062 0.20609279 -0.21188357
0001b0 17 1d ac be 7a 04 cd bd d7 c1 c1 bd 42 b3 bb be
       -0.33615944 -0.100106195 -0.094608 -0.366602
0001c0 05 14 c8 3d 04 b2 41 be 0f 1c 91 3e e8 a1 80 3e
       0.097694434 -0.18915564 0.2834172 0.25123525
0001d0 97 7b 79 3e 64 e1 10 3e 19 2a c6 be 68 fa 9b bd
       0.24363552 0.1414848 -0.38703993 -0.076161206
0001e0 f6 1e 7b 3e 13 71 2f be d8 aa 25 3e e5 fa 61 be
       0.2452353 -0.17132978 0.16178453 -0.22068365
0001f0 dc ca f4 3d 16 16 5e 3e 7c 9b 04 bd a1 08 fd 3b
       0.11952755 0.21688113 -0.032374844 0.007721976
000200 38 40 f8 be 37 ad fe 3e a0 9e 20 3e 83 b0 b1 be
       -0.48486495 0.49741527 0.1568551 -0.3470498
000210 45 3c a8 3e a1 19 a8 bd 88 62 27 bd 93 46 d4 3c
       0.32858482 -0.08208013 -0.04086545 0.025912559
000220 01 f4 b5 be 2d 01 e7 3d 18 95 d0 be 2c 7c 5f 3e
       -0.35537723 0.11279521 -0.4073875 0.21824712
000230 03 21 97 3e 6e a1 55 be 7f 99 b0 3d 2f 49 d9 3d
       0.29517373 -0.20862362 0.08623027 0.10609662
000240 c5 28 ae 3e 48 50 56 be 8e bb 7e 3e 42 0a 87 be
       0.3401548 -0.20929062 0.24876234 -0.26375014
000250 c6 a6 08 be a3 2e 0d 3d 8f 38 82 3e 86 ef d3 bc
       -0.13344869 0.034468304 0.25433776 -0.02587105
000260 c6 65 6e be 37 94 36 be 87 fe 96 be 2a 87 75 bd
       -0.23281011 -0.17829977 -0.29491064 -0.059943356
000270 85 89 e2 bd 98 9c b4 3e 5d 4d 66 bd c4 d2 ad be
       -0.11061386 0.35275722 -0.056226123 -0.33949864
000280 be e6 58 3e 8b 07 3a bd c4 c6 09 be f0 35 f4 bd
       0.21181771 -0.04541735 -0.1345473 -0.1192435
000290 b6 3d 25 3e 5e a8 e4 3d 03 93 b8 3c 06 92 a9 3e
       0.16136822 0.11164926 0.022531038 0.3311922
0002a0 05 c4 60 be 44 b2 7d bd f4 80 37 be 51 11 9e 3e
       -0.21949776 -0.061937585 -0.17920285 0.30872586
0002b0 e2 d5 ae be d0 21 a7 be 63 3e 81 3e 02 4d 1c bd
       -0.34147555 -0.32642984 0.2524291 -0.038159378
0002c0 1c 7a 3f be 02 6a 68 be 50 42 f6 3d 83 8f 02 be
       -0.18698925 -0.22696689 0.12024367 -0.12750058
0002d0 71 78 56 3e 88 a0 5b be a2 1d dd bc 3e 21 ad 3e
       0.20944382 -0.21447957 -0.02699167 0.33814424
0002e0 58 ee 47 3e d9 b6 bc be 6c eb 13 be 8f af 9b bc
       0.19524515 -0.36858252 -0.14445275 -0.019004611
0002f0 39 88 d3 3d 76 93 e4 3c ae 30 2b 3e 3e 54 db bd
       0.10328717 0.027902346 0.16717789 -0.10709427
000300 21 8f 02 3e 68 5f 69 3e cd 5f b7 3e 8b 56 ee 3c
       0.12749912 0.22790301 0.35815278 0.029094001
000310 4f d7 8a 3b 65 5f ae 3e 9a e4 c7 3e 23 85 2b 3d
       0.0042370926 0.34057155 0.39041597 0.041875016
000320 d8 aa bb be 48 c6 81 3e dd 23 05 be 9c fb 13 bd
       -0.3665378 0.2534659 -0.13001962 -0.036128625
000330 48 5a 98 3e 48 e1 a1 3e a2 4a 23 3d 7e bd 7c 3e
       0.2975638 0.31617188 0.039866097 0.2468166
000340 36 95 66 3e b7 ea 21 bd 49 40 c7 bd a8 ea 6b bd
       0.22517857 -0.039530482 -0.09729058 -0.057596833
000350 c7 5d c0 3d 57 20 45 be e3 0e 53 be 5f d2 07 3d
       0.093928866 -0.19250618 -0.20611148 0.03315961
000360 0d ca 31 be aa aa 66 3e c7 50 b5 3d 2a bb 37 3c
       -0.17362233 0.2252604 0.08853298 0.011214057
000370 b5 15 1f be 09 09 9f be 30 8a 83 be b7 ab 80 3d
       -0.15535624 -0.3106158 -0.25691366 0.06282752
000380 37 b2 57 be a6 ae 88 be 75 d7 3d be 80 7a 3f be
       -0.21064077 -0.26695746 -0.18539222 -0.18699074
000390 0b 96 62 3e 84 8e 89 3e 18 c8 a7 bc 00 d3 64 3e
       0.2212755 0.26866543 -0.020481154 0.22346115
0003a0 c4 3a f3 bd 97 62 29 3e 2e 7e ed 3d b0 17 35 be
       -0.11876443 0.16541515 0.115963325 -0.17684817
0003b0 d0 c1 a9 3e 2c d6 88 3e 87 37 fb 3d 85 2e a9 3e
       0.3315568 0.267259 0.122664504 0.33043304
0003c0 b1 c5 3c 3e af ed 29 3e 72 47 23 3d 00 11 30 be
       0.18434788 0.16594575 0.039863057 -0.17193985
0003d0 73 01 de 3d ea 30 22 bc 79 a4 67 3c 57 b7 fa 3d
       0.1084012 -0.009899357 0.014138334 0.122420006
0003e0 41 b8 cc be 20 11 62 3d 2b 18 c0 be 90 8f 2c be
       -0.39984325 0.055192113 -0.3751844 -0.1685164
0003f0 67 c1 8b 3e cd a6 b2 3e a1 7c aa 3e 9e 0c 64 be
       0.27295992 0.34892884 0.3329821 -0.22270438

weight f4 [48, 48, 1, 1]
000000 32 d6 4e 3e 2d 49 fd bd b1 59 89 bd 43 25 89 be
       0.20198897 -0.12367473 -0.067065604 -0.2678624
000010 76 e4 cb bd f9 33 a1 3d d3 43 92 3e ad 89 8f 3c
       -0.09955685 0.07871241 0.2856737 0.017521704
000020 3b 87 1b 3e ae 68 80 be 44 07 d0 bd 8d 32 ba 3c
       0.15188305 -0.25079864 -0.10157636 0.022729183
000030 0c a6 15 be 8e 18 3b be 53 35 27 be 3f 0b f1 bc
       -0.14614123 -0.18271086 -0.16328935 -0.029424308
000040 a1 aa 0f bc 16 bd d5 3d 42 fb 3d bd 11 fb 77 be
       -0.008768708 0.10436456 -0.046382196 -0.24216868
000050 9c 06 61 be ac 40 be 3c e5 81 f4 3c 9a 5e 81 bd
       -0.21975178 0.023224197 0.029847095 -0.06316872
000060 0f f2 be 3e 97 70 f6 bc c0 d5 bf 3d 13 bf e7 3c
       0.3729405 -0.030082984 0.093669415 0.028289353
000070 ab 50 a1 3e 03 d4 5d be 21 0d d7 3c 55 26 01 3e
       0.31506857 -0.21662907 0.026251378 0.12612279
000080 99 11 f5 bc 3a 6b 45 3d ac 32 34 bd ee 15 bd 3d
       -0.029915618 0.048197962 -0.043993637 0.092326984
000090 d5 d7 20 be 0e eb 05 be 59 7a 94 be 91 f6 e1 3c
       -0.15707333 -0.13077947 -0.28999594 0.027583392
0000a0 3e f2 63 3e b5 e0 0e 3e b5 4e cf 3d 7b 5f 1e be
       0.22260377 0.13952906 0.10122434 -0.1546611
0000b0 49 a2 f1 3d da 8d a0 bd 8a 56 0f 3e b1 11 73 be
       0.117985316 -0.07839556 0.13997856 -0.23737217
0000c0 ad 59 4f 3d 8e aa 36 3e ee 8c f1 3d f3 64 eb 3d
       0.05062263 0.17838499 0.11794458 0.11493864
0000d0 1a 9c f0 be ad 59 b7 3e 76 60 3b 3e d4 1b 59 3c
       -0.46994096 0.35810605 0.18298516 0.013251264
0000e0 7c 36 c9 3b ed c8 15 3d 28 70 32 3e 07 e0 b9 be
       0.0061405282 0.03656857 0.17425597 -0.36303732
0000f0 bd 51 90 3c 96 c4 a8 3e fe 68 75 be 49 58 01 bd
       0.0176171 0.32962483 -0.23965833 -0.031578336
000100 f4 9e 64 3e 30 e0 21 bd fa 3b ec bd c3 44 7f 3d
       0.22326261 -0.039520442 -0.11534877 0.062321436
000110 65 4d 70 be ce 8c 78 be 2e b2 f5 be 99 77 65 3e
       -0.23467024 -0.24272463 -0.47987503 0.22408904
000120 45 2e 71 bd 02 d5 eb 3d 25 83 ac 3d c4 95 d8 bc
       -0.058882017 0.115152374 0.08423451 -0.026438601
000130 ca ff 2f be e5 bc 3b be 60 91 a8 3e cf f5 15 bd
       -0.1718742 -0.18333776 0.32923412 -0.036611374
000140 f1 9e 00 be 3d c7 ab 3e af d8 f7 bb bc 53 be bd
       -0.12560631 0.33550444 -0.0075636725 -0.09293315
000150 40 bf 96 3e 9f d2 34 bd e7 2d 52 3d e9 55 55 3e
       0.29442787 -0.044146176 0.051313307 0.20833553
000160 a8 8c 22 be 31 65 43 be 15 d7 f7 bd 40 d9 39 3e
       -0.15873969 -0.1908157 -0.121015705 0.1814928
000170 bb f7 90 be 30 4b 6b bd 40 a3 3a bd 41 e5 82 3e
       -0.28314003 -0.05744475 -0.045565844 0.25565532
000180 32 b1 9e 3d 34 bb 77 be ff f7 14 be 7e ec 67 3e
       0.07748641 -0.24192506 -0.14547728 0.22648808
000190 f2 26 01 be 0d f3 95 be 50 ff 2f be 4d 29 bb bc
       -0.12612513 -0.29286996 -0.17187238 -0.022846842
0001a0 19 12 9e 3d dc 81 08 3e 3a c3 dc 3d bb 77 aa 3d
       0.077182956 0.13330787 0.10779424 0.08323618
0001b0 fa 5e 41 3d b6 ed 69 3d 0b f3 fd bc e0 dc 6f bd
       0.047209717 0.057111464 -0.030999681 -0.058560252
0001c0 ed 76 c5 bd 36 db 0a be 1f f3 f1 3d 57 b6 40 3e
       -0.09641824 -0.13560185 0.1181395 0.18819557
0001d0 74 ae 3b 3e 23 e3 e1 3d 10 4d 31 be 5b 85 45 be
       0.18328267 0.11029651 -0.17314553 -0.19289152
0001e0 59 a1 94 3e ce bf 8e 3c e6 a5 21 3e 71 a7 3d 3d
       0.29029348 0.017425444 0.15785941 0.046302263
0001f0 e5 8b 04 3e 1a 43 2b 3e af 02 e3 3d 3c b7 25 be
       0.1294399 0.16724816 0.11084496 -0.1618318
000200 e3 1d 84 be 2a 6b b2 3d 6e 59 7d 3d e0 75 c1 be
       -0.25804052 0.08711846 0.061852865 -0.37785244
000210 f8 29 bb 3c 3d 10 d1 bd d8 9f ca 3d a7 5b 41 be
       0.02284716 -0.10208175 0.09893769 -0.18882619
000220 78 18 17 3e 57 8f f0 bd 7c ef ce 3c bc d7 e9 3d
       0.14755428 -0.1174609 0.02526068 0.11418101
000230 7e 56 1f be 37 37 8e 3d cd 9e 1f bd 81 7e 79 bd
       -0.15560338 0.06944125 -0.038969804 -0.06091166
000240 3e 69 4d 3c d9 c8 ea bd 7c 76 f5 3c 17 42 37 3d
       0.012537299 -0.1146409 0.029963724 0.044740763
000250 9c b6 cc bd 04 64 09 3e 3f 57 91 be aa 33 c7 bd
       -0.099957675 0.13417059 -0.28386876 -0.09726651
000260 e3 e4 00 bd bb 51 a1 bd 72 ba 7b 3d 85 92 86 3b
       -0.031468283 -0.07876917 0.061457105 0.004106822
000270 67 f5 8a 3e b6 a5 2a 3e d2 57 73 bd 25 46 1e bd
       0.27140352 0.16664776 -0.059409924 -0.038641114
000280 20 a7 bf bd 3a 4f d7 bd 94 23 e7 bd 30 82 60 bd
       -0.093580484 -0.10513158 -0.11286083 -0.054811656
000290 74 82 8e be 06 af a6 3d d1 3c c8 3d d1 8e a4 bb
       -0.27833903 0.08138852 0.09777225 -0.005021908
0002a0 83 f3 00 3d 73 85 9b bd 8b 68 b3 3b a1 b8 3b bc
       0.03148223 -0.07593813 0.005475109 -0.011457593
0002b0 c2 f4 f2 bd 75 49 58 3e 12 1e dd 3d ae bb 1e 3e
       -0.1186309 0.21121772 0.10796751 0.15501282
0002c0 5a b9 66 bd 0a 48 a4 3d f1 00 2d bd 33 b3 b3 bd
       -0.05632911 0.08021553 -0.042237226 -0.08774414
0002d0 c1 94 54 be 52 84 1e 3d eb d0 57 3e ce 19 a3 3e
       -0.2075987 0.03870041 0.2107579 0.31855625
0002e0 aa 52 06 be 7d 77 65 3b 72 eb 7e 3d 66 95 4e 3e
       -0.13117471 0.0035013848 0.062236257 0.20174178
0002f0 f8 df 54 3e e5 3d 03 be 32 15 1f bd 05 16 f5 3c
       0.20788562 -0.1281658 -0.038838573 0.029917726
000300 94 7a 3e bd c6 22 8e 3e a1 80 43 bd c6 0b f6 bd
       -0.04650362 0.27760905 -0.047730092 -0.12013964
000310 8f 8e 45 3e c6 c5 d9 3e 2b 17 d2 3e c5 81 48 3e
       0.19292663 0.42533702 0.410333 0.19580753
000320 7f 22 00 3e 3c 00 07 3d 2c 5d d4 be 80 a3 0d be
       0.12513159 0.032959208 -0.41477334 -0.13831902
000330 f2 f0 cb 3e 46 ca 8f be 03 bf ed bd 20 ea 90 3e
       0.39832264 -0.2808401 -0.11608698 0.28303623
000340 c4 e9 65 3e 32 1d 0b be 2e 0a 22 3e b8 41 a6 3e
       0.22452456 -0.13585356 0.15824196 0.32472014
000350 4b 9b 7b 3e 27 6e bc 3d c7 3b 2d 3e 34 7e cb 3e
       0.24570958 0.092006974 0.16917334 0.39744723
000360 a7 53 81 3d 7a ce af 3c 80 57 ec bd 5e e5 bd 3e
       0.063147835 0.02146076 -0.11540127 0.37089056
000370 b7 a3 97 3c 70 b0 4b 3d 13 68 83 3c 14 6b eb bd
       0.018510683 0.04972881 0.016040837 -0.11495033
000380 7f ba 02 3b 57 20 b8 bd 41 3d 90 3d d0 04 24 3d
       0.0019947586 -0.08990543 0.07042933 0.040043652
000390 10 f9 85 3e 31 14 7f be 1d 75 95 bc c8 06 86 3c
       0.26166582 -0.24910046 -0.01824432 0.016360655
0003a0 a9 a0 03 3e ce b3 05 be 97 b5 b7 be 16 84 e0 be
       0.12854256 -0.13056871 -0.3588073 -0.43850774
0003b0 b9 c4 8f be 1f 03 d9 3e bb 6f 96 bd 91 fe fa 3c
       -0.28079775 0.42385194 -0.0734553 0.030638965
0003c0 60 e1 07 3e b4 9b 0a 3e 42 b6 80 bc 89 4f 89 be
       0.13269567 0.13535959 -0.015711907 -0.26818493
0003d0 65 9e 32 3d a4 42 52 3e bd 38 83 3e 9b c0 34 3e
       0.043608088 0.20533234 0.25629225 0.17651598
0003e0 2f 5a ca bd 81 29 d7 bd 84 11 b6 3e 4c 60 9e 3d
       -0.098804824 -0.10505963 0.35560238 0.07733211
0003f0 6a 79 6a 3c 76 05 2e be b8 ae 7a be fb 2e b1 bd
       0.014311174 -0.1699427 -0.24480712 -0.08651539

weight f4 [48]
000000 79 82 6a 3f f9 e4 82 3f 80 57 6e 3f 95 1b 49 3f
       0.91605335 1.0226127 0.93102264 0.7855771
000010 f3 fd a3 3f 4b 3c 55 3f 88 ac 17 3f 4d bc 76 3f
       1.2811874 0.83295125 0.59247637 0.96381074
000020 cd dc 83 3f 61 58 91 3f c8 75 83 3f 55 e3 6f 3f
       1.0301758 1.1355096 1.0270319 0.93706256
000030 b4 89 70 3f f0 c0 48 3f 4e ff 4c 3f 87 39 62 3f
       0.9396012 0.784194 0.80077064 0.8836903
000040 52 d0 8f 3f 51 89 33 3f a8 9f 66 3f 44 a8 5e 3f
       1.1235449 0.70131403 0.90087366 0.869755
000050 41 f9 2c 3f cb aa 91 3f 9d bf 29 3f 4e 70 1a 3f
       0.6756783 1.1380247 0.66308004 0.60327613
000060 54 5d 66 3f a5 b6 60 3f 98 28 7f 3f 79 8f 62 3f
       0.8998616 0.87778693 0.99671316 0.8850017
000070 d9 c8 89 3f 93 86 54 3f 9c da 83 3f 20 14 6f 3f
       1.0764419 0.83017844 1.0301089 0.93390083
000080 19 dd 1f 3f 50 9a 20 3f 89 2e a8 3f 53 38 7d 3f
       0.62446743 0.6273546 1.3139201 0.9891407
000090 40 cb 39 3f 39 b6 5a 3f 30 84 6c 3f f9 33 45 3f
       0.7257576 0.854343 0.923892 0.7703243
0000a0 53 39 52 3f 86 d7 65 3f ae 6d 6f 3f 9b 5e 7a 3f
       0.8211872 0.8978199 0.9352673 0.97800606
0000b0 76 11 96 3f c5 60 43 3f 9d b2 38 3f 2a 08 5b 3f
       1.1724079 0.76319534 0.7214754 0.8555933

bias f4 [48]
000000 a4 fe 84 3d 54 c7 b2 3e e8 ce fb bd c4 6c 6f be
       0.06493881 0.349177 -0.122953236 -0.23381335
000010 40 a3 1e 3f c6 79 9e be 86 ad 6c be 72 c1 1a bc
       0.6196785 -0.3095228 -0.23113069 -0.009445535
000020 5d f8 88 3e d6 c3 1d 3e 21 a6 a0 be 8a e9 26 bf
       0.26751986 0.15406737 -0.31376746 -0.652001
000030 2b 52 3e bb f7 d6 67 be cb de 25 be 22 45 0f bf
       -0.0029040675 -0.22640596 -0.1619827 -0.55964863
000040 df f9 48 bd ab d1 25 be 66 eb 0a 3e 99 8e c8 be
       -0.04906642 -0.16193263 0.1356636 -0.39171293
000050 ad 62 9c be 29 4d 58 3e 02 75 54 be 2b da c9 be
       -0.30544034 0.21123184 -0.2074776 -0.3942426
000060 91 76 a5 3e 7b f3 1a be 67 8a dd bd ba d4 c0 be
       0.3231702 -0.15131943 -0.10817414 -0.37662297
000070 07 d5 36 3e 9a a7 e6 be 7d 1c 01 be 62 ff 3d bd
       0.17854701 -0.45049745 -0.12608524 -0.04638613
000080 2b f4 bc bd ab cf dc bd 0e 3f c5 3e 45 fc 8e bd
       -0.09226259 -0.10781797 0.3852467 -0.0698171
000090 55 b0 78 be 0c e4 47 be f5 3e 8f be 9c 5b c0 be
       -0.24286015 -0.19520587 -0.2797772 -0.37569892
0000a0 d1 81 b4 be 62 8d ed 3d c6 34 07 3e 48 32 0f be
       -0.35255292 0.11599232 0.13203725 -0.13984025
0000b0 95 95 2c 3f df 0a 0b be c6 5b 80 be 50 f2 8b 3d
       0.67415744 -0.13578366 -0.25070018 0.06833327

running_mean f4 [48]
000000 22 ee 60 3c b7 8d 9a be e4 80 ab be 28 e5 12 be
       0.01372865 -0.30186245 -0.33496773 -0.14345229
000010 2c 5d bf 3c 5b ca 43 be 03 8a 2c be bf e6 e8 be
       0.023359857 -0.19120161 -0.16849522 -0.45488545
000020 2b 0a 91 bd eb 97 96 be 70 12 a5 3e d2 ed 85 3e
       -0.070820175 -0.2941278 0.3224063 0.26158005
000030 64 61 29 be 7e 39 2b bf 82 dc 52 be 3e 81 ab 3d
       -0.16541058 -0.668846 -0.2059193 0.0837426
000040 a3 be c7 3d f9 8e 3e be 48 96 5a bc 52 69 d5 3d
       0.09753158 -0.18609227 -0.013341494 0.10420479
000050 42 53 9e be 8d 8c 34 be 9e 89 48 be 38 06 8d 3e
       -0.30922896 -0.17631741 -0.19583747 0.27543807
000060 15 2a c1 3c b4 13 e7 be 52 23 b2 be 7e a9 80 3e
       0.023579637 -0.4513222 -0.34792572 0.25129312
000070 ba 13 ca bd 9e 39 50 3e a4 a6 5b be fb 3e 07 be
       -0.09867044 0.20334479 -0.21450287 -0.13207619
000080 0a a9 97 be e6 01 a9 be b8 c7 f8 bd cb eb e3 3d
       -0.29621154 -0.3300926 -0.12147468 0.11128958
000090 d3 66 93 be 59 4e 91 bd 74 7b ee 3c 7f 8f 62 bd
       -0.28789386 -0.07095022 0.029111601 -0.05531263
0000a0 d4 f1 c6 3e 57 6b 17 3e c3 1c cb be 52 31 41 be
       0.38856375 0.1478704 -0.3967038 -0.1886647
0000b0 c5 a2 17 be db ce a7 be 0e 31 e4 be 86 7d ec be
       -0.14808185 -0.32775006 -0.44568676 -0.46189517

running_var f4 [48]
000000 4b e3 e9 3e 3d 73 70 3e c6 3c c5 3d c9 e0 e9 3e
       0.45681223 0.2348146 0.09630732 0.4567931
000010 e9 d7 59 3e 8c 1a ce 3d d4 1c 8a 3f 17 36 da 3e
       0.2127377 0.10063657 1.0790048 0.42619392
000020 de 32 28 3e 5b 74 58 3e 9f d1 89 3e 39 77 8c 3e
       0.16425654 0.21138136 0.2691774 0.2743471
000030 2e e4 37 3f 3e 29 a3 3f 1a 3e 10 3f 5b 6a 6c 3e
       0.7183255 1.2746961 0.5634476 0.23087446
000040 8f a5 d1 3e c3 a1 08 3f 37 53 a8 3e 0f 4f 68 3e
       0.40946624 0.5337183 0.32875988 0.22686408
000050 f1 dc 07 3f 4f 3c 0d 3e 7a cf 4a 3f 3e 39 0f 3e
       0.53071505 0.13792537 0.79222834 0.1398668
000060 7d ec 24 3e f8 58 3d 3f d2 90 be 3d 7c ba 10 3f
       0.16105838 0.7396388 0.09304966 0.5653455
000070 c2 89 fd 3d 59 ad 7d 3e 7f ea b1 3d 1f 12 a3 3e
       0.12379791 0.24773158 0.08687305 0.31849763
000080 ec 57 42 3f 47 73 78 3f de f1 fe 3d 5f 5d a6 3e
       0.7591541 0.970509 0.12448476 0.32493111
000090 7b 0c 7a 3e 1f cb 43 3d 85 2b 91 3d 7d 86 8d 3e
       0.24418823 0.047801133 0.07088379 0.2764167
0000a0 56 21 f4 3d 8c 7b 2b 3e 7b 9a 98 3e 91 35 bb 3e
       0.11920421 0.16746348 0.2980536 0.36564305
0000b0 3b dc 35 3e 98 75 28 3f 6b d8 04 3f 24 9f 2b 3f
       0.17759793 0.65804434 0.5189273 0.67039704

weight f4 [48, 1, 3, 3]
000000 c8 03 8f be dc 21 d5 be 13 d0 7a 3e 43 b7 15 be
       -0.27932572 -0.41627395 0.24493437 -0.1462069
000010 77 59 72 be e4 2b 6f be 26 56 51 3e 95 4a 3b 3e
       -0.2366694 -0.23356587 0.2044302 0.1829017
000020 86 8e 45 3c 1e 40 4a be b2 93 73 be 53 d0 b0 3d
       0.012057906 -0.19751021 -0.2378681 0.08633485
000030 db cd df bd 87 bd 83 3e 50 5d dd be 69 5f ed 3e
       -0.10927936 0.25730535 -0.43235254 0.46361855
000040 9c 97 99 3e 29 18 02 be 25 f1 89 3e 18 27 88 be
       0.2999848 -0.12704529 0.2694179 -0.26592326
000050 be 3b ad bb d5 b0 be bc b8 25 b7 3c 2b 92 8a be
       -0.005286663 -0.02327768 0.022356853 -0.27064642
000060 d5 aa 50 3d 74 72 0c be c2 d8 a0 be 04 9c 42 3c
       0.050944168 -0.13715535 -0.31415373 0.011878017
000070 5f 7d 92 3e 7f 93 aa be 43 93 9a 3e ae 1a 24 3e
       0.28611276 -0.33315656 0.30190477 0.16025802
000080 d2 0c 1a be 67 c1 4c be 2b 1f b0 3d 11 e6 d1 3d
       -0.15043953 -0.19995652 0.08599695 0.1024896
000090 73 82 e4 3e 26 a9 c5 bd b6 41 72 3e 07 30 48 3e
       0.44630775 -0.09651403 0.23657879 0.19549571
0000a0 66 27 4c be fe c9 e9 3d db c2 31 be 4f e0 44 be
       -0.19936904 0.1141548 -0.17359488 -0.19226192
0000b0 6b a1 d4 be 16 dd 02 be 22 ac b3 bc 69 ae bc bd
       -0.41529402 -0.1277965 -0.021932665 -0.092129536
0000c0 ff cf 95 bd 93 92 06 bd 76 59 3d 3e 15 ac 8d 3d
       -0.07315063 -0.032854628 0.18491158 0.06917588
0000d0 93 7b 43 be d2 13 a1 be e0 11 b5 be c6 13 b0 bd
       -0.19090109 -0.31460434 -0.353652 -0.085975215
0000e0 96 37 4c 3b 2c 3f 3e be 95 e2 d8 be 0a b8 9a be
       0.0031161061 -0.18578786 -0.42360368 -0.30218536
0000f0 03 3b 81 be 2b 69 e4 bd fd 2b b9 be 12 99 9e 3d
       -0.25240335 -0.11152872 -0.36166373 0.077440396
000100 d8 3e 93 3e 7d d6 9c 3d 47 73 82 3d 69 00 4b 3d
       0.28758883 0.07658098 0.06369644 0.049560938
000110 43 a3 ff 3e 94 86 ca 3d cd 26 94 3e a4 a3 91 bd
       0.49929246 0.0988895 0.28935853 -0.0711129
000120 2b c4 a4 3e 38 9a b8 3e 1a 38 0c be b9 f9 8f bc
       0.32180914 0.3605516 -0.13693276 -0.017575132
000130 76 60 9f bd 07 d1 44 3e 08 ff ed be 5f 00 5b be
       -0.0778207 0.19220363 -0.46483636 -0.2138686
000140 05 cf e1 bd a7 b1 d9 bc 93 95 a0 be 03 d3 0d 3f
       -0.11025814 -0.026573969 -0.31364116 0.55400103
000150 65 18 c1 bd b7 ea 19 bd ad 69 a9 3e 3b 84 aa be
       -0.09428481 -0.037577357 0.33088437 -0.3330401
000160 d9 55 b2 3d 37 88 b0 bd 88 96 6a 3c 30 a7 d6 bd
       0.087077804 -0.08619731 0.014318116 -0.10481107
000170 ea 1d b1 be a7 5b 93 3e 55 63 2e be bb dc e1 be
       -0.34593135 0.28780863 -0.1703008 -0.44113716
000180 ac 53 35 3e 19 27 84 3e 3c 7c af be 3c fe bc 3d
       0.177077 0.2581108 -0.3427447 0.09228179
000190 b3 e9 3b 3e 5c 1b a2 3e 4d 6d c8 3e 89 dc 57 3e
       0.18350868 0.316615 0.3914589 0.21080221
0001a0 40 01 1f be 30 9a f6 3d 4e 61 69 3d 8e 30 13 bd
       -0.1552782 0.12041128 0.056977563 -0.035934977
0001b0 f2 08 9b be f3 e4 e5 ba d8 12 d8 3e d9 df 67 be
       -0.30280262 -0.0017539546 0.42201877 -0.22643985
0001c0 ea 53 e6 3d 95 25 c0 b9 d8 30 42 bd 78 09 2a 3e
       0.11246474 -0.00036649095 -0.047409862 0.16605175
0001d0 03 f0 9e 3e f2 c7 50 3c 0e 5b 2d be c0 db 88 bd
       0.3104249 0.012742983 -0.16929266 -0.06682539
0001e0 0f 6a bd be 21 62 ae 3d 52 93 6e be b9 9f d6 be
       -0.3699498 0.0851481 -0.23298386 -0.41918734
0001f0 33 f5 a7 3c c4 fb 9e be 44 ac 34 be a3 fc db 3e
       0.020502662 -0.31051457 -0.17643839 0.42966184
000200 b0 0e 3b 3e 1e 32 a5 3e 4f 26 7d 3e 88 59 3b 3c
       0.18267322 0.322648 0.24721645 0.01143492
000210 09 9e a8 3e b2 7c d9 3d bd 60 41 3d 6d 21 bf be
       0.3293307 0.10619487 0.047211397 -0.3733019
000220 6d fd 36 3e f8 24 98 be d7 a4 9b be 0e 23 a4 be
       0.17870112 -0.29715705 -0.303992 -0.32057995
000230 97 a8 e1 bc 5f 72 25 be ad 75 c6 3d c5 eb 83 3d
       -0.02754621 -0.1615691 0.096904136 0.06441454
000240 54 d7 04 bf 20 f7 4f 3e 4e db f9 bd 4d 3e 6a 3d
       -0.51891065 0.20309114 -0.12200032 0.05718832
000250 ba 06 96 be ca 45 8e 3e 2a db 3b be 46 e7 13 3d
       -0.29302007 0.2778762 -0.18345323 0.03610923
000260 28 ca a4 3e 73 88 05 be 9c a7 a7 3e 2e a6 8d 3e
       0.32185483 -0.13040332 0.32745063 0.27665848
000270 47 d7 cf 3c 7f 0f 87 3e bc 59 86 3e e3 87 b0 bd
       0.025371207 0.2637901 0.26240337 -0.08619668
000280 a5 6c b2 3e c1 b3 62 bd 95 14 0b 3e 1c 7a 2d be
       0.34848514 -0.055347208 0.1358207 -0.16941112
000290 90 e1 36 bc f1 c9 c0 be de b8 8f be 99 cf 5e be
       -0.011162177 -0.3765407 -0.2807073 -0.2175888
0002a0 1d 96 72 3d a1 4f 67 3e a3 54 90 3e f9 18 08 bc
       0.05922519 0.2258897 0.28189573 -0.008306735
0002b0 41 c4 88 be d8 4f 0a be 98 11 39 be a4 ec 8c be
       -0.2671223 -0.1350702 -0.18073118 -0.27524292
0002c0 35 57 96 3d eb 10 86 3d 4e 44 d9 bd 29 a1 68 3d
       0.07340852 0.065461956 -0.10608731 0.05679432
0002d0 9a 27 10 be ef 87 4f be 79 a5 84 3d b7 ea be be
       -0.14077607 -0.20266698 0.06476874 -0.37288448
0002e0 ec f7 9e be 86 ed bc be c4 e4 3d bd 12 2d 28 3d
       -0.31048524 -0.36899966 -0.046360746 0.041058607
0002f0 f1 54 02 3e 65 97 b5 3e 52 49 d1 3e 2b 74 d1 3d
       0.12727715 0.35467067 0.4087625 0.102272354
000300 ce 77 f0 bd 08 1a 36 bd 86 7c 1a 3d 12 44 a4 be
       -0.11741601 -0.04445842 0.03771641 -0.32083184
000310 29 5d eb bd 2c 62 92 bd 31 e4 f2 3d 41 88 a2 3e
       -0.11492378 -0.07147631 0.1185993 0.31744578
000320 c7 ec 07 be af e9 77 3e 78 97 b9 3e f3 de b6 3d
       -0.13273917 0.24210237 0.36248374 0.08929243
000330 06 1e 4d 3e 82 94 a7 bd 9e 6e a3 3e ff 72 9d 3e
       0.20030984 -0.081826225 0.31920332 0.30751798
000340 bb 3f 52 3d ec fb 61 3e 5a e2 49 3c 1c 76 e8 3e
       0.05133031 0.22068757 0.012322033 0.4540261
000350 0f c3 bc 3e 97 8d 48 be 7a b7 87 3d b3 65 ce bd
       0.36867568 -0.19585262 0.06626792 -0.10077991
000360 be 7c c0 3d ad 8c b8 be 4e df 68 3e 8e 6e 57 be
       0.09398793 -0.36044827 0.22741434 -0.21038267
000370 57 30 ce 3d 29 15 eb 3e c1 b7 5a be 1e 0b fe bd
       0.10067814 0.4591458 -0.21359159 -0.12404464
000380 4f a8 de 3e 7a 29 b6 3e ba 62 88 bd 54 be 2f 3e
       0.43487784 0.3557852 -0.066594556 0.17162448
000390 46 90 a1 3e d7 90 84 3d 90 23 7e 3e e5 45 3a be
       0.31555384 0.064729385 0.24818254 -0.18190725
0003a0 85 87 a3 3e 96 a4 ec bd 91 e0 a9 3e a3 87 11 3c
       0.3193933 -0.1155483 0.33179143 0.008882436
0003b0 5a ca a0 3d 30 74 a9 3e 83 f2 06 be 5e ef a4 bd
       0.078510955 0.33096457 -0.13178448 -0.08053468
0003c0 ba 69 ec bd 1c 63 aa 3e c4 23 6b 3d 30 1a 4f be
       -0.11543603 0.3327874 0.057407156 -0.20224833
0003d0 00 8d c7 3d 31 aa d2 bc 84 ac 2b 3e d3 05 a9 be
       0.097436905 -0.02571592 0.16765028 -0.33012256
0003e0 dc 01 ea be ab 2f 7f be 10 ea 10 3e 59 3f ea bd
       -0.45704544 -0.24920528 0.14151788 -0.11437864
0003f0 46 e2 ce 3e ab 34 a6 be 13 20 ba 3d 88 bd 0e bd
       0.40407008 -0.32462057 0.09088149 -0.03484872

weight f4 [72, 48, 1, 1]
000000 6b 28 eb bd a5 91 0d be ff 59 59 be e0 fd a6 bd
       -0.114823185 -0.1382509 -0.21225737 -0.081538916
000010 3b bf 7d 3c f8 ba f5 3d 9d 9c 98 3e 59 b1 58 3d
       0.015487487 0.11998552 0.29806986 0.052903507
000020 f2 92 03 3e 50 1f b6 3e d5 34 e7 3c 97 09 33 bc
       0.12849024 0.35570765 0.028223434 -0.010927579
000030 eb 0d d8 3e ba aa 43 3c c0 ed 5c be 8e c9 47 bd
       0.4219812 0.01194256 -0.2157507 -0.048776202
000040 ce 1d 60 bd 8a 3b 5f be 0c 53 98 3d 88 0d 88 3c
       -0.054715924 -0.21800056 0.07437715 0.016608015
000050 2c 50 d8 bd 4b 6a c1 bd 3c 74 b0 3a 97 3f 16 3d
       -0.105621666 -0.09444102 0.0013462375 0.036681738
000060 80 32 0b be 8d a9 07 3e 31 92 54 3e 3f f3 52 3c
       -0.13593483 0.13248272 0.20758893 0.012875377
000070 42 84 b0 3c c0 c9 39 be b6 a9 dd 3b e4 80 f6 bd
       0.02154744 -0.18143368 0.006764616 -0.12036303
000080 ea c7 4a be 4b 11 47 be 14 d8 06 3d a7 04 89 3e
       -0.19802824 -0.1944019 0.032920912 0.26761362
000090 00 f9 0a bd 3d b4 0f be 61 ed 8e bd fb 68 20 3e
       -0.03392887 -0.14033599 -0.0697887 0.15665047
0000a0 b6 7a 6c bd 70 86 1f 3e 16 df ac bd 5d cc 19 be
       -0.057734214 0.15578628 -0.08440988 -0.15019365
0000b0 db 4e 4b be 31 7f a4 bd 40 6e af bd 46 8f 6e bd
       -0.198543 -0.08032072 -0.085659504 -0.058242105
0000c0 63 77 08 3c a7 aa 18 be cb a7 33 be 68 9d b8 3d
       0.008329245 -0.14908849 -0.17544477 0.09014398
0000d0 30 4b 2b 3e 59 6d 42 3e 07 cd ee 3e 21 55 1f be
       0.167279 0.18987025 0.46640798 -0.15559818
0000e0 d5 aa bf 3d 9b 22 0b 3d 14 2c 56 3e 3c d8 ab bd
       0.093587555 0.03396855 0.20915252 -0.08390853
0000f0 1a 6c 12 3e de 08 9a 3d 44 cb 95 be 63 fa a5 3d
       0.1429905 0.075212225 -0.29256642 0.08104398
000100 8e 30 16 3d 96 30 ac be b5 90 7c 3e 8b e4 fe bd
       0.0366674 -0.33630818 0.24664576 -0.12445935
000110 3d ba 15 3e c6 b9 c5 be aa c5 a3 be f3 85 6b bd
       0.14621826 -0.38618296 -0.31986743 -0.05750079
000120 4e c1 2b be e1 0e d0 bd 43 0c f0 bb b7 1d 01 3e
       -0.16772959 -0.10159088 -0.0073256805 0.12608992
000130 ff ae bf bd a6 0f 8f 3d 5b 0f a5 3e 2c 79 62 3d
       -0.0935955 0.069854066 0.32238278 0.05529134
000140 db 43 2e be 4b cd 57 3d 21 d9 3f be b8 40 32 be
       -0.17018072 0.052686017 -0.18735172 -0.174075
000150 7a 71 2d 3c ca 77 09 be e4 97 80 be 6e d3 fb bd
       0.010586137 -0.13424602 -0.25115883 -0.122961864
000160 a2 c3 f7 3d ae ce 86 3d ec c0 10 3d ce b2 b8 bd
       0.12097861 0.0658239 0.035340235 -0.09018479
000170 83 5f 9e 3c cc 75 ef bd 20 27 36 3e 9d c5 67 be
       0.019332653 -0.1169239 0.17788363 -0.22633977
000180 55 b5 23 3e 3e 14 24 3e 8b 3b 6e be 9c 8e 1a 3e
       0.15987141 0.16023347 -0.23264901 0.15093464
000190 6c 01 54 be 84 ca 3a bd 7d 90 81 be bd 9a 00 3e
       -0.20703667 -0.04560329 -0.25305548 0.12559028
0001a0 ee bc 0a bb 3f f9 cc be 74 b0 88 bd 0d fa 76 3e
       -0.002116974 -0.4003391 -0.06674281 0.24118824
0001b0 8d e4 4a be 8f 6e e5 bd 92 a9 35 3e ca 94 b8 bd
       -0.19813748 -0.11202728 0.17740467 -0.09012754
0001c0 15 09 d1 bd 7d a1 04 3f f9 29 55 bd 32 5f 69 be
       -0.102068104 0.5180891 -0.05204198 -0.2279022
0001d0 f6 b5 0e be 4c 23 3a 3e 9d 98 67 3e 41 20 86 3d
       -0.139366 0.18177527 0.22616811 0.06549121
0001e0 a7 00 a8 3c de fb 98 3c 1a b6 61 bb b8 81 54 be
       0.020508124 0.018674787 -0.0034440816 -0.20752609
0001f0 d3 d1 4c 3e 35 a1 fd bc 6c 70 55 bc e2 ab 94 bd
       0.20001917 -0.030960659 -0.013027292 -0.072593465
000200 14 58 fb 3c 02 dc b2 3e 5b 19 77 bd 9c 67 be 3d
       0.030681647 0.34933478 -0.060326915 0.09297106
000210 54 64 8e 3e 0c 8a 0c be 42 0d f7 bd 4b e2 58 bd
       0.2781092 -0.13724536 -0.120630756 -0.052950185
000220 ed 51 0b be 7b d6 0e be 08 22 08 3e b2 0a 37 3e
       -0.13605471 -0.13949005 0.13294232 0.17875174
000230 de 9c a9 bd 87 05 a5 3d 14 4a 14 bd 5a 7a a7 3d
       -0.08281873 0.08057695 -0.03620346 0.081776336
000240 92 ea 39 be 44 69 d6 3d 9c e2 92 be ae 6a 11 bd
       -0.18155888 0.104692966 -0.28688514 -0.03550213
000250 b8 1d 27 be 8a 7d 1d 3e 7f 3f 66 3e 69 43 77 be
       -0.1631993 0.1537992 0.2248516 -0.24146809
000260 6e 07 05 be 3a 8e 17 3c 6c bc d6 bd 88 b1 8b bd
       -0.12991115 0.009250218 -0.10485157 -0.06820971
000270 01 ff 35 3e 63 e7 95 3e 51 54 f9 bd 33 a1 d5 bd
       0.17773058 0.29278097 -0.12174285 -0.10431137
000280 bf 1d 9a bd 50 0b 51 be 5f 01 a0 3e 40 89 97 bd
       -0.07525205 -0.20414472 0.31251046 -0.07399225
000290 ae 73 4c 3d 00 f3 63 be f0 51 bb bb fa 7d b3 bd
       0.04991501 -0.22260666 -0.005716555 -0.087642625
0002a0 ed de 93 bd bb ac 12 be 92 f2 49 3e 9f 59 99 bd
       -0.07220254 -0.14323704 0.1972144 -0.07487797
0002b0 93 98 ef bc 69 16 cf bc f0 36 4c 3d 86 7f 3a 3c
       -0.029247558 -0.02527924 0.04985708 0.011382943
0002c0 fe b4 e2 3c 71 98 af bd fb d4 15 be 2e 25 2d 3e
       0.027674194 -0.08573998 -0.14632027 0.16908714
0002d0 dc f7 e3 be af 81 d9 3d ac 32 e6 bd 52 86 b2 3b
       -0.4452504 0.10620438 -0.11240134 0.005448141
0002e0 69 aa be 3e b6 61 5a 3e 24 6f 51 3c c0 a2 a1 be
       0.37239388 0.21326336 0.012782846 -0.3156948
0002f0 7f 05 92 3d 6f eb 5f 3d 99 98 8f 3d 03 35 09 bd
       0.071299545 0.054667886 0.070115276 -0.03349782
000300 c1 ff b2 3e f1 94 b0 3d cd 7b a1 3d cf 4c c2 3d
       0.3496075 0.08622158 0.07884941 0.09487306
000310 a2 a1 ed 3b b1 d8 48 3e 9a 9b 4c bc c2 95 33 bd
       0.007251934 0.19613911 -0.01248827 -0.043843992
000320 cc 45 70 bd fa 57 1b be 9e 90 a4 3e 85 4a ff bd
       -0.058660313 -0.15170279 0.32141584 -0.12465385
000330 55 6d 34 be ec 02 bb bd ca 6e c3 bc 1b b8 01 3e
       -0.17619832 -0.09131417 -0.02385654 0.12667887
000340 95 6c d6 bc 46 59 68 3c 23 8f 20 3e 2a ab 31 bc
       -0.026174823 0.014181441 0.15679602 -0.010844031
000350 46 4d 84 3c 18 5a e6 3c d3 34 ec bc 9c b2 93 be
       0.016150128 0.028119132 -0.028833782 -0.28847206
000360 90 3b 84 bd 5b 7b 64 bd d7 28 d5 3d 3b 11 16 3e
       -0.06456673 -0.055781703 0.1040818 0.1465501
000370 3c 86 31 be fc 72 b7 3e ba 10 5c be a6 cb 8c 3d
       -0.17336363 0.35829914 -0.21490756 0.0687478
000380 ec 15 d0 bd f5 a1 86 3e 66 86 79 3e 7d 6b 31 be
       -0.10160431 0.26295438 0.24367675 -0.1732616
000390 db f0 1b bd 50 08 8e 3d 00 e4 4a 3d 0d a1 00 3e
       -0.038071495 0.06935179 0.049533844 0.12561436
0003a0 c2 7b 95 3e 42 7f 19 bc ce f0 c5 3c 53 ed cd 3c
       0.29195982 -0.0093687195 0.024162676 0.025137579
0003b0 bd c4 3b 3d 40 7e cd bd 20 13 0d be 8b 94 9a bd
       0.04584192 -0.10033846 -0.13776827 -0.075478636
0003c0 2a bb 43 3d 8a 76 ac bb 75 11 ff 3d 3e 56 6a bc
       0.047785915 -0.0052631544 0.124545015 -0.014302788
0003d0 78 9d fb bd e0 bb 80 bd 86 31 90 be a9 4f 7f bd
       -0.12285894 -0.06285834 -0.28162783 -0.06233183
0003e0 8e a5 08 be 7a 97 24 be 26 a0 04 3d 2d e8 5b be
       -0.13344404 -0.16073409 0.032379292 -0.21475287
0003f0 2d 11 a6 3d b8 04 0c 3d 4e 91 e3 3d 8f dc e0 bc
       0.08108745 0.034184188 0.11111699 -0.02744892

weight f4 [72]
000000 2b 0a 81 3f 67 2b 8c 3f c3 41 65 3f ae 93 86 3f
       1.0081228 1.0950745 0.8955347 1.0513818
000010 5f da 69 3f cd 41 8d 3f 8c 41 86 3f 50 38 78 3f
       0.9134883 1.1035706 1.0488753 0.96960926
000020 85 2e 76 3f a0 b8 7b 3f a3 f4 83 3f 31 49 88 3f
       0.96164733 0.9832859 1.0309032 1.0647336
000030 6f 89 8b 3f e1 93 72 3f ec f4 76 3f b6 1b 97 3f
       1.0901316 0.94756895 0.9646747 1.1805332
000040 80 86 82 3f 06 d7 89 3f 84 af 7c 3f 4d da 8a 3f
       1.0197296 1.0768745 0.98705316 1.084787
000050 01 4d 9c 3f 98 b1 88 3f 1f 51 94 3f 37 bd 73 3f
       1.2211 1.0679197 1.1587256 0.95210594
000060 13 39 88 3f 96 25 8e 3f 4d a9 81 3f 47 30 8f 3f
       1.0642418 1.110522 1.0129791 1.1186608
000070 d1 55 91 3f b6 dc 67 3f c4 69 91 3f 3e 69 9e 3f
       1.1354314 0.90571153 1.1360402 1.2375867
000080 20 1b 8a 3f 3f a6 69 3f ee 19 65 3f a9 d9 73 3f
       1.0789528 0.91269296 0.8949269 0.95254
000090 64 c0 82 3f da 1f 84 3f 1d 22 86 3f 7d 8f 6a 3f
       1.0214963 1.032222 1.047916 0.91625196
0000a0 03 e4 90 3f 8b f9 8c 3f e0 97 80 3f c9 8f 79 3f
       1.1319584 1.1013654 1.0046349 0.97485024
0000b0 b7 a4 8e 3f 64 64 6b 3f 5a bf 82 3f 9b 74 86 3f
       1.1144017 0.9195006 1.0214646 1.0504335
0000c0 03 41 81 3f f2 28 73 3f 2d 1a 83 3f 32 67 8d 3f
       1.0097965 0.9498435 1.0242363 1.1047118
0000d0 ec 27 70 3f f6 4b 81 3f 44 49 78 3f 9c f6 91 3f
       0.93810916 1.0101306 0.96986794 1.1403384
0000e0 0f e5 91 3f 1b 9c 7a 3f 07 98 94 3f 8a f5 64 3f
       1.1398028 0.9789445 1.1608895 0.8943716
0000f0 51 65 67 3f d7 46 68 3f 48 6b 85 3f 55 4e 83 3f
       0.9038897 0.90733093 1.0423365 1.025828
000100 ec 3a 5e 3f 81 cf 78 3f 0f f3 84 3f 4d 64 69 3f
       0.8680866 0.97191626 1.0386676 0.9116867
000110 6c 05 8b 3f 5c dc 8a 3f 96 49 86 3f 41 82 8c 3f
       1.086103 1.0848498 1.0491207 1.097725

bias f4 [72]
000000 bb 45 22 be a1 6a 89 3e cf 7d 25 3e cb 22 cb bc
       -0.15846913 0.26839164 0.16161273 -0.024796864
000010 e8 eb 69 bd 83 53 31 3f 50 51 3a be cc a7 01 be
       -0.057109743 0.69268054 -0.18195081 -0.12661666
000020 97 5f 7a 3e ab 03 16 3d 3f 38 45 be 66 f9 bf be
       0.24450527 0.03662459 -0.19259737 -0.37494963
000030 48 69 c2 3d 86 36 e9 be c7 78 8a 3e a8 c2 1a be
       0.09492737 -0.4554941 0.2704527 -0.15113318
000040 93 af 59 be 1e 20 a5 bd 9f b1 17 3e d0 09 3e 3e
       -0.21258382 -0.080627665 0.14813851 0.1855843
000050 87 b4 16 bd a9 18 1c be 2c 6e 3f be 90 31 8d bb
       -0.036793258 -0.15243782 -0.18694371 -0.004308887
000060 64 1d 34 3d 57 ef 8b 3e 71 df ae 3e 5c 58 a7 3c
       0.04397334 0.2733104 0.34154847 0.020427875
000070 e8 fc 58 3b 08 b2 df 3d 61 21 09 3e 2e 1a d7 bc
       0.0033109728 0.10922629 0.1339164 -0.0262576
000080 b0 c1 14 3e e1 46 eb bd 0c 9e d6 bc ba 10 87 be
       0.14527011 -0.114881285 -0.02619841 -0.2637995
000090 9f 76 22 3c bf e5 ba 3e 58 5f 3f bd ca 76 e3 3d
       0.009915977 0.36503407 -0.046721786 0.111066416
0000a0 e5 fa c4 3e a8 1e 42 3e c6 29 31 be 6c 8f 30 3e
       0.38472667 0.18957007 -0.17301092 0.17242211
0000b0 f1 2e e8 bd 30 b9 0e 3e 3b 8c 45 be d4 8f 81 bc
       -0.11337078 0.13937831 -0.19291775 -0.015815653
0000c0 f7 ff 0f bd ef fa af 3d 61 9d 3c be ed 0c 45 be
       -0.035156216 0.08592784 -0.1841941 -0.19243212
0000d0 3f 88 c6 3d 62 46 1b bd 38 a9 b4 bd 49 73 02 bd
       0.09693956 -0.03790892 -0.088213384 -0.031848226
0000e0 6e 73 da 3e 8b cb 3a bd 00 0a d3 3e c6 58 66 be
       0.4266619 -0.04560427 0.41218567 -0.22494802
0000f0 de 4b d7 3e a0 da 33 be b2 13 db be 6f b9 a4 3d
       0.4205007 -0.17563868 -0.42788464 0.08043181
000100 d6 56 91 bd c4 10 52 3e 9c 30 87 3e 51 ab 38 be
       -0.07096641 0.20514208 0.26404274 -0.18034102
000110 41 38 3c bc ad 55 79 3e 48 7f 89 3e 5d d9 2a 3e
       -0.011488021 0.24349089 0.2685492 0.1668448
