Save Model/Student Single3/student_supervised_best2.pth (torch, 629692 bytes, 61 tensors)

stem.0.weight f4 [48, 3, 3, 3]
0	0xbe66a55e	-0.2252402
1	0xbd57ecb6	-0.05271598
2	0xbdc3b89e	-0.09556697
3	0xbda0fe7d	-0.0786104
4	0xbde3809c	-0.11108515
5	0xbe862933	-0.26203308
6	0xbe0fe529	-0.14052261
7	0xbe2c5e5b	-0.16832869
8	0xbdf129c8	-0.11775547
9	0xbd8fe8a3	-0.07026794
10	0x3c7a251b	0.015267636
11	0x3e35fb66	0.17771682
12	0xbcb694d7	-0.02228777
13	0x3e955641	0.2916737
14	0x3d51539b	0.051105123
15	0xbc3ffe50	-0.011718348
16	0x3eafbddd	0.34324542
17	0x3ea51391	0.3224149
18	0xbe4aefaa	-0.19817987
19	0xbe90fd4f	-0.2831826
20	0xbd654c39	-0.055980895
21	0xbe215678	-0.15755641
22	0x3d3b63f4	0.04574962
23	0x3dd92330	0.106024146
24	0x3e0c38a2	0.13693479
25	0xbc8b1e70	-0.016982287
26	0x3cef846b	0.029237946
27	0x3e1afa7c	0.15134615
28	0x3dcfd85f	0.101486914
29	0x3e953280	0.2914009
30	0x3b96d36d	0.0046028406
31	0x3e649ccd	0.2232544
32	0x3e07db36	0.13267216
33	0xbdfb4ee8	-0.122709095
34	0x3e8d492f	0.27594897
35	0x3df1cd6e	0.11806761
36	0xbd98219b	-0.07428285
37	0x3c2934f8	0.01032757
38	0x3e44eb81	0.19230463
39	0x3dee83cc	0.11646232
40	0x3ce50747	0.027957572
41	0xbcc06946	-0.023487698
42	0x3d181d9a	0.037137605
43	0x3e0c95aa	0.13728967
44	0xbe2ac5c2	-0.16677001
45	0x3e3b8515	0.18312486
46	0x3e4a43ca	0.19752422
47	0x3cadefce	0.021232512
48	0x3dbff053	0.0937201
49	0xbd357442	-0.044300325
50	0xbdf266b5	-0.11835996
51	0xbe137987	-0.14401828
52	0x3d9589ed	0.07301698
53	0xbe4ac7ae	-0.19802734
54	0xbeb630e8	-0.35584188
55	0xbeae6d30	-0.34067678
56	0x3c1131a7	0.008861936
57	0xbdf3ba7a	-0.11900802
58	0xbdf493d5	-0.11942259
59	0xbe885a1f	-0.26631257
60	0xbdc6f9df	-0.09715628
61	0xbde22149	-0.11041505
62	0xbe639bc4	-0.22227389
63	0x3c486007	0.012229926
64	0xbdcfc61e	-0.1014521
65	0x3e281123	0.16412787
66	0xbe001da1	-0.12511303
67	0x3e2679c4	0.16257387
68	0x3e13099e	0.14359137
69	0x3e3eeaf5	0.18644316
70	0x3e7d8fa8	0.24761832
71	0x3e86455a	0.26224786
72	0x3d9ab6a9	0.07554371
73	0xbe220151	-0.15820815
74	0x3df3a619	0.11896915
75	0xbe02a015	-0.12756379
76	0xbbac5c00	-0.0052599907
77	0xbd18fe2a	-0.037351765
78	0xbe31ea6e	-0.17374584
79	0x3e2f381f	0.17111252
80	0x3e6dcabc	0.23221868
81	0xbe4cc135	-0.19995578
82	0xbd85cce6	-0.06533222
83	0xbea54cee	-0.32285255
84	0x3d1f82d1	0.038943116
85	0x3c2270c7	0.0099145835
86	0x3e200137	0.15625463
87	0x3d59c3ac	0.053165123
88	0x3e201634	0.1563347
89	0x3d52f4e4	0.051503077
90	0xbd1ab5a9	-0.0377709
91	0x3da92c4b	0.08260401
92	0x3dc71164	0.09720114
93	0x3e3e7353	0.1859868
94	0x3e977ff1	0.295898
95	0x3e961b7a	0.29317838
96	0x3e172483	0.14760022
97	0x3cb672fa	0.022271622
98	0x3e414451	0.18873717
99	0xbe3ca966	-0.18423995
100	0xbe6f462c	-0.23366612
101	0xbe0dd93f	-0.13852404
102	0x3df6e3df	0.12055182
103	0x3c752c12	0.01496412
104	0x3e22e9b3	0.15909462
105	0xbd73f5d1	-0.0595606
106	0x3e2586f6	0.16164765
107	0x3df477fc	0.11936948
108	0x3dbcef58	0.09225339
109	0xbde9cfe6	-0.114166066
110	0x3d851481	0.064980514
111	0xbd981af1	-0.07427014
112	0xbd102938	-0.03519556
113	0xbe4bce0d	-0.19902821
114	0xbe5ea3d9	-0.2174219
115	0xbd0f24ae	-0.03494709
116	0xbd064036	-0.03277608
117	0xbd46775e	-0.04845368
118	0xbde2439e	-0.11048053
119	0xbe1de9d3	-0.15421228
120	0x3e051e98	0.12999952
121	0x3e20fa4c	0.1572048
122	0x3e7a12eb	0.24421279
123	0x3dd9443b	0.10608717
124	0x3eb94259	0.36183432
125	0x3e74b015	0.23895295
126	0x3e33a3f2	0.17543009
127	0x3ddb96ef	0.10722148
128	0xbdc11808	-0.09428412
129	0xbe43429d	-0.1906838
130	0xbe4ce60b	-0.2000963
131	0xbc07885b	-0.008272256
132	0x3e4a6229	0.19764008
133	0x3ea6ffee	0.32617134
134	0x3e8546f8	0.26030707
135	0x3d20b979	0.03923938
136	0x3d611a58	0.054956764
137	0x3e817f01	0.2529221
138	0x3de06312	0.10956396
139	0x3e5af8fe	0.21384045
140	0x3ec3f9cc	0.38276517
141	0xbd0e0a65	-0.03467788
142	0x3eac1363	0.3360854
143	0x3ed59e2d	0.4172224
144	0xbe27152b	-0.16316669
145	0xbc3c0406	-0.011475569
146	0xbd495534	-0.04915352
147	0x3cf64d2c	0.030066095
148	0x3d3a4720	0.045477986
149	0xbda5c4b2	-0.08094157
150	0xbd6a8f9c	-0.057265863
151	0xbe7d9f95	-0.24767907
152	0xbe81f83a	-0.25384694
153	0xbc9c9d2e	-0.019117918
154	0xbe2603c5	-0.16212375
155	0xbc84e93b	-0.016224494
156	0xbdb42745	-0.087965526
157	0xbe5aeac5	-0.2137862
158	0x3dc3ec2b	0.0956653
159	0xbe7bb25a	-0.24579754
160	0x3e07ec51	0.13273741
161	0x3de44b72	0.111472026
162	0x3e1f1593	0.15535574
163	0x3d28e136	0.041230403
164	0x3e069809	0.13143934
165	0x3e0bb433	0.1364296
166	0x3e4a527b	0.19758026
167	0x3d1ba602	0.038000114
168	0x3dd5e35c	0.10443756
169	0x3e69af70	0.2282083
170	0x3e67f4e0	0.22652006
171	0xbe9354c3	-0.28775606
172	0xbdcb8203	-0.09936907
173	0x3cc0874a	0.02350201
174	0xbe7ecb1b	-0.24882166
175	0xbdf06457	-0.11737888
176	0xbe33140a	-0.17488113
177	0xbe25e987	-0.16202365
178	0xbe22d2cf	-0.1590073
179	0xbe722d17	-0.23650013
180	0x3d42bd97	0.04754409
181	0x3a6e1912	0.0009082715
182	0xbb937115	-0.0044995644
183	0x3d172118	0.036896795
184	0x3e2592c8	0.16169274
185	0x3e532719	0.20620383
186	0x3dfa59c5	0.122241534
187	0x3e5e1076	0.21685967
188	0x3ddae25f	0.10687708
189	0xbe06b4da	-0.13154927
190	0xbddccf03	-0.10781672
191	0x3e382565	0.17983015
192	0xbdaec053	-0.08532777
193	0xbe2eb18a	-0.17059913
194	0x3e6b271f	0.22964142
195	0xbe09c534	-0.13454133
196	0x3daec82d	0.08534274
197	0x3cc9a835	0.02461634
198	0xbdea8c3a	-0.11452527
199	0x3e2aa56e	0.16664669
200	0xbd106dc8	-0.035260946
201	0xbe60fd46	-0.21971616
202	0x3e52a472	0.20570543
203	0x3e8b2757	0.2717845
204	0xbe62f801	-0.22164918
205	0xbdfb831c	-0.122808665
206	0x3dc69fc8	0.096984446
207	0xbde9188c	-0.11381635
208	0xbd780490	-0.060551226
209	0x3e915c1b	0.28390583
210	0xbeaf9850	-0.34295893
211	0x3c1c6256	0.0095449295
212	0x3e80e997	0.25178215
213	0x3d6f3e84	0.05840923
214	0xbe0a2edc	-0.13494438
215	0x3e878e57	0.26475784
216	0xbd092001	-0.033477787
217	0x3dc8f73b	0.098127805
218	0xbe57db5c	-0.21079773
219	0x3d6b7f14	0.057494238
220	0xbd9ccfc7	-0.07656818
221	0xbd8f48e3	-0.06996324
222	0x3b910f31	0.00442686
223	0xbcbc8fa2	-0.023017708
224	0xbc0e1e28	-0.008674182
225	0xbd93349f	-0.07187771
226	0xbe515311	-0.20441844
227	0xbe111649	-0.14168657
228	0x3d828c51	0.063744195
229	0xbec62c87	-0.38705847
230	0xbec381e0	-0.38185024
231	0x3d5535eb	0.052053373
232	0x3c5579a4	0.01302949
233	0xbeaaf103	-0.33387002
234	0xbdb55561	-0.08854175
235	0x3d020922	0.03174699
236	0xbdb4562a	-0.08805497
237	0xbcaaeafc	-0.020864002
238	0x3c2d798f	0.010588064
239	0x3d2139f8	0.039361924
240	0x3d2a03d5	0.04150756
241	0xbe026e9f	-0.12737511
242	0x3e01c784	0.12673765
243	0xbe94b123	-0.29041395
244	0x3e045bbf	0.12925623
245	0xbde90ff6	-0.113799974
246	0x3d3ee671	0.046606485
247	0xbe28bcf4	-0.1647833
248	0xbdb087ee	-0.086196765
249	0xbde0a96f	-0.10969817
250	0x3e222afc	0.1583671
251	0xbdb79f25	-0.08965901
252	0xbd41a36f	-0.047275003
253	0x3ec4e7b4	0.38458025
254	0x3ea44245	0.3208181
255	0x3e87ca46	0.2652151

stem.1.weight f4 [48]
0	0x3f7d2e5e	0.98898876
1	0x3f5460c4	0.8296015
2	0x3f908082	1.1289217
3	0x3f5ff089	0.874764
4	0x3f85f61d	1.0465733
5	0x3f987b84	1.1912694
6	0x3f905ece	1.1278932
7	0x3f7d0935	0.98842174
8	0x3f866850	1.0500584
9	0x3f5d1e08	0.8637395
10	0x3f7e5d7d	0.993614
11	0x3f60d491	0.8782435
12	0x3f8cbfd5	1.0996042
13	0x3f9572aa	1.1675618
14	0x3f88129a	1.0630677
15	0x3f8cc8ec	1.0998816
16	0x3f81b668	1.0133791
17	0x3f71fcf8	0.94526625
18	0x3f44b51d	0.76838857
19	0x3f85e9a9	1.0461932
20	0x3f722996	0.94594705
21	0x3f548138	0.8300967
22	0x3f772c67	0.9655213
23	0x3f8b1820	1.0866737
24	0x3f7fb774	0.998893
25	0x3f7f2392	0.9966365
26	0x3f7e4537	0.99324363
27	0x3f7e012d	0.99220544
28	0x3f9bde49	1.2177211
29	0x3f721a8a	0.94571745
30	0x3f452496	0.7700895
31	0x3f82db42	1.0223162
32	0x3f6c8cd7	0.92402405
33	0x3f83da1c	1.0300937
34	0x3f50c456	0.81549585
35	0x3f65e245	0.89798385
36	0x3f9355c5	1.151055
37	0x3f2fe37a	0.68706477
38	0x3f4901e7	0.7851853
39	0x3f7744ad	0.96589166
40	0x3f677f95	0.9042905
41	0x3f90cd8e	1.131273
42	0x3f700175	0.93752223
43	0x3f4879e2	0.7831098
44	0x3f8883d7	1.0665234
45	0x3f98c105	1.1933905
46	0x3f87d240	1.0611038
47	0x3f4f8c35	0.81073314

stem.1.bias f4 [48]
0	0xbe1ba616	-0.15200076
1	0xbd9f1ef4	-0.07769576
2	0xbe5941f7	-0.2121657
3	0xbe01a932	-0.12662199
4	0xbc9e21bb	-0.019303193
5	0x3e393ccc	0.18089598
6	0x3f118ef8	0.5685878
7	0x3d09a643	0.033605825
8	0x3dad1dce	0.084529504
9	0xbdaa5ff9	-0.083190866
10	0x3edcf9f6	0.43159455
11	0x3daa1a15	0.08305756
12	0x3de208a8	0.11036807
13	0x3dcd628e	0.100285634
14	0x3ed84699	0.42241362
15	0x3dd4ef81	0.10397244
16	0xbe0e43fb	-0.1389312
17	0x3df73eb3	0.12072506
18	0xba8633ad	-0.0010238789
19	0xbe296194	-0.1654113
20	0x3e1528ed	0.14566393
21	0x3ce3f7e7	0.02782817
22	0x3e872cf3	0.2640148
23	0x3ee7e36b	0.45290694
24	0x3ef3395d	0.47504702
25	0xbe120fa9	-0.14263786
26	0xbdf9fcb3	-0.12206402
27	0xbd39eadd	-0.04539
28	0xbe26e5a1	-0.16298534
29	0x3d90b11c	0.07065031
30	0xbe7c5481	-0.2464161
31	0xbe6dcb2e	-0.23222038
32	0x3ee1712f	0.44031665
33	0x3e84004b	0.25781474
34	0x3e321fb3	0.17394905
35	0xbbd403da	-0.0064701857
36	0x3e2f0858	0.17093027
37	0xbe68f040	-0.22747898
38	0xbd8918c3	-0.06694176
39	0xbe18eb18	-0.14933431
40	0x3eb59fee	0.3547358
41	0x3f19ffc5	0.601559
42	0xbc38fdbe	-0.011290966
43	0x3e53ddad	0.20690031
44	0x3c2f9a85	0.010717993
45	0x3f031d80	0.5121689
46	0x3d8a05c2	0.067393795
47	0x3c8e41e4	0.017365403

stem.1.running_mean f4 [48]
0	0xbf82d34a	-1.022073
1	0x3f91fa1a	1.140445
2	0xbf8b14a9	-1.086568
3	0x3e56fdae	0.20995209
4	0x3ddb81c8	0.10718113
5	0x3f893a60	1.072094
6	0x3f9fcf77	1.2485188
7	0x3d0e0d6b	0.034680765
8	0xbf270950	-0.65248585
9	0xbefdf7c6	-0.496031
10	0x3fb54c01	1.416382
11	0x3f9d065c	1.2267566
12	0xbf832bbe	-1.0247724
13	0xbf135ce8	-0.5756364
14	0x3fe5d595	1.7955805
15	0xbf416ff9	-0.7556148
16	0x3f7c433e	0.98540103
17	0x3f86d9a8	1.0535173
18	0xbd048d06	-0.032361053
19	0xbeea610b	-0.45777163
20	0xbe3b223d	-0.1827478
21	0x3f960d11	1.1722738
22	0x3ee5d000	0.44885254
23	0x3d091292	0.033464976
24	0x3ee77f6a	0.45214397
25	0xbfb51b72	-1.4149001
26	0xbf1d1fa3	-0.613764
27	0x3e23f8f9	0.16012944
28	0xbf2e106a	-0.67993796
29	0xbf78225c	-0.9692743
30	0x3f952f9a	1.1655152
31	0xbfc13993	-1.5095695
32	0x3dfb9132	0.12283553
33	0xbd76f9cf	-0.06029683
34	0x3f9874d4	1.1910653
35	0xbf28ba19	-0.6590896
36	0xbfb18dc0	-1.3871384
37	0xbf2a2f04	-0.6647799
38	0xbf71704a	-0.94311965
39	0xbf3d3f18	-0.739244
40	0x3e5db5c6	0.21651372
41	0x3f9138ca	1.1345456
42	0x3f917bf8	1.1365957
43	0xbe90b67e	-0.2826423
44	0x3f9b327f	1.2124785
45	0x3fd3c474	1.6544328
46	0x3ef013ff	0.46890256
47	0x3ee90eaf	0.45519015

stem.1.running_var f4 [48]
0	0x3f086fdb	0.5329568
1	0x40042cba	2.06523
2	0x3f3d94f1	0.7405539
3	0x3f8f70a5	1.1206251
4	0x3f4b03cb	0.7930266
5	0x3f64b75b	0.8934228
6	0x3f4bb864	0.7957823
7	0x3e335de8	0.17516291
8	0x401806ac	2.3754072
9	0x3ec3ada0	0.38218403
10	0x403c27f6	2.939939
11	0x404e9be6	3.2282653
12	0x3ebf5955	0.37372842
13	0x4082528a	4.0725756
14	0x40517bab	3.273173
15	0x3f68fe90	0.9101343
16	0x4052fcd4	3.2966814
17	0x3fd44f66	1.658673
18	0x3f1db5ed	0.6160572
19	0x3e2e0ff3	0.16998272
20	0x3fe4611a	1.7842133
21	0x3febf8f9	1.8435355
22	0x3fb5d8f3	1.4206833
23	0x3f7e0355	0.99223834
24	0x3dae7dd1	0.08520091
25	0x40883118	4.255993
26	0x3ef60815	0.4805304
27	0x3f2a0060	0.6640682
28	0x3f10bcb7	0.56537956
29	0x3f698c6e	0.91229904
30	0x401f5ef8	2.4901714
31	0x40d6b046	6.7090178
32	0x3e71c630	0.23610759
33	0x400cae05	2.1981213
34	0x3fd4771a	1.6598847
35	0x3e9c0743	0.3047429
36	0x3f93ad7f	1.1537322
37	0x3f6db061	0.9284726
38	0x3ee22894	0.44171584
39	0x3f9704e4	1.1798368
40	0x3f483d61	0.78218657
41	0x3f0d89de	0.55288494
42	0x400d4371	2.2072413
43	0x3e4058c9	0.18783869
44	0x408b96c5	4.3621545
45	0x401a2b26	2.4088836
46	0x40194785	2.3949902
47	0x3fc36658	1.5265608

stage.0.dw.weight f4 [48, 1, 3, 3]
0	0x3c7463b8	0.014916353
1	0xbde1c31a	-0.11023541
2	0xbe1e4baf	-0.15458558
3	0x3e8dec7a	0.2771948
4	0x3c8ecfd5	0.017433086
5	0x3e9a3ed7	0.30126068
6	0x3e356872	0.17715624
7	0x3de188e6	0.110124394
8	0xbe90c3fd	-0.28274527
9	0x3e5465e4	0.20741993
10	0x3e015d1b	0.12633173
11	0xbe86c97b	-0.26325592
12	0x3e99daff	0.30049893
13	0xbe87aac0	-0.2649746
14	0x3e47e01a	0.19519082
15	0xbdff600a	-0.1246949
16	0xbeb5a3a6	-0.35476416
17	0x3d96a990	0.0735656
18	0xbdf6bef8	-0.12048143
19	0x3e894a82	0.26814657
20	0x3e6c5653	0.23079805
21	0xbe4cb441	-0.19990636
22	0xbcb796cf	-0.022410778
23	0xbed396f4	-0.41326106
24	0xbedd4066	-0.43213195
25	0xbe299d87	-0.16563998
26	0xbea1ea53	-0.31624088
27	0xbe936a91	-0.2879224
28	0x3e7d5d1b	0.24742548
29	0xbec23178	-0.37928367
30	0x3e1c8ad2	0.15287331
31	0x3e82ad55	0.25522867
32	0x3ea5b5b0	0.3236518
33	0x3e0ddcd2	0.13853768
34	0xbeabfc12	-0.33590752
35	0xbd3b3a75	-0.045710046
36	0xbe723d48	-0.2365619
37	0xbe6becd9	-0.23039569
38	0xbe835447	-0.25650236
39	0x3ebb2a6c	0.36555803
40	0xbe62209e	-0.22082755
41	0xbe827b09	-0.25484493
42	0x3e2996d7	0.16561447
43	0x3ec5706c	0.38562334
44	0x3e9e262d	0.308885
45	0x3dfd9aed	0.123830654
46	0x3ead4c91	0.33847478
47	0x3ea1f3c0	0.3163128
48	0xbe97ac0a	-0.29623443
49	0x3d55da34	0.052210048
50	0x3e3d9dd1	0.18517233
51	0xbeeb7f8c	-0.45995748
52	0xbe76fce1	-0.24119903
53	0x3d402491	0.046909872
54	0x3e7b56a8	0.24544775
55	0x3d9e50bb	0.07730242
56	0x3ef79bbb	0.48361
57	0xbd5ccd0e	-0.053906493
58	0xbe80a6a0	-0.25127125
59	0x3e97701f	0.2957773
60	0xbd81c97f	-0.063372605
61	0xbed3fffb	-0.41406235
62	0xbeb558f7	-0.35419437
63	0xbbdf1af8	-0.006808635
64	0x3e29e5e2	0.165916
65	0x3e327c9e	0.1743035
66	0x3e4d5bf6	0.20054612
67	0xbe95ace3	-0.29233465
68	0x3d2c6aaf	0.04209393
69	0xbd2f549f	-0.04280531
70	0xbeb8ca17	-0.36091682
71	0x3eb79a89	0.35860088
72	0x3e86dd84	0.26340878
73	0xbea62551	-0.32450345
74	0xbebeace7	-0.3724129
75	0x3eb11fb9	0.34594515
76	0x3e78e6c9	0.24306788
77	0xbec32c86	-0.38119906
78	0x3ebb8356	0.3662364
79	0x3e439040	0.19097996
80	0x3d934f12	0.07192816
81	0xbd3bf58d	-0.045888472
82	0xbda469a9	-0.080279656
83	0xbe32c378	-0.17457378
84	0xbcc8c191	-0.024506362
85	0xbe137ad6	-0.14402327
86	0xbdc2ff20	-0.095213175
87	0xbea4bc40	-0.32174873
88	0xbe54e199	-0.20789184
89	0x3e9a8368	0.3017838
90	0xbebcb2f4	-0.3685528
91	0x3e589c2c	0.21153325
92	0x3e3c805d	0.18408342
93	0xbd251389	-0.040301833
94	0xbc0b283f	-0.008493482
95	0x3c0fa170	0.008766517
96	0x3be58e4b	0.007005488
97	0xbe890ac3	-0.26766023
98	0x3eaa81b4	0.3330208
99	0xbd669cbd	-0.05630182
100	0xbebc3a6d	-0.36763325
101	0x3e2153b2	0.15754583
102	0xbcbc5821	-0.022991242
103	0x3dfed35b	0.124426566
104	0x3d5b28a1	0.053505544
105	0x3dff6f30	0.12472379
106	0x3e4ba3e3	0.19886737
107	0xbe540998	-0.20706785
108	0xbea10675	-0.3145024
109	0xbdba2605	-0.09089283
110	0xbdbadff7	-0.09124749
111	0xbeaef40d	-0.3417057
112	0x3ddc461b	0.10755559
113	0xbe3ad1a6	-0.18244037
114	0x3e9b6157	0.30347702
115	0x3e84fd71	0.2597461
116	0x3e82544f	0.25454947
117	0x3e25c58c	0.1618864
118	0xbebc1c62	-0.36740404
119	0xbd701a3c	-0.05861877
120	0x3e852f1d	0.26012507
121	0xbe25c142	-0.16187003
122	0x3e2f975c	0.17147583
123	0xbe4f2631	-0.20229413
124	0x3defe4e9	0.11713583
125	0x3e68c8cc	0.22732848
126	0xbd5b85d0	-0.05359441
127	0xbb36bc95	-0.00278834
128	0xbef61bce	-0.48068088
129	0x3ef713cb	0.48257288
130	0x3e1d37a1	0.15353252
131	0xbeaa7235	-0.33290258
132	0x3ea410a9	0.3204396
133	0xbdb3b717	-0.08775156
134	0xbcfe801e	-0.03106695
135	0x3d7e4cbe	0.062084906
136	0xbea72d00	-0.3265152
137	0x3de7aa7f	0.113118164
138	0xbec2d619	-0.3805397
139	0x3e67ad42	0.22624686
140	0x3e8d2863	0.27569875
141	0xbe46eacb	-0.19425504
142	0x3d9c9fbf	0.07647657
143	0x3d74257b	0.059606057
144	0x3ea797a2	0.32732874
145	0xbe6af832	-0.22946241
146	0x3e60e21a	0.21961251
147	0xbe8b8657	-0.2725093
148	0xbe1121e8	-0.1417309
149	0x3ca5ae7c	0.020224802
150	0x3e811777	0.25213215
151	0xbcdd3d48	-0.02700676
152	0xbe6e3f61	-0.23266365
153	0xbe3adc27	-0.18248044
154	0xbe99595a	-0.29950982
155	0xbd808d8c	-0.06276998
156	0xbdd7c2d7	-0.105352096
157	0x3eb77230	0.35829306
158	0xbd6b4bcd	-0.057445336
159	0xbea5037c	-0.3222922
160	0x3e61012e	0.21973106
161	0xbd335cf7	-0.04378983
162	0xbddfce9d	-0.1092808
163	0xbe0a8796	-0.13528284
164	0x3e2551a3	0.16144423
165	0x3e0bb642	0.13643745
166	0x3bc90983	0.006135167
167	0x3ea6bc7a	0.3256567
168	0xbe403826	-0.18771419
169	0xbd80bcf9	-0.06286044
170	0xbe32e823	-0.17471366
171	0x3e97570e	0.29558605
172	0xbeaffdb8	-0.3437326
173	0xbeaf10b7	-0.3419244
174	0x3e84f096	0.25964803
175	0xbc245f86	-0.01003254
176	0xbe384537	-0.17995153
177	0xbe6b44b2	-0.22975424
178	0x3e047fbe	0.12939355
179	0xbe1c3b2b	-0.15256946
180	0x3e38e435	0.18055804
181	0xbe7079f9	-0.23484029
182	0xbd23acc1	-0.039959673
183	0x3e9c146f	0.3048434
184	0x3e30872c	0.17239064
185	0xbec52816	-0.38507146
186	0xbe44103e	-0.19146821
187	0xbd85f1e9	-0.06540281
188	0x3d89a309	0.067205496
189	0x3ccefa09	0.02526571
190	0x3e1c944b	0.15290944
191	0xbdfc58e1	-0.1232164
192	0x3e00a5d0	0.12563252
193	0x3e5d8a6c	0.21634835
194	0x3eae2072	0.3400913
195	0x3ccb7d18	0.024839923
196	0xbc7abc57	-0.015303693
197	0x3e9ee0f0	0.3103099
198	0x3ebf016d	0.37305775
199	0x3d2ff6c1	0.042959932
200	0xbeb7dcc3	-0.35910615
201	0x3e755fe8	0.23962367
202	0xbdec9dd7	-0.11553543
203	0xbc6c8021	-0.014434845
204	0x3e9693ec	0.2940973
205	0x3eac1e6d	0.33616963
206	0x3d90d766	0.07072334
207	0x3e6df503	0.23237996
208	0x3e54c239	0.20777215
209	0xbd50e32a	-0.05099789
210	0xbdbac12c	-0.09118876
211	0xbd4ae54c	-0.04953508
212	0x3dc913b7	0.098182134
213	0xbe343b44	-0.17600733
214	0xbe381be4	-0.1797939
215	0x3d442f86	0.047896884
216	0xbe047d32	-0.12938383
217	0x3e748c90	0.23881745
218	0x3dc9b93f	0.09849786
219	0x3d7545e1	0.059881095
220	0xbe03568f	-0.12825988
221	0xbe9cef44	-0.30651295
222	0xbe49a4fe	-0.19691846
223	0x3dcbf4d8	0.099588096
224	0xbe47857b	-0.19484513
225	0xbe88dd9a	-0.2673157
226	0xbe3a4044	-0.18188578
227	0xbe39c472	-0.18141344
228	0x3e566eeb	0.2094075
229	0x3e87aaf7	0.26497623
230	0xbc588d94	-0.013217349
231	0x3e606570	0.21913695
232	0xbdeda73c	-0.11604163
233	0x3e3970a2	0.18109372
234	0x3dd07752	0.101790085
235	0xbe3c2787	-0.18374453
236	0x3ea90ec9	0.33019093
237	0x3e863137	0.26209423
238	0x3dff8b65	0.12477759
239	0x3ea81787	0.3283045
240	0x3e34ab7f	0.17643546
241	0x3e2cf67f	0.16890906
242	0x3d548a45	0.051889677
243	0xbe133318	-0.1437496
244	0x3e19581c	0.14975017
245	0x3d02df0c	0.031950995
246	0x3d2b9ac3	0.04189564
247	0x3e1e39ae	0.1545169
248	0xbebdb963	-0.370555
249	0x3da44484	0.08020881
250	0xbeb4dfcd	-0.35326996
251	0xbe1a907f	-0.15094183
252	0x3e7af6e2	0.24508241
253	0x3ea71f0d	0.32640877
254	0x3eab8a1c	0.33503807
255	0xbe7e6a64	-0.24845272

stage.0.pw.weight f4 [48, 48, 1, 1]
0	0x3e272952	0.16324356
1	0xbdff7c58	-0.124748886
2	0xbca0f842	-0.019649629
3	0xbe91860a	-0.28422576
4	0xbd9c5dd9	-0.076350875
5	0x3db11819	0.086471744
6	0x3e7fe331	0.2498901
7	0xbcb5f4a7	-0.022211386
8	0x3deaeb6e	0.11470686
9	0xbe821770	-0.25408506
10	0xbdd2db8d	-0.10295782
11	0x3c87811f	0.016541062
12	0xbe28eed0	-0.1649735
13	0xbe2de86c	-0.16983193
14	0xbe26ee5f	-0.16301869
15	0xbce079e4	-0.027401872
16	0xba5f3b38	-0.0008515599
17	0x3dcbd11e	0.09951995
18	0xbcc8334e	-0.024438526
19	0xbe6273c7	-0.22114478
20	0xbe4f906f	-0.20269941
21	0x3ce6d522	0.028177802
22	0x3cd50d0b	0.026007196
23	0xbda5af81	-0.08090115
24	0x3ebbda54	0.3669001
25	0xbd45da7a	-0.04830406
26	0x3d825995	0.06364743
27	0x3d5e722e	0.05430811
28	0x3e97c422	0.29641825
29	0xbe63b8e0	-0.22238493
30	0x3d53a625	0.05167212
31	0x3e0a8f5a	0.13531247
32	0xbda86719	-0.08222789
33	0x3ce86151	0.028366717
34	0xbd970271	-0.073735125
35	0x3dea9601	0.11454392
36	0xbe253d26	-0.16136608
37	0xbdb5c005	-0.088745154
38	0xbe89b225	-0.26893726
39	0x3d863817	0.06553667
40	0x3e3ce5ec	0.18447083
41	0x3e0fe335	0.14051516
42	0x3d8a230e	0.067449674
43	0xbe0ac864	-0.13553005
44	0x3deecab3	0.116597556
45	0xbdd70fcd	-0.10501061
46	0x3df53945	0.11973814
47	0xbe746c21	-0.23869373
48	0x3d38a688	0.04508069
49	0x3e47966e	0.19490978
50	0x3db524be	0.08844899
51	0xbd2932ae	-0.041308098
52	0xbee5b812	-0.44866997
53	0x3ec2f8ab	0.38080344
54	0x3e27e6fd	0.16396709
55	0x3baa2e10	0.0051934794
56	0x3d82c920	0.06386018
57	0x3d126e55	0.035749752
58	0x3e208c80	0.15678596
59	0xbe9dbce2	-0.3080817
60	0x3bdb7858	0.0066976957
61	0x3e981c04	0.29708874
62	0xbe7c6198	-0.24646604
63	0xbd0b8436	-0.034061633
64	0x3ea4563b	0.3209704
65	0xbd9d9959	-0.07695264
66	0xbe3cadd9	-0.18425693
67	0x3dc11a3d	0.09428833
68	0xbe89e85d	-0.26935092
69	0xbe413510	-0.18867898
70	0xbecf3b8d	-0.4047512
71	0x3e6eff0e	0.23339483
72	0xbd1b3c44	-0.03789927
73	0x3e1907e3	0.14944415
74	0x3de38b53	0.11110558
75	0xbc59446e	-0.013260944
76	0xbe2b2fc5	-0.16717441
77	0xbe5d4d58	-0.21611536
78	0x3e905bdc	0.28195083
79	0xbd3ff163	-0.046861064
80	0xbe1d918d	-0.15387554
81	0x3eaf7051	0.34265378
82	0x3d701679	0.05861518
83	0xbd598c17	-0.053112116
84	0x3e96ec73	0.2947727
85	0xbd6f3342	-0.058398493
86	0x3cb8be5e	0.022551712
87	0x3e3d0e0a	0.18462387
88	0xbe0ec201	-0.13941194
89	0xbe57d332	-0.21076658
90	0xbd75ec7d	-0.060039986
91	0x3dcc22bb	0.09967562
92	0xbe8349a8	-0.25642133
93	0xbccda965	-0.025105188
94	0xbda6275c	-0.08112976
95	0x3e4a9a5e	0.19785449
96	0x3df3a870	0.11897361
97	0xbe553ba4	-0.20823532
98	0xbe2a8306	-0.16651544
99	0x3e6e8c80	0.23295784
100	0xbe2102f3	-0.15723781
101	0xbeb7ecca	-0.35922843
102	0xbdeb85fd	-0.115001656
103	0xbdbeb96a	-0.09312709
104	0x3dad7019	0.084686466
105	0x3de2dd8e	0.110774145
106	0x3dd3b8d5	0.10337988
107	0x3d8c1890	0.068406224
108	0x3db38748	0.08766037
109	0x3d0f2c4c	0.034954354
110	0xbb233f7e	-0.002490967
111	0xbcb16c6e	-0.021658149
112	0xbdd0aa6a	-0.10188754
113	0xbe17a010	-0.14807153
114	0x3d2d6e7b	0.04234169
115	0x3e4523a4	0.19251877
116	0x3e1e8003	0.1547852
117	0x3dc239d7	0.09483688
118	0xbe2a959c	-0.16658634
119	0xbe53070c	-0.20608157
120	0x3e887272	0.26649815
121	0x3d037de6	0.032102488
122	0x3e3b9699	0.18319167
123	0x3c5b6c3e	0.013392506
124	0x3e179676	0.1480349
125	0x3e021403	0.12702946
126	0x3de2c541	0.110727794
127	0xbe2294a2	-0.15877011
128	0xbe8287bb	-0.2549418
129	0x3e141661	0.14461662
130	0x3d3dd23c	0.046343073
131	0xbeaa2bca	-0.33236533
132	0x3d57cd55	0.052686054
133	0xbe0a6f57	-0.13519035
134	0x3c1a6dbf	0.00942558
135	0xbe3d5e45	-0.18492992
136	0x3e48b270	0.19599319
137	0xbe033d5b	-0.12816374
138	0xba0cb19e	-0.0005367043
139	0x3d6a8f40	0.05726552
140	0xbe2ab78c	-0.1667158
141	0x3dd30983	0.103045486
142	0xbbb87073	-0.0056286394
143	0xbd7d5aee	-0.061854295
144	0x3ceeecc1	0.029165627
145	0xbddde52b	-0.10834726
146	0x3d0dc78a	0.034614123
147	0x3d64803b	0.055786353
148	0xbdf28155	-0.118410744
149	0x3e0e958f	0.1392424
150	0xbe87049d	-0.26370707
151	0xbe00dd81	-0.12584497
152	0x3b04644e	0.0020201388
153	0xbdcf737a	-0.10129447
154	0x3d8655c5	0.06559328
155	0xbc67fba6	-0.014159119
156	0x3e548e51	0.20757414
157	0x3e4f0fef	0.20220922
158	0xbd636b96	-0.055522524
159	0xbcf61f34	-0.030044176
160	0xbdb9a0cf	-0.09063875
161	0xbdf92b19	-0.12166423
162	0xbe0abcb2	-0.13548544
163	0xbc9bcb88	-0.01901795
164	0xbe8afd2d	-0.27146283
165	0x3da1e063	0.079041265
166	0x3e04fb25	0.12986429
167	0xbbfe21d2	-0.0077554965
168	0x3bbcc290	0.0057604983
169	0xbd7eeba7	-0.062236454
170	0xbc3a846c	-0.011384111
171	0xbd0fdd59	-0.035123203
172	0xbe0daf41	-0.13836385
173	0x3e2e8b62	0.17045358
174	0x3dfffd88	0.12499529
175	0x3e0fe16b	0.14050834
176	0xbd438372	-0.047732778
177	0x3dfcd6e3	0.12345674
178	0xbcff3831	-0.031154724
179	0xbd858675	-0.06519786
180	0xbe658593	-0.22414236
181	0x3c98428f	0.018586425
182	0x3e3fafb7	0.18719374
183	0x3e9d914f	0.30774924
184	0xbdf87223	-0.12131145
185	0xbd2b826b	-0.041872423
186	0x3d77e0a3	0.060516965
187	0x3e0f2d20	0.13982058
188	0x3e4cc8ea	0.19998518
189	0xbdfc820f	-0.12329494
190	0xbd16e86d	-0.036842752
191	0x3c48e7f7	0.012262336
192	0xbd9af5ff	-0.07566451
193	0x3e6c30cf	0.23065494
194	0xbc75960c	-0.014989387
195	0xbd688089	-0.056763206
196	0x3e00c64c	0.12575644
197	0x3ed75b72	0.42061955
198	0x3ef8e85a	0.4861477
199	0x3e73f313	0.23823194
200	0x3e04def7	0.1297568
201	0x3cf8ca4b	0.030369898
202	0xbed48a0d	-0.41511574
203	0xbe01f6e3	-0.12691836
204	0x3eca0908	0.39460015
205	0xbe82eae7	-0.2556984
206	0xbe08f430	-0.133744
207	0x3e23724c	0.1596157
208	0x3e541736	0.2071198
209	0xbe0042a1	-0.12525417
210	0x3e27a5a5	0.16371782
211	0x3e9bd8d1	0.30438855
212	0x3e935962	0.2877913
213	0x3e00cda8	0.12578452
214	0x3e20a557	0.15688072
215	0x3eb358fc	0.35028827
216	0x3d8f2c32	0.069908515
217	0x3d64e0b6	0.055878364
218	0xbde67b91	-0.11254037
219	0x3ec6292f	0.38703296
220	0x3c425cbd	0.011862931
221	0x3d32232f	0.043490585
222	0x3d3e81ea	0.046510614
223	0xbe206391	-0.15662982
224	0x3c83b384	0.01607681
225	0xbd48c446	-0.049015306
226	0x3cd21c35	0.025648216
227	0x3ce6c8e8	0.028171971
228	0x3e6a9226	0.22907314
229	0xbe69efb8	-0.22845352
230	0x3cc30051	0.023803862
231	0x3d118637	0.035528388
232	0x3e33c737	0.17556463
233	0xbdf3e96e	-0.119097576
234	0xbec76de6	-0.38951033
235	0xbebb88e6	-0.36627883
236	0xbe89dff0	-0.26928663
237	0x3edf93f9	0.43667582
238	0xbd9b5e11	-0.07586301
239	0x3cb4b2ab	0.022057852
240	0x3db54b27	0.08852225
241	0x3e1905e7	0.14943658
242	0x3c0f266f	0.008737191
243	0xbe8f4999	-0.27985838
244	0xbd4dd2ed	-0.050249983
245	0x3e56095f	0.20902012
246	0x3e9166ef	0.28398845
247	0x3e1ec540	0.15504932
248	0xbdd80c4b	-0.1054922
249	0xbd9ebf9c	-0.0775139
250	0x3eb491b2	0.35267407
251	0x3d9a02bf	0.07520055
252	0x3cfe1b8e	0.031018998
253	0xbe1c0c2d	-0.1523902
254	0xbe7f3ac3	-0.2492476
255	0xbd781681	-0.060568336

stage.0.bn.weight f4 [48]
0	0x3f6f542f	0.9348783
1	0x3f7b2c46	0.9811443
2	0x3f676d30	0.9040098
3	0x3f4d6b4f	0.80241865
4	0x3fa5efa8	1.2963762
5	0x3f52c424	0.82330537
6	0x3f18e348	0.59721804
7	0x3f6b05e1	0.91805845
8	0x3f8141ee	1.0098245
9	0x3f8c3716	1.0954311
10	0x3f82ae3e	1.0209424
11	0x3f68ff0c	0.9101417
12	0x3f7db5c4	0.9910548
13	0x3f529193	0.8225338
14	0x3f50ccad	0.8156231
15	0x3f6852a0	0.90751076
16	0x3f8cbc7f	1.0995024
17	0x3f321d96	0.69576395
18	0x3f615dca	0.88033736
19	0x3f69e547	0.91365474
20	0x3f257d7a	0.6464459
21	0x3f8fe42a	1.1241505
22	0x3f27ea8f	0.65592283
23	0x3f18ac71	0.59638125
24	0x3f674b24	0.9034903
25	0x3f642a7e	0.8912734
26	0x3f73ac82	0.951851
27	0x3f5ffc57	0.87494415
28	0x3f88edaf	1.0697535
29	0x3f494f2b	0.78636426
30	0x3f846901	1.0344545
31	0x3f691778	0.91051435
32	0x3f25fb16	0.6483625
33	0x3f250c90	0.64472294
34	0x3fa67ce1	1.300686
35	0x3f7cb202	0.9870912
36	0x3f40684e	0.75159156
37	0x3f566414	0.8374646
38	0x3f659142	0.8967477
39	0x3f478ee9	0.7795244
40	0x3f455c3e	0.77093875
41	0x3f587c7b	0.8456494
42	0x3f73ffea	0.9531237
43	0x3f7d469e	0.9893588
44	0x3f8fc896	1.1233089
45	0x3f45280c	0.7701423
46	0x3f3be2b5	0.733928
47	0x3f5806d1	0.843854

stage.0.bn.bias f4 [48]
0	0x3de1aaaa	0.1101888
1	0x3e50a7b1	0.20376469
2	0xbdaf5cef	-0.085626476
3	0xbe4de6fa	-0.20107642
4	0x3f0e22a4	0.5552161
5	0xbe923c5d	-0.2856168
6	0xbe5c27b3	-0.21499519
7	0xbca3122f	-0.019906132
8	0x3e446e0a	0.19182602
9	0x3da48509	0.08033187
10	0xbe922bd1	-0.28549054
11	0xbf1b952f	-0.6077451
12	0x3dac9ae7	0.08427983
13	0xbe3b172c	-0.18270558
14	0xbdf84dfb	-0.121242486
15	0xbf01e4b3	-0.5073959
16	0xbd30f1ea	-0.043199457
17	0xbe33dad9	-0.17563953
18	0x3e35718e	0.17719099
19	0xbeb43dea	-0.35203487
20	0xbea371f4	-0.31922877
21	0x3e70ee15	0.23528321
22	0xbe54fbab	-0.20799129
23	0xbecff0a7	-0.4061329
24	0x3eb8a9f9	0.3606718
25	0xbdfb1edb	-0.122617446
26	0xbdf793e1	-0.120887525
27	0xbeab9a71	-0.33516267
28	0x3e314978	0.17313182
29	0xbee80358	-0.4531505
30	0xbdeed0c4	-0.11660913
31	0xbd0abb96	-0.033870302
32	0xbd924736	-0.07142489
33	0xbdbbbb5f	-0.091665976
34	0x3ed84642	0.42241102
35	0xbddb5721	-0.10709978
36	0xbe3fbb65	-0.18723829
37	0xbe51e060	-0.20495749
38	0xbe812000	-0.25219727
39	0xbeaadec4	-0.33373082
40	0xbeaa92a3	-0.33315
41	0x3df1778e	0.11790381
42	0x3decc6b5	0.11561338
43	0xbdf01c9f	-0.11724209
44	0x3f0e5059	0.5559135
45	0xbe013bfd	-0.1262054
46	0xbe607579	-0.21919812
47	0x3dad251e	0.08454345

stage.0.bn.running_mean f4 [48]
0	0x3d347b35	0.044062812
1	0xbe7849b8	-0.24246871
2	0xbe95e091	-0.29272893
3	0xbd8cbb83	-0.068717025
4	0x3cbc370e	0.02297547
5	0xbe2909d5	-0.16507657
6	0xbe4d5048	-0.20050156
7	0xbeb6a228	-0.3567059
8	0xbd70ab36	-0.05875703
9	0xbe81841e	-0.2529611
10	0x3e66a0fc	0.22522348
11	0x3e6ecade	0.23319575
12	0xbdf2c3d1	-0.11853755
13	0xbf10d023	-0.5656759
14	0xbe4560da	-0.19275227
15	0x3da9d099	0.0829174
16	0x3cedb074	0.029014803
17	0xbe1cce43	-0.15313058
18	0xbd648e47	-0.05579975
19	0x3df2e34d	0.118597604
20	0xbe871735	-0.26384893
21	0xbdcbb116	-0.09945886
22	0xbe4988b0	-0.19681048
23	0x3e9009cb	0.2813247
24	0xbc9ab362	-0.018884365
25	0xbec0ef88	-0.37682748
26	0xbe606cc9	-0.21916498
27	0x3e61ea84	0.22062117
28	0xbc84727e	-0.016167875
29	0x3e5dfa15	0.2167743
30	0xbd97a1f3	-0.07403936
31	0xbe36af02	-0.17840198
32	0xbe9d9f9d	-0.30785838
33	0xbe984b3d	-0.29744902
34	0xbd6c3ea6	-0.057676934
35	0x3d9bf103	0.07614329
36	0xbe8c01a6	-0.27345008
37	0xbbaff6c5	-0.0053699934
38	0x3d8958b8	0.06706375
39	0xbcf1f58c	-0.029536031
40	0x3ec6e2c2	0.38844877
41	0x3da442e9	0.080205746
42	0xbeb76e8f	-0.35826537
43	0xbda2157f	-0.07914256
44	0xbdf3682a	-0.11885102
45	0xbe8b1b90	-0.27169466
46	0xbed29892	-0.41132027
47	0xbeb883d9	-0.36038092

stage.0.bn.running_var f4 [48]
0	0x3e8dfc11	0.27731374
1	0x3e6ad66c	0.22933358
2	0x3db4c79e	0.088271365
3	0x3f0b6c5b	0.5446221
4	0x3e39e4ca	0.18153682
5	0x3d791988	0.060815364
6	0x3f943deb	1.1581396
7	0x3ee064b4	0.4382683
8	0x3dd8b0da	0.10580607
9	0x3e80bb70	0.25143003
10	0x3e8bb9be	0.27290148
11	0x3e9dee84	0.30846035
12	0x3f0e5189	0.5559316
13	0x3fcf01ce	1.6172426
14	0x3f09f37b	0.53887147
15	0x3e566d3c	0.20940107
16	0x3f08f91c	0.5350511
17	0x3f47f40c	0.7810676
18	0x3ee1d544	0.4410802
19	0x3e6a007a	0.22851744
20	0x3f58928d	0.8459862
21	0x3e042076	0.12903008
22	0x3f599ad0	0.8500185
23	0x3e8cd2dc	0.27504623
24	0x3e3aa4dd	0.18226953
25	0x3f31167e	0.69174945
26	0x3df7f2cc	0.12106857
27	0x3eef9f08	0.4680102
28	0x3e1a8224	0.15088707
29	0x3e7846ce	0.2424576
30	0x3d726fa5	0.059188504
31	0x3e948b70	0.29012632
32	0x3f7a2f79	0.9772869
33	0x3f9b4e95	1.2133356
34	0x3dd19b32	0.10234679
35	0x3e97f922	0.2968226
36	0x3e9117aa	0.28338367
37	0x3da37032	0.07980384
38	0x3db93b9b	0.09044572
39	0x3e4d6987	0.20059787
40	0x3e3ad5ee	0.1824567
41	0x3e108f96	0.14117274
42	0x3eac1bb3	0.33614883
43	0x3ea44757	0.32085678
44	0x3e404665	0.18776853
45	0x3f3c27b9	0.7349811
46	0x3ef1646f	0.47146937
47	0x3f7b3378	0.9812541

stage.1.dw.weight f4 [48, 1, 3, 3]
0	0xbe922491	-0.28543523
1	0xbed252c4	-0.4107877
2	0x3e776224	0.24158531
3	0xbe147536	-0.14497837
4	0xbe6a35b7	-0.22872053
5	0xbe72474d	-0.23660012
6	0x3e564c34	0.20927507
7	0x3e4147d8	0.18875062
8	0x3c074a90	0.008257523
9	0xbe4b46e1	-0.19851257
10	0xbe637546	-0.22212705
11	0x3dbbdc3d	0.091728665
12	0xbe0a0595	-0.13478692
13	0x3e86d204	0.26332104
14	0xbed4eb9d	-0.4158601
15	0x3ed0a9ec	0.4075464
16	0x3e8f5ad2	0.27998978
17	0xbe03cb2f	-0.12870477
18	0x3e90185a	0.2814358
19	0xbe7b93f8	-0.24568164
20	0x3c91a038	0.017776594
21	0xbc9c85f7	-0.019106848
22	0x3d52f856	0.051506363
23	0xbe7d0c83	-0.24711804
24	0x3d6cc166	0.057801627
25	0xbdef3448	-0.11679894
26	0xbe9c2a04	-0.30500805
27	0x3bdab235	0.006674076
28	0x3e97fc8e	0.2968487
29	0xbea230b6	-0.31677788
30	0x3e995597	0.29948112
31	0x3e2a4797	0.16628872
32	0xbe0ade69	-0.13561405
33	0xbe4e63e7	-0.20155297
34	0x3dba8d58	0.091089904
35	0x3dede7bb	0.11616465
36	0x3edd8616	0.43266362
37	0xbdfde663	-0.123974584
38	0x3e4e9246	0.20172986
39	0x3e3e880a	0.18606582
40	0xbe597df3	-0.21239452
41	0x3db7b0f2	0.089692965
42	0xbe3ec5ab	-0.18630092
43	0xbe42e9a7	-0.19034444
44	0xbedf9a1f	-0.43672273
45	0xbe0fec6d	-0.14055033
46	0xbcedaa61	-0.029011907
47	0xbdb49742	-0.08817913
48	0xbd82a2fe	-0.063787445
49	0xbcb0dd2a	-0.021589834
50	0x3e50e0bb	0.20398228
51	0x3da064ff	0.078317635
52	0xbe336c3d	-0.17521758
53	0xbe97d971	-0.29658082
54	0xbeaf59ab	-0.342481
55	0xbd9170a0	-0.0710156
56	0x3bc48647	0.0059974524
57	0xbe2f1243	-0.1709681
58	0xbed2fca6	-0.4120838
59	0xbe943d38	-0.28952956
60	0xbe76dea2	-0.24108365
61	0xbdbec208	-0.09314352
62	0xbeae9374	-0.34096873
63	0x3cd8476e	0.026401248
64	0x3e995e3b	0.29954705
65	0x3d31cac4	0.043406263
66	0x3cbf8665	0.023379514
67	0x3d56d579	0.052449677
68	0x3eefab0f	0.46810195
69	0x3da2b7d5	0.079452194
70	0x3e9efe61	0.3105345
71	0xbdec24bb	-0.11530443
72	0x3eab0f91	0.33410314
73	0x3eba64de	0.3640508
74	0xbe006120	-0.1253705
75	0xbbffdd4d	-0.0078083635
76	0xbd94a1f6	-0.07257454
77	0x3e4d93f0	0.20075965
78	0xbee3ed82	-0.44517142
79	0xbe49d8aa	-0.19711557
80	0xbdd1a1a5	-0.102359094
81	0xbcce5ceb	-0.025190791
82	0xbea082fe	-0.3134994
83	0x3f093488	0.5359578
84	0xbd890b35	-0.06691591
85	0xbcd22963	-0.0256545
86	0x3ea4effa	0.32214338
87	0xbe9f3c38	-0.3110063
88	0x3dc785bf	0.09742307
89	0xbdbfbd27	-0.0936225
90	0x3caf80df	0.021423755
91	0xbdbe4bb1	-0.09291781
92	0xbead9420	-0.33902073
93	0x3e9b3037	0.30310223
94	0xbe199cac	-0.15001172
95	0xbedc098e	-0.4297604
96	0x3e454ab3	0.19266777
97	0x3e8ccf5c	0.27501953
98	0xbea9bf32	-0.33153683
99	0x3d85dab6	0.065358564
100	0x3e276907	0.16348659
101	0x3ea0d118	0.31409526
102	0x3eb8030e	0.3593983
103	0x3e41c428	0.18922484
104	0xbe2b1eb4	-0.16710931
105	0x3dc31ecf	0.09527361
106	0x3d1fff2e	0.039061718
107	0xbd14e440	-0.03635049
108	0xbe985ba4	-0.29757416
109	0xbb1cf80d	-0.002395156
110	0x3eda6dee	0.42661995
111	0xbe6e036e	-0.23243496
112	0x3dd61d1c	0.10454771
113	0xbc0b5915	-0.0085051255
114	0xbd71c1bf	-0.05902266
115	0x3e1fed44	0.15617853
116	0x3e9b6065	0.3034698
117	0x3c0a85a5	0.008454715
118	0xbe358466	-0.17726287
119	0xbdb46083	-0.08807471
120	0xbebc736c	-0.3680681
121	0x3db55e00	0.0885582
122	0xbe766a18	-0.24063909
123	0xbed300c7	-0.4121153
124	0x3d02d9d5	0.031946022
125	0xbe9ff6ea	-0.31243068
126	0xbe42a6a7	-0.19008885
127	0x3ee048f2	0.43805653
128	0x3e42aa48	0.1901027
129	0x3ea3cd29	0.31992462
130	0x3e83cc5e	0.25741857
131	0x3c4f1504	0.012639288
132	0x3ea2782e	0.31732315
133	0x3dcc1259	0.09964437
134	0x3d080fbe	0.033218138
135	0xbec32777	-0.38116047
136	0x3e3b8f71	0.18316437
137	0xbe9c117d	-0.30482092
138	0xbe98f623	-0.29875287
139	0xbe9f9aa9	-0.31172684
140	0xbcd2658e	-0.02568319
141	0xbe1314db	-0.14363424
142	0x3de77685	0.11301903
143	0x3d867c42	0.06566669
144	0xbf04752f	-0.5174131
145	0x3e48a50f	0.19594215
146	0xbe104adf	-0.14091061
147	0x3d8a6b5d	0.06758759
148	0xbe98917d	-0.297985
149	0x3e84cc94	0.2593733
150	0xbe3274aa	-0.17427316
151	0x3d08a315	0.033358652
152	0x3e9d4730	0.30718374
153	0xbe09e7b4	-0.13467294
154	0x3ea8a80f	0.3294072
155	0x3e943a81	0.28950885
156	0x3cb284ab	0.021791777
157	0x3e83ffcb	0.25781092
158	0x3e87a081	0.26489642
159	0xbdb8256b	-0.08991512
160	0x3eaf109b	0.34192356
161	0xbd889a50	-0.06670058
162	0x3e084502	0.13307574
163	0xbe355999	-0.1770996
164	0xbcc9f086	-0.024650823
165	0xbec2e3ec	-0.38064516
166	0xbe937226	-0.28798026
167	0xbe6bb1d5	-0.23017056
168	0x3d5bf041	0.05369592
169	0x3e5af179	0.21381177
170	0x3e87c4bb	0.2651728
171	0xbcea026f	-0.028565614
172	0xbe919d69	-0.28440407
173	0xbe0e25c3	-0.13881592
174	0xbe401fa9	-0.18762077
175	0xbe9b0d51	-0.30283597
176	0x3d86252f	0.06550061
177	0x3d550c51	0.0520137
178	0xbe06c526	-0.13161144
179	0x3d487365	0.048938174
180	0xbe0082a5	-0.12549837
181	0xbe3c01c9	-0.18360056
182	0x3d861912	0.065477505
183	0xbeb6fb20	-0.35738468
184	0xbe93a690	-0.28838015
185	0xbebd435e	-0.3696546
186	0xbcc0e268	-0.023545459
187	0x3d8b1dad	0.067927696
188	0x3e0e9b1c	0.13926357
189	0x3ea5e404	0.32400525
190	0x3ec58645	0.38579002
191	0x3db78f62	0.08962895
192	0xbe1c67bc	-0.15273947
193	0xbda292e2	-0.07938172
194	0x3c523cf1	0.012831912
195	0xbea167d3	-0.31524524
196	0xbdcf2395	-0.101142086
197	0xbd6fa083	-0.058502685
198	0x3de7ec58	0.11324376
199	0x3ea43934	0.32074893
200	0xbdf1777d	-0.11790369
201	0x3e7183b1	0.23585393
202	0x3ebbbeff	0.36669156
203	0x3dde8f4f	0.10867178
204	0x3e477709	0.19479002
205	0xbd9b060a	-0.07569511
206	0x3ea6574f	0.32488486
207	0x3ea00e86	0.3126108
208	0x3d498360	0.049197555
209	0x3e6c7f2a	0.23095384
210	0x3c5eeb29	0.013605871
211	0x3ee35571	0.44401124
212	0x3ebf7a57	0.37398025
213	0xbe4514de	-0.19246241
214	0x3d78b809	0.060722385
215	0xbdbde606	-0.09272389
216	0x3dc26ef4	0.09493819
217	0xbeb798c9	-0.35858753
218	0x3e70ce78	0.23516262
219	0xbe61778a	-0.22018257
220	0x3db9a3ac	0.09064421
221	0x3ee6e6c2	0.4509793
222	0xbe6d122a	-0.2315146
223	0xbe12e7e8	-0.14346278
224	0x3ed7f35d	0.4217786
225	0x3eb2cbd4	0.34921134
226	0xbd8cb569	-0.06870539
227	0x3e39c7a6	0.18142566
228	0x3e98d6f5	0.298515
229	0x3d418896	0.0472494
230	0x3e77a8c8	0.24185479
231	0xbe4ce295	-0.20008309
232	0x3e9ad8ef	0.30243632
233	0xbe0228bc	-0.12710851
234	0x3e9a8d83	0.3018609
235	0xbceb6e60	-0.028739154
236	0x3d5c3189	0.053758178
237	0x3ea150ca	0.3150695
238	0xbe1ee29c	-0.15516132
239	0xbdcc37ab	-0.09971555
240	0xbe058811	-0.13040186
241	0x3e9faa31	0.31184533
242	0x3d17939e	0.037006013
243	0xbe3e1bab	-0.18565242
244	0x3dfe572d	0.12418971
245	0x3afae6bc	0.001914225
246	0x3e4206f3	0.18947963
247	0xbe9a4247	-0.3012869
248	0xbedcd38d	-0.4313015
249	0xbe69017d	-0.22754474
250	0x3e30e64b	0.1727535
251	0xbdbe3b9e	-0.09288715
252	0x3ecdf13c	0.4022311
253	0xbe9a6602	-0.3015595
254	0x3de545fb	0.11194988
255	0xbd6c9ebb	-0.057768565

stage.1.pw.weight f4 [72, 48, 1, 1]
0	0xbdf3cd30	-0.11904371
1	0xbdd1cce2	-0.102441564
2	0xbe1a7b88	-0.15086186
3	0xbd783384	-0.060596004
4	0xbd221bfe	-0.039577477
5	0x3dd67a4f	0.10472547
6	0x3e8f9a8c	0.28047597
7	0x3da60775	0.08106891
8	0x3e0d174e	0.13778421
9	0x3e9f3266	0.31093138
10	0x3c264126	0.010147369
11	0x3cc5431d	0.024079854
12	0x3ed2c707	0.4116747
13	0x3cba54cb	0.02274551
14	0xbe48a8f1	-0.19595696
15	0xbcfc5293	-0.030801093
16	0xbd7c90ab	-0.061661404
17	0xbe4e471b	-0.20144312
18	0x3ddee02a	0.108826
19	0x3cab1134	0.020882227
20	0xbde8a812	-0.11360182
21	0xbd29755b	-0.041371685
22	0x3bbf279c	0.005833579
23	0x3ca0bd09	0.019621389
24	0xbe064361	-0.1311164
25	0x3e169c9c	0.14708179
26	0x3e482f97	0.19549404
27	0x3c88c541	0.01669562
28	0x3cbfa6c5	0.023394952
29	0xbe310b76	-0.17289528
30	0x3cc537bc	0.024074428
31	0xbdcb053b	-0.09913107
32	0xbe6b93d4	-0.2300561
33	0xbe32d248	-0.17463028
34	0xbaba23de	-0.0014201363
35	0x3e95dd19	0.29270247
36	0xbd226324	-0.03964533
37	0xbe1d65ad	-0.15370817
38	0xbd517e14	-0.051145628
39	0x3e0fdc18	0.14048803
40	0xbd42d168	-0.047562987
41	0x3e238800	0.15969849
42	0xbd68ff3b	-0.05688403
43	0xbe06e8aa	-0.13174692
44	0xbe12a4f3	-0.14320736
45	0xbd82818f	-0.063723676
46	0xbdd8bbdd	-0.10582707
47	0xbd08ce30	-0.03339976
48	0x3c2ebbe4	0.010664914
49	0xbe18f4f3	-0.1493719
50	0xbe123ffb	-0.14282219
51	0x3daea3da	0.08527346
52	0x3e0908d0	0.13382268
53	0x3e6e0853	0.23245363
54	0x3ef47df6	0.4775235
55	0xbe46e8b7	-0.19424711
56	0x3d2febad	0.042949367
57	0x3db11e2f	0.08648335
58	0x3e5d9b09	0.21641172
59	0xbdb7476c	-0.089491695
60	0x3df9a8bc	0.12190387
61	0x3dab8a06	0.08375935
62	0xbe9afd92	-0.30271584
63	0x3da35beb	0.07976516
64	0xbc5a0df7	-0.013308994
65	0xbeb4455a	-0.3520916
66	0x3e43b5bd	0.19112296
67	0xbdac28ef	-0.08406245
68	0x3e1acd4e	0.1511738
69	0xbec9945e	-0.39371008
70	0xbe946b8c	-0.28988302
71	0xbd88eecf	-0.06686174
72	0xbe3af4e8	-0.18257487
73	0xbdc554a6	-0.09635286
74	0xbccc6775	-0.024951676
75	0x3ddce977	0.107867174
76	0xbd26eae8	-0.040751368
77	0x3dbde6f3	0.09272566
78	0x3e9591ed	0.29212895
79	0x3c947685	0.01812292
80	0xbe1a1275	-0.15046103
81	0x3d4e68b8	0.050392836
82	0xbe1b623c	-0.15174192
83	0xbe2ce043	-0.16882424
84	0x3b078325	0.0020677533
85	0xbd966927	-0.07344275
86	0xbe3cd6e1	-0.18441345
87	0xbdaf7540	-0.085672855
88	0x3dd57d24	0.10424259
89	0x3d79ebd8	0.061015934
90	0x3bf7dfba	0.007564512
91	0xbda4cbe7	-0.08046704
92	0x3b975edd	0.004619463
93	0xbe0dc033	-0.1384285
94	0x3e44f5f7	0.19234453
95	0xbe5c820b	-0.21533982
96	0x3df0cc78	0.11757749
97	0x3de6fde4	0.112788945
98	0xbe83a4f4	-0.25711787
99	0x3e27aa06	0.16373453
100	0xbe56ad73	-0.20964603
101	0xbcc69a89	-0.02424361
102	0xbe6a83de	-0.22901866
103	0x3e1512a8	0.14557898
104	0x3d54d320	0.051959157
105	0xbec974ac	-0.39346826
106	0xbd9b2eef	-0.07577311
107	0x3e72e1cb	0.23718946
108	0xbe3bb149	-0.18329348
109	0xbdc737a6	-0.09727411
110	0x3e2dcddc	0.1697306
111	0xbd968602	-0.07349779
112	0xbdbf2760	-0.09333682
113	0x3f0271f1	0.5095511
114	0xbd81ca22	-0.06337382
115	0xbe7594f8	-0.23982608
116	0xbe1ca7f8	-0.1529845
117	0x3def908d	0.11697493
118	0x3e7246b7	0.23659788
119	0x3d540bb5	0.051768977
120	0x3c9fe9b9	0.019520627
121	0x3c8ccfe7	0.01718898
122	0xbc358f8f	-0.01108159
123	0xbe470998	-0.19437253
124	0x3e3c8775	0.18411048
125	0xbd11b270	-0.035570562
126	0x3c0ed55b	0.00871786
127	0xbe015438	-0.12629783
128	0x3d2421c1	0.040071253
129	0x3eab4dae	0.33457702
130	0xbd7a54b2	-0.061115928
131	0x3de378e8	0.111070454
132	0x3e8d1c5d	0.27560702
133	0xbe2c6063	-0.16833644
134	0xbde4d10b	-0.11172684
135	0xbcfd1df0	-0.030898064
136	0xbe0edc2f	-0.13951181
137	0xbe06cc86	-0.13163957
138	0x3daee133	0.08539047
139	0x3e4979f1	0.19675423
140	0xbdd7b303	-0.10532191
141	0x3d53c771	0.051703874
142	0xbd51266a	-0.051062025
143	0x3d9da945	0.07698301
144	0xbe7b2cd6	-0.24528822
145	0x3d90201d	0.07037375
146	0xbea3daed	-0.32002965
147	0xbbdb8664	-0.00669937
148	0xbe153b48	-0.14573395
149	0x3dfb1822	0.12260462
150	0x3e4ff8dd	0.20309778
151	0xbe5891da	-0.21149388
152	0xbda60645	-0.081066646
153	0x3d4c41f3	0.04986758
154	0xbe0c18a0	-0.13681269
155	0xbce36543	-0.027758246
156	0x3e554521	0.20827152
157	0x3e8e7af9	0.27828196
158	0xbd4468d1	-0.047951523
159	0xbddb3e2b	-0.10705217
160	0xbd5540ec	-0.052063867
161	0xbe274ff1	-0.16339089
162	0x3e9f06d1	0.31059888
163	0xbde01e9d	-0.10943339
164	0x3cb7364b	0.022364756
165	0xbe855a78	-0.26045585
166	0x3d1aa68d	0.03775649
167	0xbd7a8202	-0.06115914
168	0xbe14e627	-0.14540921
169	0xbd9bae51	-0.076016076
170	0x3e66bfd6	0.22534117
171	0xbd53f4cc	-0.05174713
172	0x3ca6b387	0.020349277
173	0xbd7ecd64	-0.062207595
174	0x3d0cb3cf	0.034351166
175	0xbd22823a	-0.039674975
176	0xbbcce035	-0.0062523135
177	0xbd8a60b9	-0.0675673
178	0xbe4b7308	-0.198681
179	0x3e4e93b3	0.2017353
180	0xbee80570	-0.45316648
181	0x3db5e3b8	0.088813245
182	0xbd50e436	-0.05099889
183	0xbce6bf51	-0.028167399
184	0x3eb00014	0.3437506
185	0x3e526317	0.20545612
186	0x3c281e94	0.010261197
187	0xbe853289	-0.26015118
188	0x3cc6e7c4	0.024280436
189	0x3db04ff7	0.08609002
190	0x3d44e295	0.048067648
191	0x3cafb85b	0.021450212
192	0x3eb62906	0.35578173
193	0x3cd2d2bd	0.025735253
194	0x3da60565	0.08106498
195	0x3db5b2bd	0.08871982
196	0x3c313017	0.010814688
197	0x3e342d65	0.17595442
198	0xbc99091d	-0.018681103
199	0xbd1a99f6	-0.037744485
200	0xbd437602	-0.047719963
201	0xbe134be9	-0.14384426
202	0x3e971a98	0.29512477
203	0xbdfb6c79	-0.12276549
204	0xbe3c1664	-0.18367916
205	0xbd937627	-0.0720027
206	0xbbddbd73	-0.006766969
207	0x3e032cfc	0.12810129
208	0xbc9480bc	-0.018127792
209	0x3c0328f2	0.008005368
210	0x3e301dfa	0.17198935
211	0x3cf306c8	0.02966632
212	0x3c214d9b	0.009845163
213	0x3c8a93f9	0.016916262
214	0xbc798340	-0.015229046
215	0xbe8d91da	-0.27650338
216	0xbd34ed46	-0.044171594
217	0xbda1677d	-0.07881067
218	0x3d7c76bd	0.061636675
219	0x3e156180	0.14587975
220	0xbe420fe2	-0.18951371
221	0x3eb080e7	0.34473345
222	0xbe418e66	-0.18901977
223	0x3d9c1561	0.07621265
224	0xbdd5c486	-0.104378745
225	0x3e89a228	0.26881528
226	0x3e4a85be	0.19777581
227	0xbe41d909	-0.18930449
228	0xbcf770b3	-0.030205106
229	0x3d260d62	0.040540107
230	0xbbd121ba	-0.0063821943
231	0x3dda4d7e	0.10659312
232	0x3e8d90e0	0.27649593
233	0xbc11029f	-0.008850723
234	0x3d136d15	0.0359927
235	0x3c9ee411	0.01939586
236	0x3d601486	0.054707073
237	0xbdb3f98d	-0.087878324
238	0xbe0ba37c	-0.13636583
239	0xbda185b0	-0.07886827
240	0x3d005398	0.03132972
241	0xbd1983b5	-0.03747912
242	0x3de9ae5f	0.11410212
243	0x3bc909b3	0.0061351894
244	0xbe22126a	-0.15827337
245	0xbdf8dcb5	-0.121514715
246	0xbe8fa161	-0.2805281
247	0xbb71a61d	-0.0036872693
248	0xbde8c250	-0.11365187
249	0xbe1ddd94	-0.15416557
250	0x3c87b467	0.016565515
251	0xbe5685fe	-0.20949551
252	0x3d41388b	0.047173064
253	0x3b3637ee	0.0027804333
254	0x3df11999	0.117724605
255	0xbd3417a5	-0.04396786

stage.1.bn.weight f4 [72]
0	0x3f7d2b70	0.98894405
1	0x3f8b9fb5	1.0908114
2	0x3f65d579	0.8977886
3	0x3f86b2a5	1.0523268
4	0x3f637800	0.8885498
5	0x3f8ca91c	1.0989108
6	0x3f834649	1.0255824
7	0x3f77917b	0.9670636
8	0x3f729cfb	0.94770783
9	0x3f7a03e8	0.9766221
10	0x3f859e95	1.043902
11	0x3f880776	1.0627277
12	0x3f87a5d7	1.0597485
13	0x3f7a8fd8	0.9787574
14	0x3f78840d	0.97076494
15	0x3f94490e	1.1584795
16	0x3f8143a3	1.0098766
17	0x3f8b3513	1.0875572
18	0x3f790250	0.97269154
19	0x3f889bc9	1.0672542
20	0x3f9b90b3	1.2153534
21	0x3f840db8	1.0316687
22	0x3f91cbd7	1.1390332
23	0x3f7a6bdf	0.9782085
24	0x3f876d72	1.0580275
25	0x3f8e3a7d	1.1111599
26	0x3f841ec8	1.0321894
27	0x3f8c0706	1.0939643
28	0x3f91580f	1.1354998
29	0x3f6a4e46	0.91525686
30	0x3f92b91e	1.1462743
31	0x3f9dd685	1.2331091
32	0x3f860516	1.0470302
33	0x3f65caa5	0.89762336
34	0x3f6e5cf3	0.9311058
35	0x3f72c017	0.94824356
36	0x3f832b22	1.0247538
37	0x3f863792	1.0485709
38	0x3f834148	1.0254297
39	0x3f6b8150	0.9199419
40	0x3f918c1c	1.1370883
41	0x3f8bb610	1.0914936
42	0x3f783e22	0.9696981
43	0x3f80a07a	1.0048974
44	0x3f8da0d1	1.1064702
45	0x3f717a4b	0.9432723
46	0x3f7e87b2	0.99425805
47	0x3f83266a	1.0246098
48	0x3f80adb2	1.0053008
49	0x3f7c5590	0.9856806
50	0x3f8427e8	1.0324678
51	0x3f8ac1ba	1.0840371
52	0x3f6de05d	0.92920476
53	0x3f824a23	1.0178875
54	0x3f746dcf	0.95480055
55	0x3f9113af	1.1334132
56	0x3f8b59f0	1.0886822
57	0x3f7452fb	0.9543912
58	0x3f938d7e	1.1527555
59	0x3f63bd07	0.8896031
60	0x3f6fbe1f	0.93649477
61	0x3f639542	0.88899624
62	0x3f848968	1.0354433
63	0x3f82fc8c	1.0233321
64	0x3f5ec4e2	0.8701917
65	0x3f70f4c7	0.941235
66	0x3f8860bc	1.0654521
67	0x3f6f0832	0.9337188
68	0x3f88db1e	1.0691869
69	0x3f89dbe1	1.0770227
70	0x3f873675	1.0563494
71	0x3f8c211f	1.0947608

stage.1.bn.bias f4 [72]
0	0xbe133df3	-0.143791
1	0x3e938a6e	0.2881655
2	0x3e181d01	0.14854814
3	0xbcd3e304	-0.025865085
4	0xbd4a7e0d	-0.049436618
5	0x3f29800f	0.66211027
6	0xbe148078	-0.14502132
7	0xbdb8bee8	-0.090207875
8	0x3e7f043e	0.24903962
9	0x3d3dea39	0.04636595
10	0xbe08998a	-0.1333982
11	0xbeb6d40b	-0.3570865
12	0x3d3ee0d1	0.04660112
13	0xbedd6b77	-0.43246052
14	0x3e883d34	0.26609194
15	0xbdc93bc4	-0.098258525
16	0xbe7e1e1c	-0.24816173
17	0xbd294c65	-0.04133262
18	0x3e04a077	0.12951837
19	0x3e68c38a	0.22730842
20	0x3c9e9401	0.019357683
21	0xbd88f8d9	-0.06688089
22	0xbe281df4	-0.16417676
23	0x3d5a99dc	0.053369388
24	0x3d3b5788	0.045737773
25	0x3e824710	0.2544484
26	0x3eb625f6	0.35575837
27	0x3d5848d4	0.05280383
28	0x3db138c9	0.08653409
29	0x3da9a291	0.0828296
30	0x3e4a52e4	0.19758183
31	0x3d0ac75a	0.033881523
32	0x3de33c5e	0.110954985
33	0xbdcfae0b	-0.10140618
34	0x3b81ee6c	0.0039651897
35	0xbe584a12	-0.21122006
36	0x3c631bf3	0.013861644
37	0x3ebb1044	0.36535847
38	0x3c2756b2	0.010213541
39	0x3e15e2ab	0.14637248
40	0x3ecbf652	0.39836365
41	0x3e1874e1	0.14888336
42	0xbe4d0e0e	-0.20024893
43	0x3e5179e6	0.20456657
44	0xbd920f81	-0.071318634
45	0x3e1790fb	0.148014
46	0xbe03ce5a	-0.12871686
47	0x3ce5ecd1	0.028067024
48	0xbc863d3d	-0.016386623
49	0x3d56a03d	0.05239891
50	0xbe1170cf	-0.1420319
51	0xbe14a023	-0.14514212
52	0x3da30a32	0.07960929
53	0xbd8d8e31	-0.069118865
54	0xbd801347	-0.06253677
55	0xbd0b2983	-0.033975136
56	0x3ef848a4	0.4849292
57	0xbb82d6d4	-0.0039928947
58	0x3ee41180	0.445446
59	0xbe838561	-0.25687698
60	0x3edc0e79	0.42979792
61	0xbe569e66	-0.20958862
62	0xbeb622df	-0.3557348
63	0x3e0b99dd	0.13632913
64	0xbd9b580d	-0.07585154
65	0x3e3e1167	0.18561326
66	0x3e897928	0.26850247
67	0xbe14f60b	-0.14546983
68	0xbc04e837	-0.008112005
69	0x3e58d052	0.21173218
70	0x3e6b65e0	0.22988081
71	0x3e2d473d	0.16921706

stage.1.bn.running_mean f4 [72]
0	0xbf0229aa	-0.50844824
1	0xbff52801	-1.9152833
2	0x3f84f577	1.038741
3	0xbed3a2db	-0.41335186
4	0xbf40178e	-0.7503594
5	0x3f283590	0.6570673
6	0xbf89a47f	-1.0753325
7	0xbf57ffd7	-0.84374756
8	0x3f91819a	1.1367676
9	0xbf1f28ce	-0.6217164
10	0xbf5c0a83	-0.8595354
11	0x3f64e46c	0.89411044
12	0x3f163bee	0.58685195
13	0x3f50772a	0.8143183
14	0xbefaac18	-0.48959422
15	0xbee22a81	-0.44173053
16	0x3f508122	0.8144704
17	0x3f7244d4	0.94636273
18	0x3f005a22	0.5013753
19	0xbf3bb9a3	-0.73330134
20	0xbfa65d02	-1.2997134
21	0xbe89f33f	-0.26943395
22	0x3f4b9773	0.7952797
23	0x3b970e6c	0.0046098735
24	0xbdc30966	-0.09523277
25	0x3f046cad	0.51728326
26	0xbf0264f1	-0.50935274
27	0xbf7bad29	-0.98311096
28	0xbf7e6168	-0.9936738
29	0x3f46e9aa	0.77700293
30	0xbe1a3cdc	-0.15062279
31	0xbf884d41	-1.0648576
32	0xbc97dd9c	-0.018538289
33	0x3eef1e93	0.46703014
34	0x3d8d8476	0.069100305
35	0xbf0c82d1	-0.5488711
36	0x3f04e19b	0.51906747
37	0x3f1cff53	0.61327094
38	0x3c5d5358	0.01350864
39	0xbed3e6a8	-0.41386914
40	0xbe3dfdf9	-0.18553914
41	0x3f407085	0.7517169
42	0x3f37d453	0.71808356
43	0x3d9643ce	0.073371515
44	0x3eddbece	0.43309635
45	0xbf5522d3	-0.8325626
46	0xbed689c8	-0.41901994
47	0xbf88e369	-1.06944
48	0x3f5236a5	0.8211463
49	0x3f8874dd	1.0660664
50	0x3f6a2982	0.91469586
51	0x3f460958	0.7735801
52	0xbeabcd2e	-0.33554977
53	0x3f3e67d5	0.74377185
54	0xbf38e5b0	-0.72225475
55	0xbf4619d3	-0.77383155
56	0x3dba3c57	0.0909354
57	0xbedcf781	-0.4315758
58	0xbf612507	-0.87947124
59	0x3d928323	0.071539186
60	0x3ddc69d0	0.1076237
61	0x3f639af3	0.8890831
62	0x3e934381	0.2876244
63	0xbef0f4f0	-0.47061872
64	0xbf31561c	-0.6927202
65	0x3df0e6d1	0.11762775
66	0x3df1b484	0.11802009
67	0x3d73a93b	0.059487563
68	0xbed24466	-0.4106781
69	0x3f6df9f4	0.92959523
70	0x3f3c4f19	0.73558193
71	0xbf572045	-0.84033614
