Save Model/Student Single 2/student_full_model.pth (torch, 642682 bytes, 61 tensors)

weight f4 [48, 3, 3, 3]
0	0x3dad3d47	0.08458953
1	0x3dd9cd99	0.10634918
2	0xbe3b0412	-0.18263271
3	0xbe0428a6	-0.12906131
4	0xbea68b7c	-0.32528293
5	0xbeb48cc7	-0.35263655
6	0xbd863d68	-0.06554681
7	0xbe8019ce	-0.25019687
8	0xbe23191b	-0.15927546
9	0x3ec5929a	0.3858841
10	0xbd734baa	-0.05939833
11	0xbd8912c3	-0.06693032
12	0x3e01dd59	0.12682094
13	0xbdb9b353	-0.090674065
14	0xbd4a6ef0	-0.049422204
15	0x3c30cc38	0.010790877
16	0x3d203c03	0.03911973
17	0x3e390e97	0.18071972
18	0xbdb44e0b	-0.08803948
19	0xbe0fe09c	-0.14050525
20	0x3e240cbb	0.16020481
21	0x3e4fde16	0.20299563
22	0xbdcd21c9	-0.1001621
23	0xbe50c7f1	-0.20388772
24	0x3dffaa61	0.12483669
25	0xbe43a8d4	-0.19107372
26	0xbd772205	-0.060335178
27	0x3d43bc17	0.0477868
28	0xbe2994a2	-0.16560605
29	0xbe2f4e12	-0.17119625
30	0xbbc9e318	-0.006161105
31	0xbe341f34	-0.17590028
32	0xbe33f056	-0.1757215
33	0xbdbe1e11	-0.092830785
34	0xbd9ac1f7	-0.07556527
35	0xbe694f9c	-0.22784275
36	0xbe5b8f77	-0.21441446
37	0xbe594ab4	-0.21219903
38	0xbc4a1a24	-0.012335334
39	0xbe7b8c7d	-0.24565311
40	0x3d6f49e0	0.058420062
41	0xbe654801	-0.22390749
42	0xbcdb615a	-0.02677982
43	0xbe74b573	-0.23897342
44	0xbc2a1ea0	-0.010383278
45	0x3df27445	0.11838583
46	0x3e4e20ce	0.20129701
47	0x3d8c668d	0.068554975
48	0x3e7de9b6	0.24796185
49	0xbd0eefb5	-0.03489657
50	0x3d5b299f	0.05350649
51	0x3d5ff47d	0.05467652
52	0x3e8c81ff	0.2744293
53	0x3d6ec981	0.058297638
54	0x3db77f3c	0.08959815
55	0x3e195409	0.14973463
56	0x3e201409	0.15632643
57	0x3e00862f	0.12551187
58	0x3e5bc5a5	0.21462114
59	0xbe117f17	-0.14208637
60	0x3d612a7e	0.054972164
61	0x3dccd550	0.10001624
62	0xbdae01df	-0.08496451
63	0xbd70759f	-0.058705922
64	0xbe0537f1	-0.13009621
65	0xbcbe791c	-0.023251109
66	0xbe06f9fd	-0.131813
67	0x3e07eb35	0.13273318
68	0x3e269f4c	0.16271704
69	0xbdc8121f	-0.09769081
70	0x3dc18076	0.0944833
71	0xbdba4adc	-0.090963095
72	0xbed23e50	-0.41063166
73	0xbe301671	-0.1719606
74	0xbe245192	-0.16046742
75	0xbeb668f0	-0.35626936
76	0xbe0a2fa2	-0.13494733
77	0xbea0792d	-0.3134245
78	0xbecf9133	-0.40540466
79	0xbe9dac76	-0.3079564
80	0xbe562569	-0.20912708
81	0xbe42dc49	-0.19029345
82	0xbccc4eab	-0.024939856
83	0xbc9d8a28	-0.019230917
84	0xbde51acc	-0.11186752
85	0x3d836cc8	0.06417233
86	0xbd02b9f5	-0.031915624
87	0x3da5491b	0.080705844
88	0x3e7c4af5	0.24637969
89	0x3e6cd5bb	0.23128407
90	0x3d004ceb	0.031323355
91	0xbdb6862e	-0.089123115
92	0xbe872461	-0.26394942
93	0xbd30db54	-0.043177918
94	0xbe0e125a	-0.13874188
95	0xbe46d575	-0.19417365
96	0xbd34a20d	-0.044099856
97	0xbe726a52	-0.2367337
98	0xbe83d6f7	-0.25749943
99	0xbd619989	-0.055078063
100	0x3e2939c9	0.1652595
101	0x3dee34d6	0.116311714
102	0x3e47d1fc	0.19513696
103	0x3e81f3ef	0.2538142
104	0xbc9c95b9	-0.019114362
105	0x3d4feb93	0.05076177
106	0x3e809518	0.2511375
107	0x3e9122fe	0.2834701
108	0x3e51edbd	0.20500846
109	0x3df5e5e5	0.120067395
110	0x3dd03ce3	0.10167863
111	0xbdf82079	-0.12115569
112	0x3d98b2f8	0.074560106
113	0x3dc2e3a7	0.095160775
114	0x3e0caf13	0.1373866
115	0xbd4d63da	-0.050144054
116	0xbdbec715	-0.09315316
117	0xbe4f1f68	-0.20226824
118	0xbe2c6685	-0.16835983
119	0xbded80c8	-0.11596829
120	0xbecb4052	-0.3969751
121	0xbec20fc0	-0.3790264
122	0xbe40509c	-0.1878075
123	0xbe1769ba	-0.14786425
124	0xbeea98f2	-0.45819813
125	0xbef64a87	-0.48103735
126	0xbdbbb476	-0.091652796
127	0x3db06c62	0.086144224
128	0x3d19466f	0.037420686
129	0x3d1a9e14	0.03774841
130	0xbe3110e8	-0.17291605
131	0x3e231e44	0.15929514
132	0x3da086f1	0.07838238
133	0xbcf809d6	-0.030278128
134	0x3dc8aa56	0.09798114
135	0xbdef3dd0	-0.11681712
136	0xbdb8a49d	-0.090157725
137	0xbdeff5ae	-0.117167816
138	0x3c581434	0.013188411
139	0xbdccb0c5	-0.099946536
140	0x3dbd220f	0.09235012
141	0x3d313604	0.043264404
142	0xbe267ab3	-0.16257744
143	0xbb534b47	-0.0032240914
144	0x3e152b86	0.14567384
145	0xbca2bf4a	-0.019866604
146	0xbe278376	-0.16358742
147	0xbd2eb9e2	-0.04265774
148	0xbe683aed	-0.22678728
149	0x3e2df343	0.16987328
150	0xbd242e86	-0.04008343
151	0x3c69eb3b	0.014277275
152	0x3b03d6e5	0.00201171
153	0x3ecd4aa1	0.40096
154	0x3ec7e8d8	0.39044833
155	0x3edb549d	0.42837992
156	0x3ec05227	0.37562677
157	0x3ea0ea51	0.3142877
158	0x3ee347bb	0.44390664
159	0x3e003558	0.12520349
160	0x3e34feaa	0.17675272
161	0x3ecd1a50	0.40059137
162	0xbe12f1d2	-0.1435006
163	0xbdfaa5a0	-0.12238622
164	0x3d877069	0.066132374
165	0x3d8155a3	0.06315162
166	0x3e1c0d70	0.15239501
167	0x3d499cf9	0.049221966
168	0x3d8c9064	0.06863478
169	0x3cb90378	0.022584662
170	0xbc087da7	-0.008330739
171	0xbe115a99	-0.14194717
172	0x3d40bd72	0.04705567
173	0xbe6d540a	-0.2317659
174	0xbc3dbc99	-0.01158061
175	0xbe809d55	-0.25120035
176	0x3c38faab	0.011290233
177	0xbe61629a	-0.2201027
178	0xbe0f9c82	-0.14024547
179	0xbe9df2c0	-0.30849266
180	0xbe7a9106	-0.24469385
181	0xbe642185	-0.22278412
182	0xbe274ad0	-0.16337132
183	0xbe755899	-0.23959579
184	0xbd951491	-0.07279313
185	0xbe72b84f	-0.2370312
186	0xbd7b81c1	-0.06140304
187	0x3dabcebc	0.08389041
188	0xbc92837c	-0.017884962
189	0x3ea2b1f4	0.31776392
190	0x3e8fb4f7	0.28067753
191	0x3e4529e1	0.19254257
192	0x3e85c79c	0.26128852
193	0x3ef4808e	0.4775433
194	0xbc645cba	-0.013938123
195	0x3cfcb3d5	0.03084747
196	0x3f07bbee	0.5302113
197	0x3ae4fece	0.0017470957
198	0xbe2b6850	-0.16739011
199	0x3e30a72a	0.17251268
200	0x3c03d662	0.008046718
201	0xbcd676b8	-0.026179656
202	0xbe0fe06c	-0.14050454
203	0x3c21ac4b	0.009867738
204	0x3e3b2ae4	0.1827808
205	0x3d3a342e	0.04545992
206	0xbd617be3	-0.05504979
207	0x3db2ce4c	0.08730754
208	0xbe519f7e	-0.20470998
209	0xbcd8275c	-0.026385956
210	0xbd54bbde	-0.051936977
211	0xbe33d28b	-0.17560785
212	0x3d39fa37	0.04540464
213	0xbdeff45f	-0.11716532
214	0x3e1952cc	0.14972991
215	0xbe55aaf4	-0.20865995
216	0x3c83ebe8	0.0161037
217	0x3e0f4093	0.13989477
218	0xbdd6ed37	-0.10494464
219	0xbdacfc22	-0.08446528
220	0x3d87a9ba	0.0662417
221	0x3d52dcf4	0.05148025
222	0xbdbfe026	-0.09368925
223	0x3df8da07	0.121509604
224	0xbda3143e	-0.07962845
225	0xbde6c3eb	-0.11267837
226	0x3c502833	0.012704897
227	0x3df3e88d	0.1190959
228	0x3d0d9603	0.03456689
229	0xbd2d0257	-0.04223856
230	0xbda6b2fe	-0.08139609
231	0xbd4cc033	-0.049987983
232	0x3d32a0d1	0.043610398
233	0xbc9da662	-0.019244377
234	0xbe4ceec4	-0.20012957
235	0xbe918619	-0.2842262
236	0xbd15cc79	-0.036571953
237	0xbf127dc6	-0.57223165
238	0xbed0471b	-0.4067925
239	0xbe465b9c	-0.19370884
240	0xbf000bb4	-0.5001786
241	0xbe2c3231	-0.16816022
242	0xbe0655d8	-0.13118684
243	0x3debb55b	0.115092
244	0xbe6441c5	-0.22290714
245	0xbe621ef1	-0.22082116
246	0x3e841aae	0.25801605
247	0xbd34cd84	-0.044141307
248	0x3d19f76e	0.037589483
249	0x3d0908ee	0.03345578
250	0x3e1e6023	0.15466361
251	0x3cbaa589	0.022784011
252	0xbc2f8d8d	-0.010714901
253	0xbdb8cb80	-0.090231895
254	0xbd9c5c26	-0.076347634
255	0x3e9970fe	0.2996902

weight f4 [48]
0	0x3f6afc3f	0.91791147
1	0x3f76f133	0.9646179
2	0x3f744278	0.95413923
3	0x3f8907d4	1.0705514
4	0x3f6a9d85	0.91646606
5	0x3f69b540	0.9129219
6	0x3f7b5639	0.9817844
7	0x3f832bd5	1.0247751
8	0x3f71d41e	0.9446429
9	0x3f6154a6	0.8801979
10	0x3f70e1db	0.9409463
11	0x3f7fd1a0	0.9992924
12	0x3f4c989d	0.7992037
13	0x3f818a81	1.0120393
14	0x3f758317	0.9590315
15	0x3f7a3ff4	0.97753835
16	0x3f816db3	1.0111603
17	0x3f90b44b	1.1305021
18	0x3f701657	0.9378409
19	0x3f8a1158	1.0786543
20	0x3f84b66f	1.0368174
21	0x3f6eaa2d	0.9322842
22	0x3f90917b	1.1294397
23	0x3f7719c7	0.9652371
24	0x3f82aafe	1.0208433
25	0x3f8256e3	1.0182766
26	0x3f809953	1.0046791
27	0x3f60c809	0.8780523
28	0x3f700866	0.93762815
29	0x3f6887ec	0.908324
30	0x3f8d289a	1.1028016
31	0x3f899ff0	1.0751934
32	0x3f64a7e7	0.893187
33	0x3f5eabfe	0.8698119
34	0x3f76840d	0.96295244
35	0x3f896d88	1.0736551
36	0x3f831744	1.0241475
37	0x3f767769	0.96275955
38	0x3f985cb6	1.1903293
39	0x3f5ca229	0.86184937
40	0x3f8808df	1.0627707
41	0x3f873bc8	1.0565119
42	0x3f8b5a7f	1.0886992
43	0x3f8c16d4	1.0944467
44	0x3f67b0d9	0.90504223
45	0x3f84345d	1.032848
46	0x3f6de896	0.9293302
47	0x3f47641f	0.7788715

bias f4 [48]
0	0xbd98f808	-0.07469183
1	0x3d8b9613	0.06815734
2	0x3cc5c622	0.024142329
3	0x3f166d3f	0.58760446
4	0x3e13f2e5	0.14448126
5	0x3d70d6b2	0.0587985
6	0xbe831f23	-0.25609693
7	0x3e4d4981	0.20047571
8	0xbdcfcef3	-0.10146894
9	0xbced47fb	-0.028964987
10	0x3d81ba07	0.0633431
11	0x3e330d68	0.17485583
12	0x3d314aa5	0.043284077
13	0x3e446d92	0.19182423
14	0xbe4e73ee	-0.20161411
15	0x3c85cb3d	0.016332263
16	0x3ba29e03	0.004962684
17	0x3e588c64	0.21147305
18	0x3e2aa1df	0.16663311
19	0xbc746563	-0.014916751
20	0x3e9b7eea	0.30370265
21	0x3e16908c	0.14703578
22	0x3ee6b466	0.45059508
23	0x3e0ebb6c	0.13938683
24	0xbcb58853	-0.022159731
25	0xbc2d6320	-0.010582715
26	0x3e136cb4	0.14396936
27	0x3e2e5a07	0.1702653
28	0xbe15457f	-0.14577292
29	0xbe4f6715	-0.20254166
30	0x3e2b8cea	0.16752973
31	0x3e01d4d8	0.1267885
32	0x3dc37196	0.09543149
33	0xbded9af7	-0.11601823
34	0x3ea35749	0.3190253
35	0x3b5fb2cd	0.0034133673
36	0x3e105e6c	0.14098519
37	0xbe52127e	-0.20514867
38	0x3e223016	0.15838656
39	0xbeba33c5	-0.36367622
40	0x3dd659af	0.104663245
41	0x3e9cbadf	0.3061132
42	0xbe159b78	-0.14610088
43	0x3d970dbb	0.07375666
44	0xbdabbd83	-0.08385756
45	0x3d90f153	0.07077279
46	0x3df9916f	0.121859424
47	0xbd082906	-0.033242248

running_mean f4 [48]
0	0xbf95c941	-1.1702043
1	0xbf16af30	-0.58861065
2	0xbf79b491	-0.9754115
3	0x3f24df95	0.6440366
4	0xbe267677	-0.16256128
5	0x3fba5f16	1.4560268
6	0xbf71d28c	-0.94461894
7	0x3fc3e15c	1.5303149
8	0xbfc45d25	-1.5340925
9	0x3e3330ac	0.17499036
10	0xbf7ec1cf	-0.9951448
11	0x3f4b0506	0.7930454
12	0xbe534adc	-0.20634025
13	0xbedc8866	-0.43072814
14	0xbf607d73	-0.8769142
15	0xbfaa12ba	-1.3286965
16	0x3f346f35	0.7048219
17	0xbebe864e	-0.3721184
18	0x3faf1541	1.3678361
19	0xbf2b08ea	-0.66810477
20	0x3ffc7a7f	1.9724883
21	0x3fd91fc1	1.6962816
22	0x3ec2a7b6	0.38018578
23	0x3e3af6fc	0.1825828
24	0xbe56a40d	-0.20961018
25	0xb9863f34	-0.00025605562
26	0x3fa58c20	1.2933388
27	0xbe280db1	-0.16411473
28	0xbfaae40a	-1.3350842
29	0xbf0aa714	-0.5416119
30	0xbf537045	-0.82593185
31	0xbf4f92fa	-0.81083643
32	0x3e718ff3	0.23590069
33	0xbee64b40	-0.44979286
34	0x3e86bbb6	0.26315087
35	0xbf99c317	-1.2012662
36	0x3dbc8ead	0.09206901
37	0xc01b3f2c	-2.4257307
38	0xbfb9a9ec	-1.4504981
39	0xbf1af0cc	-0.60523677
40	0xbf3b03c3	-0.73052615
41	0x3fc9f1fd	1.5776974
42	0xbf8ded62	-1.1088068
43	0x3d22e57d	0.03976964
44	0x3f902527	1.1261338
45	0xbf89c941	-1.0764543
46	0x3fcc351a	1.5953705
47	0xbf7560e0	-0.95850945

running_var f4 [48]
0	0x3fc31997	1.5242184
1	0x3fa56fb6	1.2924716
2	0x405e49ae	3.473247
3	0x3e5d1f8c	0.21594065
4	0x4034853f	2.8206327
5	0x40b24cf5	5.571894
6	0x4086789b	4.2022223
7	0x40409eec	3.0096998
8	0x40b77640	5.733185
9	0x3f4ead5c	0.80733275
10	0x3f0c2e24	0.54757905
11	0x3edb97e2	0.42889315
12	0x3f0b6580	0.5445175
13	0x3f22fed2	0.63670075
14	0x4058a4d0	3.3850594
15	0x404dc0c4	3.2148905
16	0x3f9d4dc3	1.2289356
17	0x3fb49943	1.4109272
18	0x404c1be0	3.1892014
19	0x404b3372	3.175015
20	0x40484318	3.129095
21	0x401b2582	2.4241643
22	0x3f1e24db	0.61774987
23	0x4000079c	2.0004644
24	0x3f91a470	1.1378307
25	0x3ee55370	0.4479022
26	0x4009d3e6	2.1535583
27	0x3effb3b7	0.499418
28	0x4098256f	4.7545695
29	0x3ebbd296	0.36684102
30	0x3f783482	0.9695512
31	0x4068319c	3.628028
32	0x3fa634e1	1.2984887
33	0x4023cc0e	2.5593295
34	0x3e68003f	0.22656344
35	0x3f3dafc8	0.74096346
36	0x3f24eabc	0.64420676
37	0x40e821ee	7.254142
38	0x3fb52257	1.4151105
39	0x40150e25	2.3289883
40	0x40371712	2.860783
41	0x402812fd	2.626159
42	0x3f90e1d5	1.1318918
43	0x3fcd71db	1.6050371
44	0x408cc392	4.3988733
45	0x3f2cf32c	0.6755855
46	0x40147e74	2.320218
47	0x3fbfc21c	1.4981112

weight f4 [48, 1, 3, 3]
0	0xbee6f94e	-0.4511208
1	0xbda6c044	-0.081421405
2	0x3e0a2cdd	0.13493676
3	0x3da6da25	0.081470765
4	0x3d86443b	0.06555983
5	0x3e84654a	0.25858527
6	0x3e877a58	0.26460528
7	0x3e6e6205	0.23279579
8	0xbea696ad	-0.32536831
9	0xbb44ed92	-0.003004883
10	0x3e0cea6c	0.137613
11	0xbe75321e	-0.239449
12	0x3e9c1c72	0.30490452
13	0xbed29dfa	-0.41136152
14	0x3de2cdc3	0.11074402
15	0xbe277d2b	-0.16356342
16	0xbed7f901	-0.42182162
17	0xbe75edfd	-0.24016567
18	0xbd3f6b6e	-0.046733312
19	0xbb609709	-0.0034269711
20	0xbe5ee521	-0.21767093
21	0xbd4ddf16	-0.05026158
22	0x3e62240c	0.22084063
23	0xbda7cff7	-0.08193963
24	0xbe0dc385	-0.13844116
25	0xbe0f1405	-0.1397248
26	0x3eb92348	0.3615973
27	0xbd89c366	-0.067267224
28	0x3e802ed9	0.25035742
29	0xbeb7d4df	-0.35904595
30	0x3e7b703a	0.2455453
31	0x3e1fddce	0.15611956
32	0xbea5bb70	-0.32369566
33	0x3ea3b6d5	0.31975427
34	0x3d9ebc78	0.07750791
35	0x3da8f3ac	0.08249602
36	0x3d1862a9	0.037203465
37	0xbeaa165b	-0.3322018
38	0x3ec45fb8	0.38354278
39	0xbe5af40b	-0.21382158
40	0xbe1b6db1	-0.15178563
41	0x3dd48156	0.10376231
42	0xbe42127c	-0.18952364
43	0x3dc31e10	0.09527218
44	0x3e2238cc	0.15841979
45	0x3d882c9a	0.06649132
46	0xbe56694b	-0.20938604
47	0x3b8b100c	0.0042438563
48	0x3d8d9a0f	0.0691415
49	0x3e0000e0	0.12500334
50	0x3cf68aa6	0.03009541
51	0x3bcc2dcf	0.0062310467
52	0xbe030266	-0.12793884
53	0x3d7c165e	0.06154477
54	0xbe9dfbe6	-0.30856246
55	0xbe9afc5e	-0.30270666
56	0xbee3f2a4	-0.44521058
57	0xbea0b637	-0.3138902
58	0x3d630dfd	0.055433262
59	0x3d286c3d	0.04111885
60	0x3e7c2c98	0.24626386
61	0xbe42bbe0	-0.19016981
62	0xbe90bf31	-0.28270867
63	0x3e96cab8	0.29451537
64	0x3e096af7	0.1341971
65	0x3e01c4ee	0.12672779
66	0x3e434487	0.1906911
67	0x3e23f651	0.16011931
68	0x3e6092bc	0.21930975
69	0x3e960942	0.29303938
70	0xbd8a5d9a	-0.06756134
71	0xbd49a181	-0.049226288
72	0xbe8aa16c	-0.2707628
73	0xbe963a5b	-0.29341397
74	0x3eef6d24	0.46762955
75	0xbdb47fe1	-0.088134535
76	0xbea3d19e	-0.31995863
77	0xbce26c76	-0.027639609
78	0xbe22ba4f	-0.15891384
79	0x3ebe3823	0.37152204
80	0x3cb203d8	0.021730348
81	0x3dddf2c2	0.10837318
82	0x3e0cac24	0.13737541
83	0xbd16a982	-0.03678275
84	0xbc6e08b6	-0.014528444
85	0xbe84f00e	-0.25964397
86	0xbe682a21	-0.22672321
87	0x3ec76a73	0.38948402
88	0xbe9de6ce	-0.30840153
89	0xbe883923	-0.26606092
90	0xbe90c12a	-0.28272372
91	0x3c833ef7	0.016021235
92	0xbe9b98ba	-0.3038996
93	0xbed1980a	-0.4093631
94	0xbc785c1a	-0.0151586775
95	0xbdcd1fee	-0.10015856
96	0xbe4f758c	-0.20259684
97	0xbec74bc1	-0.38924983
98	0x3e6413db	0.222732
99	0x3d9bcdbc	0.076076
100	0xbdb1cb1c	-0.08681318
101	0x3ec8ece2	0.39243227
102	0xbd464a58	-0.048410743
103	0xbdbd0a51	-0.09230483
104	0x3ea4ee2c	0.3221296
105	0xbea0103a	-0.3126238
106	0xbea7953c	-0.32731044
107	0x3e781cdf	0.24229763
108	0xbdc1d774	-0.094649225
109	0x3d7d60d4	0.06185992
110	0x3eba7f89	0.36425427
111	0xbe8c952a	-0.27457553
112	0xbeb0b614	-0.34513915
113	0x3d911138	0.07083362
114	0x3e62a2a3	0.22132353
115	0xbc84f6c6	-0.016230952
116	0x3e37b0cc	0.17938536
117	0x3ec4a2b9	0.38405398
118	0xbe7cfe38	-0.24706352
119	0x3e8df43c	0.277254
120	0x3e645ed1	0.22301795
121	0xbd463fca	-0.048400678
122	0xbd7b6297	-0.06137332
123	0x3de0fc23	0.10985591
124	0xbe396c79	-0.18107785
125	0xbdc14fae	-0.09439026
126	0x3ee4ccfe	0.44687647
127	0xbd973895	-0.07383839
128	0xbe0653b9	-0.13117875
129	0x3d916baa	0.071006134
130	0x3e35f850	0.17770505
131	0xbebe0300	-0.37111664
132	0x3eb2378d	0.34808007
133	0x3aa07669	0.001224232
134	0xbc978163	-0.018494314
135	0xbe5315cd	-0.20613785
136	0x3ea254a1	0.31705192
137	0xbe0107dc	-0.12600654
138	0xbedea267	-0.43483278
139	0xbdea6d23	-0.114465974
140	0x3e8fa2d7	0.28053924
141	0x3bbea0e0	0.0058175176
142	0xbe11f48e	-0.14253446
143	0x3eb2f181	0.34949878
144	0xbd61a3bb	-0.055087786
145	0x3e4912b5	0.19636042
146	0xbe6c4e4c	-0.23076743
147	0x3e57f2b3	0.21088676
148	0x3e93ae70	0.28844023
149	0xbe6ee61a	-0.23329964
150	0xbc8ff2b0	-0.017571777
151	0xbd114387	-0.03546479
152	0xbeb55291	-0.35414556
153	0x3e8ea311	0.27858785
154	0xbd06e4f4	-0.03293319
155	0xbe6aa958	-0.22916162
156	0x3d505500	0.050862312
157	0xbea2791e	-0.3173303
158	0xbec9b3a9	-0.39394882
159	0x3df6ff8f	0.12060463
160	0xbeca2ec5	-0.39488807
161	0xbe3562a7	-0.17713414
162	0x3ed11277	0.408344
163	0xbde158a4	-0.11003235
164	0x3e282466	0.16420135
165	0x3dec53a7	0.11539393
166	0xbd3090bd	-0.043106783
167	0x3d0e1266	0.034685515
168	0xbe844202	-0.2583161
169	0xbea18670	-0.3154788
170	0x3e1b4020	0.1516118
171	0xbe55eb45	-0.2089053
172	0xbd954388	-0.07288271
173	0xbe127dfd	-0.14305873
174	0xbe1b5eaf	-0.15172838
175	0xbd67ca18	-0.056589216
176	0x3d79c432	0.060978122
177	0xbe847329	-0.2586911
178	0xbc5c0c5b	-0.01343068
179	0x3e1a7adc	0.1508593
180	0xbe2362be	-0.15955636
181	0x3e66c3b5	0.22535594
182	0xbe331eef	-0.17492269
183	0x3ea862d9	0.32887915
184	0x3e607702	0.21920398
185	0xbdf9a081	-0.12188817
186	0x3e92d8a6	0.28680915
187	0x3e6e3484	0.2326222
188	0x3e7ead30	0.24870753
189	0x3e90e585	0.2830011
190	0x3dac941a	0.08426686
191	0x3d937310	0.07199681
192	0x3ceae862	0.028675262
193	0x3ecb03b2	0.39651257
194	0xbe542841	-0.2071848
195	0x3e7cbcd7	0.24681412
196	0x3e2f6fde	0.17132518
197	0x3e90b127	0.28260157
198	0x3e9b8097	0.30371544
199	0x3ec81a6d	0.3908266
200	0x3c862139	0.016373264
201	0xbebd48aa	-0.369695
202	0x3d0f1140	0.03492856
203	0x3eab1d79	0.33420923
204	0xbeb1e871	-0.3474765
205	0xbd780f96	-0.06056174
206	0xbe1ce1a0	-0.15320444
207	0xbdc08673	-0.09400644
208	0xbcdf7c89	-0.027281063
209	0x3e77401a	0.24145547
210	0xbca9af09	-0.020713346
211	0x3ea894a1	0.32925895
212	0xbd7303e5	-0.059329886
213	0xbdf598df	-0.119920485
214	0xbd48fa9f	-0.049067136
215	0xbe3c784e	-0.18405268
216	0xbe6e4b56	-0.23270926
217	0x3e618421	0.2202306
218	0xbe414edf	-0.18877743
219	0xbd122130	-0.03567618
220	0x3dc00bfc	0.09377286
221	0x3dd92635	0.106029905
222	0xbe89d2d8	-0.26918674
223	0xbea5c721	-0.32378486
224	0xbe993a35	-0.2992722
225	0xbe376641	-0.179101
226	0xbdb5bc24	-0.088737756
227	0xbe526060	-0.20544577
228	0xbdacfb48	-0.084463656
229	0x3e06fe4a	0.13182941
230	0x3b96652c	0.0045896973
231	0x3de7ead3	0.11324086
232	0xbbf7752c	-0.00755181
233	0xbe5cf15a	-0.21576443
234	0x3e2754f2	0.16340998
235	0x3e89c7db	0.2691029
236	0xbe945a5a	-0.28975183
237	0x3e6afaa0	0.22947168
238	0xbe1d2621	-0.15346576
239	0xbe437eff	-0.19091414
240	0x3d4d4ada	0.050120212
241	0xbe12b564	-0.14327008
242	0xbe09f9f5	-0.13474257
243	0xbe6b6534	-0.22987825
244	0x3e978746	0.29595393
245	0x3e9b857d	0.3037528
246	0xbc4fa2f9	-0.012673133
247	0x3d9abe65	0.07555846
248	0xbe10dd90	-0.1414702
249	0xbb3e46a3	-0.0029033802
250	0xbe221c00	-0.15830994
251	0xbe564d23	-0.20927863
252	0xbddfcd45	-0.10927824
253	0xbdc191da	-0.09451647
254	0x3bce79a6	0.0063011227
255	0x3e00c2e0	0.12574339

weight f4 [48, 48, 1, 1]
0	0x3ba8f581	0.0051562195
1	0xbba0ae29	-0.004903574
2	0x3cede89f	0.029041586
3	0xbdc47073	-0.095917605
4	0xbd8ba5d0	-0.068187356
5	0xbcbb3b11	-0.022855313
6	0x3e132b31	0.14371945
7	0xbe4cf8b7	-0.20016752
8	0x3db7d209	0.08975608
9	0xbe1c95c1	-0.15291502
10	0xbd24399b	-0.040094
11	0xbe0d8a38	-0.13822258
12	0x3e0d0028	0.13769591
13	0xbe32116b	-0.17389457
14	0x3dbdff9e	0.09277271
15	0xbe1d83d8	-0.15382326
16	0xbda99f08	-0.08282286
17	0x3e23d579	0.15999402
18	0x3e4c325e	0.19941089
19	0x3d07aa38	0.033121318
20	0xbe9186d9	-0.28423193
21	0xbec817c3	-0.3908063
22	0x3de8ebb7	0.11373084
23	0xbd1fce6b	-0.039015215
24	0xbc5c544a	-0.01344783
25	0xbda22d89	-0.079188414
26	0x3ddba809	0.107254095
27	0xbd67b517	-0.056569185
28	0xbe201e3f	-0.15636538
29	0x3dad9be0	0.084769964
30	0xbdef8bf7	-0.11696618
31	0xbc561eb1	-0.013068841
32	0xbe6441b2	-0.22290686
33	0x3d373421	0.04472745
34	0x3e8f55bf	0.27995107
35	0xbd077929	-0.03307453
36	0xbe1a0a1d	-0.1504292
37	0x3d9d5be8	0.07683545
38	0xbdd77f94	-0.105223805
39	0x3e021243	0.12702279
40	0x3c7ee5a6	0.015557682
41	0x3db4a147	0.08819824
42	0xbd85026d	-0.06494603
43	0xbd650d9b	-0.05592118
44	0xbe18103e	-0.14849946
45	0x3ce3f236	0.027825456
46	0xbe3d4eb2	-0.18487051
47	0xbbf6fe7c	-0.007537661
48	0x3d394b43	0.04523779
49	0xbe0d1c02	-0.13780215
50	0x3e25c30e	0.16187689
51	0x3c8fadca	0.017538924
52	0x3ba224e7	0.0049482468
53	0xbe09dfda	-0.13464299
54	0x3e4e7cc3	0.2016478
55	0x3c99b240	0.018761754
56	0x3e0022c6	0.12513265
57	0x3e5dc5d1	0.21657492
58	0x3e143c2a	0.14476076
59	0x3d9d5881	0.076828964
60	0xbe3639c1	-0.17795469
61	0x3d37141d	0.044696916
62	0xbec19114	-0.37805998
63	0x3e11a163	0.1422172
64	0x3e825b9d	0.2546052
65	0xbe0dffa6	-0.13867053
66	0x3cd9c4f5	0.026583174
67	0x3e3d8ceb	0.18510787
68	0xbdf61537	-0.12015765
69	0xbe31c6aa	-0.1736094
70	0x3d37c5f2	0.04486651
71	0xbd36eaa1	-0.044657353
72	0xbcb638b4	-0.022243835
73	0x3dcb8ea8	0.09939319
74	0x3df5c2aa	0.1200002
75	0x3ddf6e79	0.10909743
76	0x3da6a634	0.081371695
77	0xbd911b6f	-0.07085311
78	0x3d53228a	0.05154661
79	0xbd3f2ad3	-0.0466717
80	0x3e32d1a1	0.1746278
81	0xbd93b6bf	-0.072125904
82	0xbe1ba597	-0.15199886
83	0xbe08b56c	-0.13350457
84	0xbdf43849	-0.11924798
85	0xbd6b7954	-0.057488754
86	0x3e59454e	0.21217844
87	0xbd90d97e	-0.07072733
88	0x3e8cadac	0.2747625
89	0xbe0bed43	-0.13664727
90	0x3e9d0607	0.3066866
91	0xbc926acf	-0.017873196
92	0x3df2b6a4	0.11851242
93	0x3c4ed081	0.012622953
94	0x3e570390	0.20997453
95	0xbdbdc14e	-0.092653856
96	0x3bf4f991	0.0074760397
97	0xbd1c81b1	-0.03820962
98	0x3d484f06	0.048903488
99	0xbe4c1a38	-0.19931877
100	0xbd9df911	-0.07713521
101	0x3e032819	0.12808265
102	0xbd399568	-0.0453085
103	0x3db7b8d5	0.08970801
104	0xbccff7f8	-0.025386795
105	0xbe4221b5	-0.1895817
106	0xbe6645c3	-0.2248755
107	0x3dd87cc3	0.105706714
108	0xbd2d3b45	-0.042292852
109	0xbcbb3136	-0.022850614
110	0xbd31c55e	-0.043401115
111	0xbdb048d8	-0.08607644
112	0xbda74535	-0.08167497
113	0x3dd1d4e3	0.10245683
114	0xbd71a7d4	-0.058997944
115	0xbe38790f	-0.1801493
116	0xbd844177	-0.06457799
117	0x3d56bc40	0.052425623
118	0x3d860631	0.0654415
119	0xbc13e560	-0.009026855
120	0xbdf2df8c	-0.118590444
121	0xbe5821ef	-0.21106695
122	0xbe3c8178	-0.18408763
123	0xbe0537f8	-0.13009632
124	0xbcfa63a5	-0.030565092
125	0x3d7d14f8	0.061787575
126	0x3db80358	0.08985013
127	0x3d397fc6	0.04528787
128	0xbd411e84	-0.047148243
129	0xbb805db1	-0.003917419
130	0xbdabcb6d	-0.0838841
131	0xbd2ceae4	-0.042216197
132	0xbdf93c85	-0.12169746
133	0xbe001d03	-0.12511067
134	0x3c992475	0.018694142
135	0xbe2195d9	-0.15779819
136	0xbcdb5ccb	-0.026777646
137	0xbd712412	-0.05887229
138	0xbe918777	-0.28423664
139	0xbe7a5e06	-0.2444993
140	0xbd32965d	-0.04360043
141	0x3eb246ae	0.3481955
142	0xbdc50d15	-0.09621636
143	0xbe1a095c	-0.15042633
144	0xbe018126	-0.12646922
145	0xbdf5c6fb	-0.12000843
146	0xbd00f119	-0.03147993
147	0xbe2b1be6	-0.16709861
148	0x3d676d80	0.05650091
149	0xbd7672b7	-0.060167994
150	0xbca3090f	-0.01990178
151	0xbe414555	-0.18874104
152	0x3df7e47c	0.12104127
153	0xbaa07a7d	-0.0012243536
154	0x3e5f16df	0.21786068
155	0x3cf5955b	0.029978445
156	0xbd93b02f	-0.07211339
157	0xbe2c7503	-0.16841511
158	0x3d611056	0.05494722
159	0xbda2c93d	-0.079485394
160	0xbc8e3e38	-0.017363653
161	0xbd633984	-0.055474773
162	0xbcf0450c	-0.0293298
163	0xbd90d37a	-0.07071586
164	0xbe2b5eac	-0.16735333
165	0x3d98c314	0.07459083
166	0x3d0faeb0	0.035078704
167	0x3d35fb78	0.044429272
168	0x3a7c546f	0.00096256187
169	0xbd80127e	-0.06253527
170	0x3d334d96	0.043775164
171	0xbde44a3d	-0.11146972
172	0xbdd2d820	-0.10295129
173	0x3e292f6a	0.16521993
174	0x3c126f2e	0.00893764
175	0x3c342503	0.010995152
176	0x3ce3bb0b	0.02779915
177	0xbcfb24e1	-0.030657234
178	0x3c204649	0.009782382
179	0x3ebedd07	0.37278005
180	0x3d41ca72	0.047312208
181	0x3e892fd7	0.2679431
182	0xbede48d8	-0.4341495
183	0x3dc24e7d	0.09487627
184	0xbe2369f8	-0.15958393
185	0xbd25bfbb	-0.04046605
186	0x3e4f3b66	0.20237502
187	0x3dc50cdc	0.09621593
188	0xbe0a0b47	-0.13480864
189	0xbe9b65ae	-0.30351013
190	0xbd3b0e32	-0.045667835
191	0xba973a51	-0.0011537765
192	0x3d3fb4cb	0.046803277
193	0xbe338b31	-0.17533566
194	0x3d9a60fe	0.07538031
195	0x3de8b052	0.113617554
196	0xbc880d61	-0.016607942
197	0xbc59f180	-0.013302207
198	0x3c565eab	0.013084094
199	0xbdb47124	-0.08810642
200	0xbd6220a1	-0.0552069
201	0x3bf0fa62	0.0073540667
202	0x3e5913c1	0.21198942
203	0xbe8fbf99	-0.28075865
204	0x3e72c603	0.23708348
205	0xbd71ee26	-0.059065007
206	0xbc0760d1	-0.008262829
207	0x3dcd9a50	0.100391984
208	0x3da3689b	0.07978936
209	0xbe3da661	-0.185205
210	0x3db33327	0.08749991
211	0xbc47ff24	-0.012206826
212	0x3d3927b1	0.04520387
213	0x3d99281e	0.07478355
214	0xbeaab6a6	-0.33342475
215	0x3d757f0e	0.059935622
216	0xbdd9f90b	-0.10643204
217	0xbd23e43b	-0.04001258
218	0x3e52e747	0.20596038
219	0x3d8c0c45	0.06838278
220	0x3cfbdc3d	0.030744666
221	0x3cca8fa6	0.0247267
222	0x3c2876c7	0.010282225
223	0x3d7d8d76	0.061902486
224	0x3e40ac12	0.1881564
225	0xbb886fe0	-0.004163727
226	0x3d171b25	0.03689112
227	0xbe0cb338	-0.13740242
228	0x3ec430af	0.38318393
229	0xbcc9a061	-0.024612607
230	0x3de57165	0.11203269
231	0xbddcfe4a	-0.10790689
232	0x3c275d23	0.010215077
233	0xbdd55ef3	-0.10418501
234	0x3e6c41e2	0.23072007
235	0x3dd2d2b3	0.10294094
236	0x3cf6391d	0.03005653
237	0xbe97046d	-0.29495564
238	0xbcdfd9a1	-0.027325453
239	0xbde069af	-0.109576575
240	0x3c13e453	0.009026605
241	0xbdda3554	-0.10654703
242	0x3e2803a7	0.16407643
243	0xbe4b2c9b	-0.19841234
244	0x3daaa6b0	0.08332574
245	0x3d3181d1	0.043336693
246	0x3deaaff3	0.11459341
247	0xbe76f9f6	-0.2411879
248	0x3e0866d9	0.13320483
249	0x3e2f114c	0.17096442
250	0x3cc5c76c	0.024142943
251	0x3e915a9a	0.28389436
252	0x3b99df78	0.004695829
253	0x3e1f963e	0.15584657
254	0xbe83506d	-0.25647298
255	0xbe529d62	-0.2056785

weight f4 [48]
0	0x3f6dba18	0.9286208
1	0x3f646012	0.8920909
2	0x3f3ab872	0.7293769
3	0x3eedd01c	0.46447837
4	0x3f87dcd7	1.061427
5	0x3f5268da	0.8219124
6	0x3f94ae78	1.1615744
7	0x3f44c305	0.76860076
8	0x3f553db6	0.8329729
9	0x3f62190b	0.8831946
10	0x3f6c5b4d	0.92326814
11	0x3f6460e5	0.8921035
12	0x3f6711b1	0.9026137
13	0x3f32be1c	0.69821334
14	0x3f455449	0.77081734
15	0x3f5700f7	0.8398585
16	0x3f88d7ff	1.0690917
17	0x3f385ed5	0.720197
18	0x3f4365b6	0.76327074
19	0x3f58564b	0.8450667
20	0x3f46b2d4	0.7761662
21	0x3f2d4289	0.6767965
22	0x3f23e233	0.6401703
23	0x3f9a00e2	1.203152
24	0x3f72163c	0.94565177
25	0x3f286691	0.65781504
26	0x3f63f250	0.89041615
27	0x3f6590c6	0.8967403
28	0x3f617c6a	0.88080466
29	0x3f7aac72	0.9791938
30	0x3f273a52	0.65323365
31	0x3f2ae464	0.66754746
32	0x3f916f8d	1.1362168
33	0x3f8e2bb0	1.1107082
34	0x3f63c6f6	0.88975465
35	0x3f692562	0.91072667
36	0x3f44a8c5	0.7682002
37	0x3f5b01ed	0.85549814
38	0x3f3ddb2f	0.7416257
39	0x3f721e54	0.9457753
40	0x3f9309c4	1.1487355
41	0x3f2fee21	0.6872273
42	0x3f8d357b	1.1031946
43	0x3f2edc0e	0.68304527
44	0x3f705016	0.938722
45	0x3f4d2d52	0.8014728
46	0x3f890fce	1.0707948
47	0x3f3a374e	0.7274064

bias f4 [48]
0	0x3c88e564	0.016710944
1	0xbd9a4dab	-0.07534345
2	0xbe9e8a63	-0.30964956
3	0xbe64ed33	-0.2235611
4	0x3d1cb548	0.03825882
5	0x3b1eb33c	0.0024215719
6	0xbe8291c3	-0.25501832
7	0xbdda43d2	-0.10657467
8	0xbe523c83	-0.20530896
9	0xbdf76bc5	-0.12081102
10	0xbe4ecd2a	-0.20195451
11	0xbe248077	-0.1606463
12	0x3d927ef8	0.071531236
13	0xbe1a541e	-0.1507115
14	0xbee42c9e	-0.4456529
15	0xbe796f72	-0.2435892
16	0x3e0e0831	0.13870312
17	0xbebbd551	-0.36686185
18	0xbeb9955d	-0.36246768
19	0xbebc9b89	-0.36837414
20	0xbdd2dd67	-0.102961354
21	0xbe7142de	-0.23560664
22	0xbec3a857	-0.3821437
23	0x3e541c1b	0.20713846
24	0xbe2437d0	-0.16036916
25	0xbea14802	-0.3150025
26	0xbeb663e5	-0.35623088
27	0xbe0c37a6	-0.13693103
28	0xbee58264	-0.44826043
29	0xbeaacbf6	-0.33358735
30	0xbe005c5d	-0.12535234
31	0xbee7cdcf	-0.45274207
32	0xbe4f9f8a	-0.20275703
33	0x3e657e55	0.22411473
34	0xbeaeb255	-0.34120432
35	0xbdcdaf00	-0.10043144
36	0xbe7c8e40	-0.24663639
37	0xbd7abf57	-0.061217632
38	0xbec01935	-0.3751923
39	0xbe8a151e	-0.26969236
40	0x3e12c3be	0.14332482
41	0xbe24ba13	-0.16086607
42	0x3dcc2e9e	0.09969829
43	0xbea819b3	-0.32832107
44	0xbe242de0	-0.16033125
45	0xbe794722	-0.24343541
46	0xbeb1708f	-0.34656188
47	0xbea87472	-0.3290134

running_mean f4 [48]
0	0xbeb455f4	-0.35221827
1	0xbde310a0	-0.11087155
2	0x3edd30ec	0.43201387
3	0xbf2e388e	-0.68055046
4	0xbe37ad77	-0.17937265
5	0xbebff223	-0.37489423
6	0x3c8ac716	0.016940635
7	0xbe97b756	-0.29632062
8	0x3edb38f5	0.42816892
9	0xbefe2b64	-0.4964248
10	0xbc5a8b74	-0.013338912
11	0xbd190c25	-0.037365098
12	0x3d44e924	0.048073903
13	0xbf0626d2	-0.52402985
14	0x3ed7636c	0.4206804
15	0x3dffdc8b	0.12493237
16	0xbe87a6ef	-0.26494548
17	0x3e2fb086	0.17157182
18	0x3eb53e2d	0.35399
19	0xbdd9d855	-0.10636965
20	0xbe4e8dab	-0.2017123
21	0xbe9cb33d	-0.30605498
22	0x3e92b696	0.28654927
23	0x3f00a9dd	0.5025919
24	0x3d3ee131	0.046601478
25	0xbedfac71	-0.4368625
26	0x3ed31375	0.41225782
27	0xbe865cd3	-0.26242694
28	0x3ec2f74e	0.38079304
29	0x3dc5b732	0.09654082
30	0xbf29e28d	-0.66361314
31	0x3e8cf9b7	0.27534267
32	0x3e81bc8b	0.2533916
33	0xbe9d8fd6	-0.307738
34	0xbdbebe5e	-0.093136534
35	0xbea436f2	-0.3207317
36	0x3edab244	0.4271413
37	0xbe45df89	-0.19323553
38	0x3d5d784d	0.054069806
39	0x3de303d9	0.11084718
40	0x3e9beb58	0.3045299
41	0xbf10aba4	-0.565119
42	0xbc4de0c4	-0.012565795
43	0xbf2819fc	-0.6566465
44	0xbdbcf7ec	-0.09226975
45	0x3c7a8e6b	0.015292744
46	0x3dd2b534	0.10288468
47	0x3eaa45e0	0.33256435

running_var f4 [48]
0	0x3e3bd6b3	0.1834362
1	0x3e824f0b	0.2545093
2	0x3fc340a9	1.5254108
3	0x40302502	2.7522588
4	0x3e99b5bf	0.30021474
5	0x3f13310d	0.5749672
6	0x3e881675	0.26579633
7	0x40430611	3.0472453
8	0x3f856e87	1.0424355
9	0x3f9c626b	1.2217535
10	0x3e6c6de3	0.23088793
11	0x3f8766ed	1.0578285
12	0x3dec456e	0.1153668
13	0x4040e919	3.0142272
14	0x3f33afdb	0.7019021
15	0x3f9c99b3	1.2234405
16	0x3f1ed78f	0.62047666
17	0x3fa5676a	1.2922184
18	0x3f0a7653	0.540868
19	0x3e8c134d	0.27358475
20	0x3fb01e0e	1.3759172
21	0x404f4731	3.2387202
22	0x3f4c85a3	0.79891413
23	0x3ee58c6d	0.448337
24	0x3f9b695f	1.2141532
25	0x40393fa5	2.8945096
26	0x3f3218cd	0.69569093
27	0x3ed5afa8	0.41735578
28	0x3f1fa5f1	0.6236258
29	0x3e508b14	0.20365554
30	0x401b088c	2.4223967
31	0x3f9f4270	1.244215
32	0x3e758168	0.23975146
33	0x3e1124dc	0.14174217
34	0x3e504276	0.20337853
35	0x3f98c752	1.1935828
36	0x3f1c6924	0.6109793
37	0x3f119a77	0.5687632
38	0x3ec93e7a	0.39305478
39	0x3e1c7562	0.15279153
40	0x3e3adc1e	0.1824803
41	0x3fdb5f71	1.7138501
42	0x3f2323a8	0.6372628
43	0x401dc020	2.4648514
44	0x3e983832	0.29730374
45	0x3f04cece	0.5187806
46	0x3eb563cc	0.354277
47	0x3eec7d74	0.46189463

weight f4 [48, 1, 3, 3]
0	0xbe9f4960	-0.31110668
1	0x3e45097e	0.19241902
2	0x3e778442	0.24171546
3	0xbe5591b1	-0.20856358
4	0x3cd79fee	0.026321378
5	0xbe35ad29	-0.17741837
6	0xbe05c86f	-0.1306474
7	0x3e574fa4	0.21026474
8	0x3d2a6924	0.041604176
9	0x3e61fd37	0.2206925
10	0x3e3086f6	0.17238984
11	0xbea2c101	-0.31787875
12	0x3dc21527	0.09476691
13	0xbdea4ea8	-0.11440784
14	0x3df86fbb	0.12130686
15	0x3ea6e187	0.3259394
16	0x3e105e65	0.14098509
17	0xbe3de208	-0.18543255
18	0xbdf49514	-0.11942497
19	0x3d257d5d	0.04040276
20	0xbe503df5	-0.20336135
21	0xbe8252b0	-0.2545371
22	0xbe8aecef	-0.2713389
23	0x3e54429f	0.20728539
24	0x3d60993e	0.054833643
25	0xbe995f07	-0.29955313
26	0x3e080469	0.13282932
27	0xbe0faf4e	-0.14031717
28	0xbe7ef1dd	-0.24896951
29	0xbe82bd48	-0.25535035
30	0xbed020f5	-0.40650144
31	0xbf17e4e3	-0.5933363
32	0xbf09ecec	-0.5387714
33	0xbe939df5	-0.2883145
34	0xbe9ef29d	-0.31044474
35	0xbe54f44b	-0.20796315
36	0x3e6c7821	0.230927
37	0xbebf1d9c	-0.37327278
38	0xbeb8ba3b	-0.36079583
39	0x3e952f53	0.29137668
40	0xbebc6a94	-0.36800063
41	0xbe89ebbd	-0.26937667
42	0x3db6986a	0.089157894
43	0x3e2e73c5	0.1703635
44	0xbdd74f0e	-0.10513125
45	0xbd63c4dd	-0.055607665
46	0x3e14e0fc	0.1453895
47	0xbe77c84f	-0.24197505
48	0x3e35a48e	0.17738554
49	0xbde22658	-0.1104247
50	0x3e46b8e9	0.19406475
51	0xbe3eacff	-0.1862068
52	0xbe8e23fb	-0.27761826
53	0xbeb30bae	-0.34969848
54	0x3e581cd9	0.21104755
55	0x3ca3f49e	0.020014104
56	0xbd063195	-0.03276213
57	0x3e563791	0.20919634
58	0x3dd47b97	0.103751354
59	0xbe47ab59	-0.19498958
60	0x3e8dc411	0.2768865
61	0x3eb746a1	0.35796073
62	0xbe3bac80	-0.18327522
63	0xbeca20a7	-0.39478037
64	0xbed9ee9a	-0.4256485
65	0xbe23125e	-0.15924975
66	0xbe0ee255	-0.13953526
67	0xbefbb860	-0.49164104
68	0x3e294b8f	0.1653273
69	0xbe1c0739	-0.1523713
70	0x3dec1a18	0.115284145
71	0x3d7245fd	0.059148777
72	0x3ea5aa80	0.32356644
73	0xbe959064	-0.29211724
74	0x3dabe676	0.08393566
75	0x3e8e258e	0.27763027
76	0x3daae58e	0.08344565
77	0x3d222140	0.03958249
78	0x3e9096ff	0.282402
79	0x3dfb1095	0.12259022
80	0xbec5ee76	-0.38658494
81	0x3e350a61	0.1767974
82	0x3eb41a2e	0.35176224
83	0x3dfba4ea	0.12287314
84	0xbce963d4	-0.028489985
85	0xbdf2642e	-0.11835514
86	0x3e6180be	0.22021767
87	0xbe30f956	-0.17282614
88	0xbe578392	-0.21046284
89	0xbdd3a862	-0.10334851
90	0x3db28419	0.08716602
91	0xbd981fbc	-0.07427928
92	0xbe4f38a2	-0.20236447
93	0x3ea142aa	0.31496173
94	0xbdaa3881	-0.083115585
95	0xbe838f49	-0.25695255
96	0xbea830b7	-0.32849666
97	0x3e821b25	0.25411335
98	0xbe1fcd48	-0.15605652
99	0xbe2ce9ba	-0.16886035
100	0xbe274dd8	-0.16338289
101	0x3d7e466f	0.06207889
102	0x3ec376a5	0.38176456
103	0x3e80fb0a	0.25191528
104	0x3e6d187c	0.23153871
105	0x3cc08912	0.02350286
106	0xbcd7138c	-0.026254438
107	0xbe28b37a	-0.16474715
108	0xbdf061a9	-0.11737377
109	0xbebda3f9	-0.37039164
110	0xbd5c19aa	-0.053735413
111	0x3e465383	0.19367795
112	0xbe0b4bb3	-0.13603096
113	0x3e824084	0.25439847
114	0x3e29e409	0.16590895
115	0xbe57d8e9	-0.21078838
116	0x3eb43314	0.3519522
117	0x3eccf996	0.4003417
118	0x3e239a54	0.1597684
119	0xbe4b2d14	-0.19841415
120	0x3edc97ec	0.43084657
121	0x3e3a5f01	0.18200304
122	0xbdcd25f4	-0.100170046
123	0x3e0734a7	0.13203679
124	0xbded80d9	-0.11596841
125	0x3ebc7af1	0.36812547
126	0x3e943761	0.289485
127	0x3e4ca632	0.19985273
128	0x3e8f5118	0.27991557
129	0xbc35a4a0	-0.011086613
130	0xbdcc4bbf	-0.09975385
131	0xbd29a36e	-0.041415624
132	0x3d05cb13	0.03266437
133	0xbe9ace94	-0.30235732
134	0x3e6e9bf3	0.23301677
135	0x3d8940ef	0.06701838
136	0xbe962add	-0.29329577
137	0xbe8bf2ba	-0.27333623
138	0x3e74e7d0	0.23916554
139	0xbe312806	-0.17300424
140	0xbe0a1de0	-0.13487959
141	0xbe0f14aa	-0.13972726
142	0x3e0ae214	0.13562804
143	0x3e4a4ca7	0.19755803
144	0xbe97fecc	-0.29686582
145	0xbe96a505	-0.29422775
146	0xbeb41ea2	-0.3517962
147	0x3eb7e29d	0.3591508
148	0x3de4c413	0.11170211
149	0xbe6638ee	-0.22482654
150	0x3e1e1e93	0.1544135
151	0xbddef172	-0.10885896
152	0x3e700031	0.23437573
153	0xbed59c53	-0.41720828
154	0xbed725a8	-0.42020917
155	0xbd51bcc5	-0.051205415
156	0xbe70c6c6	-0.23513326
157	0xbecb2ec6	-0.39684123
158	0x3d849e79	0.06475539
159	0x3e83dba2	0.25753504
160	0xbdb3291c	-0.08748075
161	0x3db03600	0.0860405
162	0xbc94a49c	-0.018144898
163	0xbe44efa2	-0.19232038
164	0x3e69184a	0.22763172
165	0x3e93eb3a	0.288904
166	0x3e88cc84	0.26718533
167	0x3dc687ff	0.09693908
168	0xbcf26f3b	-0.029594054
169	0x3e8c5ec8	0.27416062
170	0xbe06ed91	-0.13176562
171	0x3e16836d	0.14698572
172	0xbd4d4623	-0.050115716
173	0xbebeca99	-0.37263945
174	0xbecde99a	-0.40217286
175	0xbd9f1aea	-0.07768805
176	0xbc9b5cc3	-0.01896513
177	0x3e73536b	0.2376229
178	0xbd39d8b9	-0.0453727
179	0xbe9677ab	-0.29388174
180	0x3e3c1cac	0.18370312
181	0xbe96cbac	-0.29452264
182	0xbe8fe407	-0.2810366
183	0xbe6d600a	-0.23181167
184	0xbec9863f	-0.39360234
185	0xbdbcebf1	-0.0922469
186	0xbe03643e	-0.12831208
187	0x3d5bb42e	0.05363863
188	0xbe45b794	-0.19308311
189	0x3e57d4b8	0.2107724
190	0x3e825435	0.2545487
191	0xbe99d080	-0.30041885
192	0xbbe370d1	-0.006940939
193	0x3e701143	0.23444085
194	0x3ca9ce03	0.020728117
195	0x3e820a17	0.25398323
196	0x3d0056a8	0.03133264
197	0x3dc76ead	0.097379066
198	0x3e9fadaa	0.31187183
199	0x3e07236b	0.13197105
200	0xbe7614b0	-0.24031329
201	0xbd322945	-0.04349639
202	0xbec4211f	-0.3830652
203	0x3d3503db	0.04419313
204	0xbeb02c8d	-0.3440899
205	0xbecc83e1	-0.39944366
206	0xbebe7e80	-0.37205887
207	0xbeb569d9	-0.35432318
208	0xbeccd14f	-0.4000344
209	0xbeb6e18d	-0.35718957
210	0xbc617442	-0.013760628
211	0x3e0859c0	0.13315487
212	0x3e8250fd	0.25452414
213	0x3e03b8de	0.1286349
214	0x3e4886db	0.19582693
215	0x3edc5556	0.43033856
216	0x3e3b5945	0.18295772
217	0xbe7a39c7	-0.24436103
218	0x3e802707	0.25029776
219	0xbdb953bf	-0.090491764
220	0x3eb18258	0.34669757
221	0xbdeb7e90	-0.11498749
222	0xbe1d0e6f	-0.15337537
223	0x3eca9033	0.3956314
224	0x3eab465e	0.33452123
225	0xbeb20aa4	-0.34773743
226	0xbe9bb944	-0.30414784
227	0x3e83a590	0.25712252
228	0x3e5970b6	0.21234402
229	0xbe8240e0	-0.2544012
230	0xbe94edf3	-0.2908779
231	0xbdb8c75b	-0.09022399
232	0xbe75d2dd	-0.24006219
233	0xbdbb1a91	-0.091359265
234	0xbbb22c3b	-0.0054374016
235	0x3e2431fa	0.1603469
236	0xbe21cdb0	-0.1580112
237	0x3e952323	0.2912837
238	0x3e75401d	0.23950239
239	0x3e40fd4c	0.18846625
240	0x3ed06770	0.40703917
241	0xbe875fb3	-0.264402
242	0xbd825ff6	-0.06365959
243	0x3e37ea54	0.17960483
244	0xbdfa17bc	-0.12211558
245	0xbe67057d	-0.22560687
246	0x3e450440	0.19239902
247	0x3e4a3faf	0.19750856
248	0x3c83e986	0.016102564
249	0x3c11939d	0.008885291
250	0x3e919dca	0.28440696
251	0x3db9e14c	0.09076175
252	0xbe9f77f7	-0.31146213
253	0x3d86c27b	0.06580063
254	0xbeb2f66f	-0.3495364
255	0x3e60a65f	0.21938466

weight f4 [72, 48, 1, 1]
0	0x3e3a8148	0.1821338
1	0x3d0f60e4	0.03500451
2	0xbd975bf3	-0.07390585
3	0x3df3a7f3	0.11897268
4	0xbe82898c	-0.25495565
5	0xbd6f54d7	-0.05843052
6	0x3cd4a8a7	0.025959326
7	0xbe25142d	-0.16120978
8	0xbe0efa62	-0.13962701
9	0x3e074ae2	0.1321216
10	0xbe303811	-0.17208888
11	0x3dfefe27	0.124508195
12	0xbdcbbeaf	-0.099484794
13	0xbd59be0d	-0.053159762
14	0xbbdbc3a9	-0.006706674
15	0xbcfb2b21	-0.030660214
16	0xbe6d00ca	-0.23144832
17	0x3e1d8b7d	0.15385242
18	0x3e2f9cb2	0.17149618
19	0x3d203de9	0.039121542
20	0xbd3452f7	-0.044024434
21	0x3d6004d6	0.054692112
22	0x3e134a9e	0.14383933
23	0xbcff02a6	-0.031129193
24	0x3edfc4ee	0.43704933
25	0xbeda55b8	-0.42643523
26	0x3d6cd64b	0.057821553
27	0xbe7b8c1a	-0.24565163
28	0xbe3d812f	-0.18506311
29	0x3e71bc09	0.23606886
30	0x3cc47fe7	0.02398677
31	0x3e5b8003	0.21435551
32	0x3e0c24b8	0.13685882
33	0x3d8f659c	0.07001802
34	0x3a23151c	0.0006221102
35	0xbe7e0497	-0.24806438
36	0xbe821b61	-0.25411513
37	0x3dba45d3	0.09095349
38	0xbd902d52	-0.07039894
39	0x3d2730c6	0.040818
40	0xbeb4249a	-0.35184175
41	0xbd837ecc	-0.06420669
42	0xbe9c44cb	-0.30521235
43	0xbeb59dd1	-0.35471967
44	0xbca90d90	-0.02063635
45	0x3e06b77f	0.13155936
46	0xbd3f6125	-0.046723504
47	0x3dd0ac5f	0.10189127
48	0xbc88fd2e	-0.016722288
49	0xbe3f112f	-0.18658899
50	0x3dc02573	0.09382143
51	0x3cacb0e1	0.021080436
52	0x3e49be72	0.19701555
53	0xbdd1e96a	-0.10249598
54	0xbe839fbd	-0.25707808
55	0xbd7c9757	-0.061667766
56	0xbe252f77	-0.16131388
57	0x3e3c7182	0.18402675
58	0x3e95fd2b	0.29294714
59	0x3e1b0707	0.151394
60	0x3d95af8b	0.07308873
61	0x3dc96f81	0.09835721
62	0x3cc137a1	0.023586096
63	0x3cf9fb6f	0.0305154
64	0xbda1bf41	-0.07897807
65	0x3e86d0ac	0.2633108
66	0xbc388a0a	-0.01126338
67	0x3e5925ec	0.21205872
68	0xbd6f3314	-0.05839832
69	0xbe1a773c	-0.15084547
70	0x3d032d67	0.03202572
71	0xbddd24c8	-0.10798031
72	0xbe1d1593	-0.15340261
73	0xbe23b73c	-0.15987867
74	0x3dea6a91	0.11446107
75	0xbe1117a3	-0.14169173
76	0x3ce66378	0.028123602
77	0xbd15ce48	-0.03657368
78	0xbd94682c	-0.07246432
79	0x3e76338b	0.240431
80	0x3e53d4dd	0.2068667
81	0xbde6fb9a	-0.11278458
82	0x3db626f4	0.088941485
83	0x3e0ca74d	0.13735695
84	0xbd2f766a	-0.042837538
85	0x3dd04b00	0.10170555
86	0x3d94b94b	0.07261904
87	0xbc160191	-0.009155647
88	0xbd14f7fc	-0.03636931
89	0xbe10b32b	-0.14130847
90	0x3d674849	0.05646542
91	0xbd54e43f	-0.051975485
92	0x3da60496	0.081063434
93	0x3e022af1	0.12711693
94	0x3e394864	0.18094021
95	0x3d462bf8	0.048381776
96	0xbda484dd	-0.08033154
97	0x3e3d5a08	0.18491375
98	0xbce88dcd	-0.028387928
99	0xbb4886ed	-0.0030598
100	0x3d931de0	0.071834326
101	0x3c95c084	0.018280275
102	0x3e7e812b	0.24853961
103	0xbdf37319	-0.118871875
104	0x3e2946ef	0.16530965
105	0x3d76031b	0.060061555
106	0xbda55668	-0.08073121
107	0xbdc5b5c3	-0.09653809
108	0x3e86df26	0.26342124
109	0x3e445b52	0.19175461
110	0xbcf2ebb2	-0.029653404
111	0xbbcf7cd3	-0.006332019
112	0xbe26fc50	-0.16307187
113	0xbd9c00e9	-0.07617361
114	0x3e741832	0.23837355
115	0xbc1dc19e	-0.0096286815
116	0x3c9450b3	0.018104887
117	0xbd87bc7a	-0.06627746
118	0x3da3c4ea	0.07996543
119	0x3ba6883d	0.005082159
120	0x3e752ba9	0.23942436
121	0xbe300f7c	-0.17193407
122	0x3db054c3	0.08609917
123	0x3e16e06f	0.14734052
124	0x3c8a2497	0.01686315
125	0x3e6f3584	0.23360258
126	0x3e58b3fd	0.2116241
127	0x3d49220d	0.04910474
128	0x3eaa2324	0.33229935
129	0xbe8174a0	-0.2528429
130	0x3de4c246	0.11169867
131	0xbe6b086a	-0.22952428
132	0xbc87392f	-0.01650676
133	0x3e1ffa8f	0.15622924
134	0xbed7de52	-0.42161804
135	0x3e3fc33d	0.18726821
136	0x3d0786ec	0.033087656
137	0xbdf02850	-0.11726439
138	0x3be71d97	0.007053088
139	0xbe417266	-0.18891296
140	0xbea1581e	-0.3151254
141	0x3dda6445	0.10663656
142	0x3e8baaa4	0.27278626
143	0xbdf1fc71	-0.118157275
144	0x3d63763b	0.055532675
145	0x3e23329e	0.15937278
146	0x3dbf47f9	0.093398996
147	0x3e89fa7f	0.26948926
148	0x3e601cbd	0.21885963
149	0xbe0d9c52	-0.13829163
150	0x3e2816c8	0.1641494
151	0x3e19be3c	0.15013975
152	0x39051748	0.00012692541
153	0x3b9c5bf5	0.0047717043
154	0xbe61d79a	-0.22054902
155	0xbe2d11ed	-0.1690137
156	0xbdb7b9d8	-0.08970994
157	0x3db94595	0.09046475
158	0xbe5431b9	-0.20722093
159	0x3de0d734	0.10978547
160	0x3c3408cc	0.010988425
161	0xbdc94385	-0.098273315
162	0x3d23c78c	0.039985225
163	0x3e1fe83b	0.15615933
164	0x3dacebf4	0.08443442
165	0xbd0a6400	-0.033786774
166	0x3c770d3b	0.015078838
167	0x3e22e163	0.1590629
168	0x3e044bd5	0.12919553
169	0x3e2078e3	0.15671115
170	0xbe765dcc	-0.24059218
171	0x3de9c5b0	0.11414659
172	0x3c533e27	0.012893236
173	0xbd811bef	-0.06304156
174	0x3e58832f	0.21143793
175	0x3a14761a	0.00056633505
176	0xbde1f6e1	-0.110334165
177	0xbe2a27e9	-0.16616787
178	0x3e3bc76d	0.18337794
179	0xbead4b0f	-0.33846328
180	0x3e034b41	0.12821676
181	0x3d96893f	0.07350396
182	0xbdb3d686	-0.087811515
183	0x3dd29ec3	0.10284188
184	0x3c9f2d53	0.019430792
185	0x3e6d15c8	0.2315284
186	0xbbf4e400	-0.007473469
187	0x3d2f25d2	0.042760678
188	0xbdb72f63	-0.08944585
189	0xbccf8c99	-0.025335597
190	0x3de4b2e9	0.11166937
191	0x3d9aa95f	0.07551836
192	0xbdcbfe7d	-0.09960649
193	0x3c531f53	0.012885886
194	0xbe39af9d	-0.18133397
195	0xbe105835	-0.14096148
196	0x3d19c808	0.03754428
197	0xbd60c56e	-0.054875784
198	0x3df45aee	0.11931406
199	0xbcbfbf05	-0.023406515
200	0x3d1a834a	0.037722863
201	0xbc7aba9d	-0.015303281
202	0xbe85cb90	-0.26131868
203	0x3dc5e6c9	0.096631594
204	0xbe34ec72	-0.17668322
205	0x3db38898	0.087662876
206	0x3dfb0b5d	0.12258027
207	0xbdeff021	-0.11715723
208	0xbd9c6e09	-0.07638175
209	0xbe0b9301	-0.13630296
210	0x3ec7434b	0.38918528
211	0x3d247a8a	0.040155925
212	0xbe3170a1	-0.17328121
213	0x3ddb356b	0.10703548
214	0x3e4a4f55	0.19756825
215	0xbdef8ada	-0.11696406
216	0x3da2d23e	0.07950257
217	0xbd3dfb3e	-0.04638218
218	0x3e3a52a1	0.18195583
219	0x3ce80da0	0.02832681
220	0xbe2139db	-0.15744726
221	0x3e0f0017	0.13964878
222	0x3e1cb5ba	0.15303698
223	0x3dbe5d66	0.09295158
224	0x3cfe3348	0.031030312
225	0xbc7bc7dc	-0.015367474
226	0x3e7bbcdf	0.24583767
227	0xbd7b0910	-0.06128794
228	0xbeb7ec55	-0.35922495
229	0x3e2256b5	0.15853389
230	0xbe9659a0	-0.29365253
231	0x3c060793	0.008180517
232	0xbe85f995	-0.26166978
233	0xbcfd901d	-0.030952508
234	0xbe18415a	-0.1486868
235	0xbe8700e9	-0.26367882
236	0xbd7ba9d9	-0.061441276
237	0x3dfa9f02	0.122373596
238	0x3ea2d8d7	0.3180606
239	0xbc683818	-0.01417353
240	0xbe14c3a8	-0.14527762
241	0xbd5f5e0d	-0.054533053
242	0xbde575f7	-0.11204141
243	0x3cac3fe6	0.021026563
244	0xbe808d13	-0.2510763
245	0x3eda2c57	0.42611954
246	0xbdf10224	-0.117679864
247	0xbda335a6	-0.07969217
248	0xbd90da45	-0.070728816
249	0xbd8970a9	-0.06710941
250	0x3cc5e893	0.024158752
251	0xbd92344b	-0.0713888
252	0xbe564c64	-0.20927578
253	0xbcfc87ce	-0.030826475
254	0xbdfe35e0	-0.124126196
255	0x3e245965	0.16049726

weight f4 [72]
0	0x3f808f23	1.0043682
1	0x3f66e26e	0.90189254
2	0x3f8ac1c6	1.0840385
3	0x3f88e6cf	1.0695437
4	0x3f819dbe	1.0126264
5	0x3f89d615	1.0768458
6	0x3f8d31d5	1.1030833
7	0x3f85b3a8	1.0445452
8	0x3fb04e8e	1.3773973
9	0x3f887e68	1.0663576
10	0x3f844141	1.0332414
11	0x3f7f1216	0.9963697
12	0x3f8e3c38	1.1112127
13	0x3f8fc45b	1.1231798
14	0x3f881539	1.0631477
15	0x3f85601f	1.0419959
16	0x3f8e3ac7	1.1111687
17	0x3f9369d6	1.1516674
18	0x3f835ee1	1.026333
19	0x3f9a4a61	1.2053949
20	0x3f810678	1.0080099
21	0x3f87bae0	1.0603905
22	0x3f673f00	0.90330505
23	0x3f849ce6	1.0360382
24	0x3f828297	1.0196103
25	0x3f67dc25	0.9057029
26	0x3f6cd6b3	0.92515105
27	0x3f8e3247	1.1109093
28	0x3f71a99b	0.9439942
29	0x3f78e280	0.9722061
30	0x3f64651d	0.89216787
31	0x3f948641	1.1603471
32	0x3f8acd62	1.0843928
33	0x3f82a505	1.020661
34	0x3f8286ea	1.0197423
35	0x3f9801ef	1.187559
36	0x3f8403a7	1.0313615
37	0x3f6b0390	0.9180231
38	0x3f9edf6c	1.2411933
39	0x3f83f12d	1.0307976
40	0x3f94d67a	1.1627953
41	0x3f77e480	0.9683304
42	0x3f82d773	1.0222
43	0x3f80dd42	1.0067523
44	0x3f8f304b	1.1186613
45	0x3f84621a	1.0342438
46	0x3f82bb63	1.0213436
47	0x3f837235	1.0269228
48	0x3f740d05	0.95332366
49	0x3f8c9fe4	1.0986295
50	0x3f872203	1.0557255
51	0x3f7cad7a	0.98702204
52	0x3f7bb28e	0.9831933
53	0x3f7d8cca	0.9904295
54	0x3f7ed178	0.99538374
55	0x3f84422d	1.0332695
56	0x3f84bda2	1.0370371
57	0x3f670061	0.90234953
58	0x3f7b1072	0.9807197
59	0x3f88b350	1.0679722
60	0x3f8a1b55	1.0789591
61	0x3f83cfb1	1.0297757
62	0x3f81b214	1.013247
63	0x3f7e500d	0.993409
64	0x3f7576c3	0.9588434
65	0x3f62148b	0.88312596
66	0x3f6795d6	0.90463006
67	0x3f826c48	1.0189295
68	0x3f89131a	1.0708954
69	0x3f97710f	1.1831378
70	0x3f8edc0a	1.11609
71	0x3f8055d5	1.0026194

bias f4 [72]
0	0x3db0538e	0.08609687
1	0x3e059483	0.13044934
2	0xbdd23a4c	-0.102650255
3	0x3d03ac6f	0.032146867
4	0xbe28016b	-0.16406791
5	0x3ecf46fe	0.4048385
6	0x3e765b36	0.24058232
7	0x3e9b60c5	0.30347267
8	0x3eac25c0	0.3362255
9	0x3e50dccf	0.20396732
10	0x3e97735e	0.29580206
11	0x3e19d956	0.15024313
12	0x3ea37008	0.3192141
13	0xbdb89d47	-0.09014373
14	0xbddd7e4a	-0.10815103
15	0x3e117643	0.1420527
16	0xbda33d06	-0.07970624
17	0x3d3f2e5b	0.046675067
18	0xbead978b	-0.3390468
19	0xbc901880	-0.017589808
20	0x3e6e9cf4	0.2330206
21	0x3ef37b6e	0.47555107
22	0x3e4cf695	0.20015939
23	0x3d11e132	0.035615154
24	0xbe653951	-0.22385146
25	0xbd4a4015	-0.04937752
26	0x3e2e2da7	0.17009602
27	0x3e880717	0.2656791
28	0xbc804a59	-0.015660452
29	0xbd9716fe	-0.07377432
30	0x3e1b7dfd	0.1518478
31	0x3ded4c82	0.11586858
32	0x3edeb3f8	0.4349668
33	0xbe038cf3	-0.12846737
34	0x3e4f7f94	0.20263511
35	0xbdbf42d9	-0.09338922
36	0x3eb4fc01	0.35348514
37	0xbb070ee1	-0.0020608234
38	0x3cc55cc1	0.02409208
39	0x3e029774	0.12753087
40	0x3e358ff8	0.17730701
41	0xbe2247bd	-0.15847678
42	0xbe053677	-0.13009058
43	0x3d518d75	0.051160295
44	0x3e14c7ca	0.14529338
45	0xbe461617	-0.19344364
46	0x3da42992	0.080157414
47	0xbe142396	-0.144667
48	0x3e681237	0.22663198
49	0x3e82bcfc	0.2553481
50	0x3e4d2054	0.20031863
51	0x3e8316d9	0.2560337
52	0x3e38e8f5	0.18057616
53	0x3c81c118	0.015839145
54	0x3e3452ba	0.17609683
55	0xbd21dc23	-0.03951658
56	0x3d33ea26	0.043924473
57	0xbdb01c5b	-0.085991584
58	0x3d6fcec2	0.05854679
59	0x3e37e2fc	0.17957681
60	0xbd6c8916	-0.057747923
61	0x3e99adca	0.30015403
62	0x3d7ae161	0.061250094
63	0x3e630851	0.22171141
64	0xbe90ab44	-0.28255665
65	0x3e51d3e7	0.2049099
66	0x3e8b4881	0.27203754
67	0x3e65274e	0.22378275
68	0x3d87f1ce	0.066379175
69	0xbefc1361	-0.49233535
70	0x3da26452	0.07929291
71	0x3c0ba1f1	0.008522497

running_mean f4 [72]
0	0x3f1662d9	0.5874458
1	0xbe146ac2	-0.1449385
2	0x3f81a571	1.0128614
3	0xbf18ed20	-0.59736824
4	0x3f8eaae6	1.1145904
5	0xbed72adb	-0.42024884
6	0xbe8bfde0	-0.2734213
7	0xbe887511	-0.26651815
8	0xbfbbcbc9	-1.4671565
9	0xbea5dd52	-0.32395416
10	0x3e8bf9f0	0.27339125
11	0x3efdf451	0.4960046
12	0xbf657f1e	-0.8964709
13	0x3e426ce6	0.18986854
14	0x3d18c67b	0.03729866
15	0xbf53f622	-0.82797444
16	0xbe519a4a	-0.20469013
17	0x3f1e851a	0.61921847
18	0x3f29a7e7	0.66271824
19	0xbddab4b6	-0.10678999
20	0xbd8bdeb4	-0.068295866
21	0xbef4e690	-0.47832155
22	0x3f474129	0.778338
23	0x3f5a62a0	0.8530674
24	0xbec873ba	-0.39150792
25	0x3f227474	0.63458943
26	0x3e1983e4	0.14991719
27	0x3e74e2b4	0.23914605
28	0xbebb568a	-0.36589462
29	0x3c0006df	0.007814138
30	0xbebf225d	-0.37330905
31	0xbcf41978	-0.0297973
32	0x3f86ca7b	1.0530542
33	0x3eb03e9f	0.34422776
34	0xbf0de64e	-0.5542954
35	0xbf2af6a9	-0.66782624
36	0xbd9ba6d1	-0.07600177
37	0x3f3819f7	0.7191462
38	0xbdaadbbb	-0.083426915
39	0x3e1ab600	0.1510849
40	0xbf58c70e	-0.84678733
41	0x3ef64fd5	0.48107782
42	0x3f64edee	0.8942555
43	0xbed59228	-0.4171307
44	0xbf978a8f	-1.183916
45	0x3f4b1aa9	0.79337555
46	0xbea95e9d	-0.33079997
47	0x3eb4dda7	0.35325357
48	0xbf356e97	-0.7087187
49	0x3f8291e7	1.0200776
50	0x3d0dfb4a	0.034663476
51	0x3e7b7647	0.24556838
52	0xbf39125d	-0.72293645
53	0xbdf913fe	-0.12162016
54	0x3e34356f	0.17598508
55	0xbe5cb4de	-0.2155337
56	0x3eec795f	0.4618635
57	0xbe9ab2b7	-0.30214474
58	0x3f823241	1.0171586
59	0x3eb47cfa	0.352516
60	0xbe3e9658	-0.18612039
61	0xbe4835b7	-0.1955174
62	0x3f63e8fe	0.8902739
63	0x3ecb9fdc	0.397704
64	0x3f92a67c	1.1457057
65	0xbded4f20	-0.115873575
66	0x3f63b6cc	0.889508
67	0x3f96a50d	1.176912
68	0x3ed548db	0.41657147
69	0x3fa6b6a1	1.3024484
70	0xbfbbe3bc	-1.4678874
71	0xbed7f3c6	-0.42178172
